algs/outputs/CartPole-v1/20230412-102005/models/ppo_actor.pt (torch, 272863 bytes, 6 tensors)

actor.0.weight f4 [256, 4]
00000000: 2514 a73e fccf a63e 2ab4 8fbe 39c8 193f
00000010: b245 373e d39b a1be 2b52 85bc 8bcc 00bf
00000020: 75ef 22bc 2bc5 6c3e 522c 5ebe cf81 fa3e
00000030: 1100 7b3d a822 f63e 59ca 063e 0908 33bf
00000040: e826 81be 68ec fa3d d696 e73e 807e f13e
00000050: ff1a bcbe 8829 92be abb2 01bd c7c4 f6bc
00000060: 11c2 bd3c 7838 e53d 1944 153e 3a9b b9be
00000070: 0dc4 f03d d157 f7be 14f4 bd3e ca1f a13e
00000080: 5811 88be 3fe3 ec3e d5eb 053e 700b f33c
00000090: 0735 adbe 848a c33e 48d2 cbbe afdf ceba
000000a0: eccd 593e 81f3 79be ed90 023e a5f4 363d
000000b0: f4d8 d93e 45e9 693e e2ad ca3d 56b9 21bd
000000c0: 6e94 2f3d d3f8 c5be 1113 ba3b afea f53e
000000d0: 43dc 43bd 80a8 9a3d 5c4d 29bc 7641 183e
000000e0: 5cac 40bd 2777 c93e aecb 683e 262a 1e3f
000000f0: 54e2 893e 685d 67bc 238c a4be dc81 f53e
00000100: 972e e13e 26a7 4b3e d462 25bf 109a d2be
00000110: fdaa 66be 1c3d b8be cae8 1b3f 6ada 163f
00000120: 6431 ca3d 58cb 8fbc 2f2a 34bf 3b63 febe
00000130: 69b2 3b3c 95ac 983e 862c 163d 60d4 863d
00000140: 343e 7a3e eb8a 913e 27d5 a1bc 56a3 a13e
00000150: f12f 75bd 5383 6abe 0b9a ccbe 7ea9 5fbd
00000160: 7776 0abe 6a77 c5be 8075 773e 2bf4 cfbe
00000170: bb60 0ebe a792 713e c0cd 613e eb4f 823d
00000180: e128 04bd 62ab dcbe c7fe a8bd 0288 d1be
00000190: 679c 953e 139a cabd 4ed0 bb3e fd6d d63c
000001a0: bcb0 e63e 44e4 47bc fc33 1b3f e77c a63e
000001b0: 9123 523e 080d dc3d 1dfb 593e 5bef f7be
000001c0: b28d df3e f9d8 7fbd 41ce a63e 0f66 293e
000001d0: 568a cabe 9dd4 5f3d fde2 2e3e 6eb9 b23e
000001e0: 48b1 a33d 2043 83be 6beb debe e641 02bf
000001f0: a129 913e 94e8 abbe 1ec3 b3be d2b4 a93e
00000200: 5718 a9be 12ba 93bb e228 6fbe d8f0 e3be
00000210: 6ea2 2d3e dbb4 91be 459a c6bc acf7 8fbe
00000220: de76 71bc c515 0abe c8a6 fcbe 5430 383e
00000230: 6cfb ac3e 5085 09bf 7a32 3a3e 4bc2 29bf
00000240: 4128 51be d8e0 ad3e bee8 af3e 1a11 f03e
00000250: 0d4c 953d ff68 25be f9fe 18be afd8 f8be
00000260: e75d e03e 2e12 b43d 27ec d1bd 6731 903e
00000270: 73bc 5c3e 7958 703e ea6d f63d 22c2 733e
00000280: e8d3 a23e 5873 bd3e a2a2 073f 2e1e 8f3d
00000290: c469 ebbe 8244 053e f909 a43e 23ce 1cbf
000002a0: 5498 97be 0ed5 a63e 7b0c 73be ad5e b53e
000002b0: e1a4 cb3e 9a84 e4be ed9d b13e ad46 c43e
000002c0: 5f71 9fbe e003 b6be 1a97 983d 678a 213e
000002d0: 1a4c 653e 8a04 90be 99b9 55bd 5547 ccbe
000002e0: 037c fd3e f661 9fbe 0f1d 1a3e 48d4 83be
000002f0: 630c f7ba 5895 03bf 8050 693d 3896 e5be
00000300: 8939 adbd 1b29 c0be 90ac 69be 9e21 213f
00000310: d335 c73e 935e c23d 3e71 0b3f 0cf8 1a3f
00000320: f7be 96be 84c6 83bd a9a0 bbbd fb0c eebe
00000330: 259e d33b 80d3 73bd 0a1f 8dbe 09bb 2dbf
00000340: 0dbc d53d c556 be3e ff80 1ebf bd91 9dbe
00000350: 028c 90be e7f9 403e 62e9 25be 8aac d7be
00000360: 7b97 e9bb 3f9e c5bd fb7a 91be b37e 5b3e
00000370: f406 b03d 73e1 af3e 2bef 733e ad96 ed3e
00000380: c13e 1fbe 07f5 85be 0d5d a6be 5817 9b3e
00000390: a272 43be c2f1 2cbe e1dd a53d 15d6 0b3f
000003a0: e5db 133e b51c 4e3e e341 80bd 075e f1be
000003b0: 129e b1be e05c 92be 3691 f03e a707 523e
000003c0: 9db7 c0be e657 d1be 074f a6be 0b07 5a3e
000003d0: afce c83e d119 02be fd74 003d 0da3 aa3d
000003e0: 4af1 1a3d 60e6 b23e 3999 09bf e7ba 89be
000003f0: 10b9 dabc 141a 5bbe 5308 07bf 739e dfbe
0.32632557 0.32580554 -0.28067142 0.6007114 0.1789768 -0.31564197 -0.016274532 -0.5031211
-0.009944786 0.23122089 -0.21696594 0.4892716 0.06127936 0.48073316 0.13163127 -0.69934136
-0.25224996 0.12252122 0.45232266 0.47166824 -0.36739346 -0.2854731 -0.03166453 -0.030123128
0.023163827 0.11192411 0.14576758 -0.3625124 0.11756144 -0.48309186 0.3710028 0.31469566
-0.26575732 0.46267125 0.13078244 0.02966854 -0.3382952 0.38191617 -0.3980887 -0.0015783216
0.21269959 -0.24409296 0.12750597 0.044666905 0.42548335 0.22842892 0.09896447 -0.03948339
0.042866163 -0.386664 0.0056785424 0.48030612 -0.04781748 0.0755167 -0.010333385 0.14868721
-0.047039375 0.3934872 0.22733948 0.61783063 0.26930487 -0.014121391 -0.32138166 0.47950637
0.43980858 0.19887981 -0.64603925 -0.41133165 -0.22526164 -0.35984123 0.6090208 0.58927023
0.09872702 -0.017553017 -0.7037687 -0.49685082 0.0114561105 0.2981917 0.036663555 0.06583476
0.24437791 0.28426298 -0.01975496 0.31569928 -0.059860174 -0.22901659 -0.39961275 -0.054605
-0.13521753 -0.38567668 0.24165916 -0.40615973 -0.13904087 0.235911 0.22051144 0.063628994
-0.032265548 -0.43099505 -0.0825172 -0.40924078 0.29220888 -0.098926686 0.3668236 0.026175493
0.45056713 -0.012200419 0.60626197 0.32517168 0.2052138 0.10744673 0.21287198 -0.484248
0.43662792 -0.06246278 0.32579234 0.16542839 -0.39558667 0.054646123 0.17078777 0.34907097
0.07992798 -0.2563715 -0.43538985 -0.50881803 0.28352073 -0.3357588 -0.351098 0.33145767
-0.33026382 -0.0045082653 -0.2335544 -0.44519687 0.16956493 -0.28458294 -0.024243483 -0.28118646
-0.014737813 -0.13484867 -0.49345994 0.17987186 0.3378557 -0.53719044 0.18183318 -0.6631209
-0.20425512 0.33960605 0.34357256 0.46888047 0.07289896 -0.16153334 -0.14941014 -0.48602816
0.43821642 0.0879253 -0.102501206 0.2816269 0.21556263 0.2347125 0.12032683 0.23804525
0.31802297 0.37002063 0.5298253 0.06988178 -0.4597913 0.13014415 0.3203886 -0.6125204
-0.29608405 0.32584423 -0.2373523 0.35423794 0.3977423 -0.44632417 0.346908 0.3833517
-0.31141183 -0.3554983 0.07450695 0.15775453 0.22392312 -0.28128463 -0.052178953 -0.39898172
0.49508676 -0.31129426 0.15050147 -0.25747895 -0.0018848296 -0.51399755 0.056961536 -0.4484117
-0.084582396 -0.3753136 -0.22819734 0.6294192 0.38908252 0.09490695 0.5446967 0.6053474
-0.2944257 -0.06434348 -0.09161503 -0.46494278 0.0064580613 -0.059527874 -0.27562743 -0.6786352
0.104362585 0.37175575 -0.6191558 -0.30775252 -0.28231817 0.1884533 -0.1620231 -0.42123824
-0.0071286536 -0.09649324 -0.2841414 0.2143505 0.08595076 0.34351692 0.23821704 0.4640402
-0.15551282 -0.26163504 -0.32492867 0.30291247 -0.19086698 -0.16889098 0.08098961 0.5462354
0.14439352 0.20128138 -0.06262567 -0.4714205 -0.3469091 -0.28586483 0.46985787 0.20510732
-0.37640086 -0.40887374 -0.32482168 0.21291749 0.39220187 -0.1270516 0.03136157 0.08331881
0.037827767 0.34941387 -0.53749424 -0.26900408 -0.026699573 -0.21396667 -0.52747077 -0.43675575

actor.0.bias f4 [256]
00000000: 554a 603e f507 663e 2d34 a8bc b612 38be
00000010: ca8e cfbb 548f 0cbe 531b 40bd 9dcd a0be
00000020: cbde a33d f3cb da3e c415 10be 138f 583e
00000030: a5f4 003e 55f9 2dbe 7d4f 3cbd 13af fe3d
00000040: d5cf cc3e 8b9c 4e3e 0e8d 3b3e 0b00 3f3e
00000050: bf0f 263e a017 383d 921c 0a3e d67c d3be
00000060: 5751 d23e 1649 84be 5be9 833e 9a27 313e
00000070: b4f7 023e 728f a1be a2b2 da3e 9008 b73e
00000080: 7c30 793e e2aa c7be 2402 943d db0e db3e
00000090: cde4 c6be f5ec cabe 6d70 fb3d c7e7 593e
000000a0: a2fd c73e 21e3 61be e85d 813e 4aaa 6c3e
000000b0: 10fd c6be 0069 a63e 049c b13d ca8c 6a3e
000000c0: 633c 89be f0b2 4f3e 051c 76be e4dc b63e
000000d0: 94b1 c43d e9cd f6be 0afe a9be 9c27 fc3d
000000e0: ec93 c2be 1be1 40be 3f84 903e 5d82 58be
000000f0: 5efa f5be a780 afbe 8f9c fabd a078 8cbe
00000100: a94b 9e3d 71c9 5bbe 6bcc d6be c71d b53e
00000110: 9652 17be 0d20 92bd 5469 debe b931 fabd
00000120: 85ff 95be 8d6c b33e 8f2c a8be 08a7 273e
00000130: 5907 ca3e 34f0 123e 100a 26be 775c 38be
00000140: 7220 193e f111 8d3d 9bcf 963e 34b2 1bbe
00000150: 144f debe ee53 923e 6f20 04be cca5 cfbe
00000160: 799b 70be 7643 e5bd 8c12 66bd 09dc 9ebe
00000170: d1a6 b73e 4c90 8c3e 6749 35be ebac b53d
00000180: ca3b d0bd 0aca e4be e765 7e3d aa30 fcbc
00000190: 78f8 42be 99d3 8fbe 88aa 093e 4c58 e8bc
000001a0: 8102 aa3e b334 243e a784 b33e fcce 75be
000001b0: baab 863e 9339 a23e 3862 36be 4854 bd3e
000001c0: 39db 17be b08c edbe a814 98be fa15 273e
000001d0: bf82 623e 9d2c 66be e8c6 debe 2548 d63d
000001e0: d7b3 f2be fa80 af3e 7689 a33e 313d a7be
000001f0: 5b79 1e3d 2444 52be a382 7cbe 15cc ab3d
00000200: 276a 40be d574 e1be a3e1 c23e 9fb0 8d3e
00000210: c43a cd3e 13dc cd3e 9d94 e0be 8632 733e
00000220: bce7 e93e 40d1 613e 9169 d8be 49ca 88be
00000230: fb6d 703e afd4 f3be 6064 f5be cb38 4fbe
00000240: 364b 833e 34a6 3dbe 1397 febd cae4 25be
00000250: c74b 66be c3c3 c7be d277 163e 22db f8be
00000260: 4aa4 bc3e 91e2 e3bd 6243 263e 313d 2b3e
00000270: 51f9 823e b45f bd3e e319 fa3d f1e8 bc3d
00000280: 5477 f1be 7972 793d ed67 c13d c75c 19be
00000290: 1d67 b7be c57f d6be 5421 3f3e 6fbe 3e3d
000002a0: 904d 3abe 09d6 aabe 5bc1 d2be 1993 1c3e
000002b0: eb1f 12be 07ff a1be a5ce a43e 9eef 7bbc
000002c0: ad68 88be 8b37 303e fec5 163d 2538 bc3e
000002d0: ee65 693e 786e c23d 1335 f93e a154 5c3e
000002e0: 2b67 cd3e b8ce 56be 80ed 9ebe 3065 013e
000002f0: f152 883e 606e 233e ffb5 2abe 44ef 09be
00000300: 8028 af3e a3ef 8c3e 65d3 ffbc a7b1 19be
00000310: a0e9 f0ba faf7 023e 7624 b6be c0fd 7c3e
00000320: 1612 de3e f530 453e 55c3 703d abb8 e93e
00000330: 1eaf ef3d d809 06bf 5b84 b73e 1f22 34be
00000340: fcec ccbe f368 b3be 9f3c 023d 2276 a03e
00000350: b373 d9be d5a5 bb3e 436b ec3c 78f4 583d
00000360: a5fe 47bd 4591 dbbe b136 c83d dfa5 703e
00000370: e7ba 37bc 0ae7 a03e 4b8f 823e 847e 5f3e
00000380: 1471 883e 5601 89be 2fb5 afbe 3c52 5c3e
00000390: b8e6 a0bc 8ab2 59be 2df0 b0be 4733 86be
000003a0: b3a4 9c3e 5bc1 e0bd 2bb8 08be 840e ffbe
000003b0: f54b 9c3e 17c9 bf3b c2dc a4be 6e26 093e
000003c0: 1c85 4cbe 65a7 a1bd 3aad 92be 94b2 0bbf
000003d0: 3edb a23e 89ee 1e3e 5301 d6be cc25 4dbe
000003e0: 4adb b13d 4b56 eb3e ad6a 0cbe c15f 7abe
000003f0: b53b ae3e 8601 1cbd 17c3 8dbe f237 d53e
0.21903355 0.22463973 -0.020532692 -0.17975888 -0.0063341605 -0.1372655 -0.04690106 -0.3140687
0.08001479 0.42733726 -0.14070803 0.21148328 0.12593324 -0.16989644 -0.045974243 0.124357365
0.40002313 0.20176904 0.18315527 0.1865236 0.16216944 0.044944406 0.13487461 -0.4130618
0.41077682 -0.2583701 0.25763974 0.17300263 0.12789804 -0.31554753 0.4271441 0.3574872
0.24334902 -0.3899756 0.07226971 0.4278477 -0.38846436 -0.3963391 0.12277303 0.21279822
0.39060694 -0.22059299 0.25266957 0.23111835 -0.38864946 0.32501984 0.08672336 0.2290527
-0.26803884 0.20283103 -0.24034126 0.357154 0.09604183 -0.48203972 -0.3320163 0.123122424
-0.3800348 -0.18835871 0.28225896 -0.2114348 -0.48042578 -0.3427784 -0.122368924 -0.2743578
0.07729275 -0.21463563 -0.41952834 0.3537428 -0.14777598 -0.071350195 -0.43439734 -0.12216515
-0.29296508 0.35043755 -0.32846496 0.16372311 0.3945873 0.14349443 -0.16214776 -0.18004023
0.14953783 0.06888188 0.29455265 -0.15204698 -0.43419707 0.28579658 -0.12902997 -0.4055618
-0.23496808 -0.11194508 -0.05617003 -0.31027249 0.35869458 0.2745384 -0.17703782 0.08870872
-0.10167654 -0.44685394 0.0621089 -0.030784924 -0.19040096 -0.28091124 0.13443959 -0.028362416
0.33205035 0.16035728 0.35062143 -0.2400474 0.26302892 0.3168455 -0.17810905 0.36978364
-0.1482972 -0.463964 -0.2970326 0.16316977 0.22120188 -0.22477956 -0.43511128 0.10462979
-0.47402832 0.3427809 0.31940812 -0.32663873 0.038689952 -0.20533806 -0.24659209 0.08388535
-0.18790494 -0.44034448 0.38062772 0.27673814 0.40083897 0.40206966 -0.43863383 0.23749742
0.45684612 0.22052479 -0.4226804 -0.2671683 0.23479454 -0.47623202 -0.47928143 -0.20236509
0.2564332 -0.18520433 -0.12431159 -0.16200557 -0.22489844 -0.39016542 0.14694145 -0.48604685
0.36844093 -0.111271985 0.16236642 0.16722561 0.25580838 0.36987078 0.12211969 0.092241175
-0.47161353 0.060900185 0.094436504 -0.14976798 -0.35820857 -0.41894355 0.18665057 0.04656833
-0.1819365 -0.3336642 -0.41163144 0.15290488 -0.14269988 -0.31639883 0.32188907 -0.015376953
-0.2664236 0.17208688 0.036809914 0.36761585 0.2279279 0.094937265 0.48673305 0.21516658
0.40117773 -0.20977294 -0.31040573 0.12636256 0.2662578 0.15960073 -0.16670989 -0.13470179
0.34210587 0.27526578 -0.03122873 -0.15009175 -0.0018380173 0.12789908 -0.35574692 0.24706173
0.43373173 0.19256957 0.058780033 0.45648703 0.11703323 -0.5235877 0.35843167 -0.17591141
-0.40024555 -0.35041007 0.031796094 0.31340128 -0.42471084 0.36649957 0.02885974 0.05296752
-0.048826832 -0.4288427 0.097760566 0.23500775 -0.011213995 0.3142627 0.2549995 0.21825606
0.26648772 -0.26758832 -0.3431792 0.21515745 -0.019641265 -0.21259513 -0.3455824 -0.26210997
0.30594406 -0.1097438 -0.13351505 -0.49815762 0.305267 0.005852829 -0.32199675 0.13393566
-0.19972652 -0.07893256 -0.28647786 -0.54569364 0.31807894 0.15520681 -0.41797885 -0.2003395
0.08684404 0.45964274 -0.13712569 -0.2445059 0.34029928 -0.03808739 -0.27687904 0.41644245

actor.2.weight f4 [256, 256]
00000000: 78bf d53d 3914 e7bd 3e04 0c3d 5ec2 84bd
00000010: 15ef 033e 5172 d63b 323b 93bd 8db9 3d3d
00000020: b25a 433d 1903 5bbc a3e7 91bc c2bd 763d
00000030: 59b3 c5bc 2a0f 883c 6eab d63d 796d 9a3d
00000040: 4c68 b8bb d89b 7b3d c3c7 27be 6d14 8e3c
00000050: 18e2 623c 8824 d33c 9625 26bd f91d 81bd
00000060: 8d7d acbc 004f c9bc 220e 8a3d 93c8 51bd
00000070: be40 1bbb ac9c b3bc ec89 b6bd d19e 1abd
00000080: 6846 98bc 56a5 54bd 4364 a7bd 2c4b eebc
00000090: b8fe 0fbc c60d 0cbd 45f5 8e3d 27d9 513a
000000a0: 9080 733c 9312 62bd b901 a53c 854d d03b
000000b0: ecb3 393d 862f 90bb 3d2e ddbc f6d5 a4bd
000000c0: 788b a53d 0033 d73d cfee ddbc a448 f7bd
000000d0: 7e5f 0c3c 84de 1dbd b5b7 333d 0876 5a3c
000000e0: c141 313d e7af 6c3d d13c 9138 11f2 803d
000000f0: a4d7 b43b aa57 bbbd 8762 3c3b 7fa4 32bd
00000100: 322d d8bd a4c2 6dbd 9e6d ffbd e165 8f3b
00000110: c225 233c a05e 84bd 54f9 febd 0b90 f83d
00000120: 77cf 09bb fef5 b03d 2617 9ebc 6646 bf3c
00000130: 9734 f63b 4bde 18bd e3cb 0abd 8e60 963d
00000140: fb62 263d 2be2 23bd d8b9 6abc dc9a b5bd
00000150: c6cf 7fbd 8b5d a23d c204 35bd 4dfe 883d
00000160: 5c59 cdbc 5ca2 8fbd 84de 2b3d ef60 dfbc
00000170: da1d 373d 137c c13d e533 92bc eb87 f1bc
00000180: f2f4 9d3b 00b4 d0b8 d2f3 7e3b 084b 383d
00000190: 413e c6bd c79e fd3c 39d9 113d ce2f 2dbd
000001a0: add5 d53a a10a cd3d 6e20 39bc 7176 143d
000001b0: 38b5 953c eab1 873d 48f7 b33c 44c8 52bc
000001c0: 4ec5 263d 6ad4 82bc 6a00 c73c 7218 1bbc
000001d0: 5ac4 c03b e664 dbbd dd77 9cbd 18a6 75bd
000001e0: d8a1 6bbd ecc1 543b c9ab 613d 23e2 223d
000001f0: ed2e 38bd 9912 cc3d 8539 9abc 7e96 333c
00000200: 075e 413a acc9 7bbd 68f1 c7bb 24bf 773d
00000210: f024 ca3b 3aa0 f53c 5c63 32bc 137a a73d
00000220: 4014 bf3c 3a05 9b3c 53eb cdbc 6959 47bd
00000230: 1a4b 3cbd 8f25 12bd 623d 05bd ac64 aabd
00000240: d86b 1f3d efc9 59bd 8514 94bd d37c 003d
00000250: 5f6c 9cbc b3dc 663d 974a 8d3c 2bc3 59bc
00000260: 75aa 3cbd af66 0d3d 154f cbbd 8600 1abd
00000270: 2488 cb3c ea5c d0bd 7fab ab3b 752b afbd
00000280: 4af1 07bc 2d55 5fbd d5e2 673d 7911 e53b
00000290: 9c78 20bc 0fd1 b5bc 7c22 5dbd fc1a 8abd
000002a0: ff07 03bd 9ec0 8c3c 1314 b53a d868 8a3c
000002b0: 6c29 c23c 2ec9 373c dd20 363c a955 f5bc
000002c0: 5d27 b2bd 0706 8e3b d8ee a6bd 4ad0 1cbd
000002d0: abe6 ae3c 04dc 9bbb 1b49 1f3d 0fd5 403c
000002e0: 2ccc 213d 8c56 6ebd ffc1 44bd 7c10 c43c
000002f0: 4ea5 4abc 0253 323c 2e02 04be 14d2 b1bd
00000300: 2e38 95bc e018 9ebc e408 2ebd 0b0a 783c
00000310: f6c6 96bb 931d 7c3c 94e6 703d 471e ccbc
00000320: db1d 6f3d 45eb 93bb 1ef5 33bb ef91 f03d
00000330: 018d 393e 6d4d 143d 239a 90bc d2ab 0bbb
00000340: b0c0 e43d a20b 0cbe 0b21 0d3c a337 993d
00000350: 107f 533c 5dde 913d 83ef f1bc 564b 14bc
00000360: 14ae edbd d009 64bd 30eb 21bd bae0 953c
00000370: 8fb4 01be a920 30bd 859e a6bd a946 8dbc
00000380: cd8d 6fbc 37e1 6cbd 2137 dfbd 2582 213d
00000390: 5aa9 77bc d92f 5a3d feb3 62bd f7de 92bd
000003a0: 3e9a a13c 1bdf 263d 767b aebc d937 0b3b
000003b0: e9e0 213c 5837 1bbd 181f 713b dad4 36bd
000003c0: ccb5 d23d 1931 90bd 020b fdbc ab2a 97bd
000003d0: 8ee4 033d 56d1 d4bc 0e1c f6bc a2cb c13d
000003e0: 4abe 813d 1bcc 8c3d 4f90 ccbd 6198 a3bd
000003f0: 31e6 3d3d 094a 53be 5728 01be 11dc 17bd
0.104369104 -0.11283154 0.034183733 -0.06482385 0.12884171 0.0065443893 -0.07189025 0.046319533
0.047693916 -0.013367438 -0.017810648 0.06023956 -0.024133371 0.016608793 0.10481916 0.075404115
-0.0056276675 0.06142792 -0.16384797 0.017343724 0.01384785 0.025774255 -0.04056319 -0.06304545
-0.021055961 -0.024573803 0.06740977 -0.051216673 -0.0023689712 -0.021925293 -0.08913025 -0.037749115
-0.01858826 -0.05191549 -0.0817342 -0.02908858 -0.008788757 -0.034192823 0.06980375 0.00080050755
0.014862195 -0.055193495 0.020142423 0.0063568973 0.045337602 -0.0044001965 -0.026999587 -0.08048622
0.08083242 0.10507774 -0.027091412 -0.12074402 0.008567689 -0.038542286 0.04387637 0.013333805
0.0432756 0.05778494 6.925467e-05 0.062961705 0.0055188704 -0.0914758 0.002874525 -0.043613907
-0.10555495 -0.058046952 -0.1247208 0.0043761586 0.009957733 -0.06463361 -0.12449899 0.12136849
-0.00210282 0.08640669 -0.019298147 0.023348998 0.0075135934 -0.03732137 -0.033885848 0.07342635
0.04062174 -0.040010612 -0.014326535 -0.08867428 -0.062454008 0.07927998 -0.04419399 0.06689129
-0.025067024 -0.070133895 0.041960254 -0.027267901 0.044706203 0.094474934 -0.01784701 -0.029483756
0.0048204595 -9.9517405e-05 0.0038902652 0.04499343 -0.09679843 0.0309595 0.03560755 -0.04228192
0.0016314291 0.10011793 -0.011299236 0.036245767 0.018274888 0.06625731 0.021968499 -0.01286513
0.04071551 -0.015970428 0.02429219 -0.009466277 0.005882782 -0.10712604 -0.076400496 -0.059972852
-0.057527393 0.003246422 0.055095468 0.039766442 -0.044966627 0.09964485 -0.018826256 0.010961173
0.0007376377 -0.061471626 -0.006101776 0.06048502 0.006168954 0.029983629 -0.010887947 0.08177581
0.023325086 0.01892339 -0.025136625 -0.048669253 -0.04597006 -0.03568035 -0.032529242 -0.08319983
0.038921207 -0.053171095 -0.07230476 0.03136904 -0.019094644 0.05636282 0.017247481 -0.013291161
-0.046060998 0.034521755 -0.09927193 -0.037598155 0.02484519 -0.10173972 0.00523895 -0.08553211
-0.008297274 -0.05452459 0.05661281 0.0069906083 -0.0097943805 -0.022194413 -0.053987965 -0.06743428
-0.031990048 0.01718169 0.0013815187 0.016895697 0.023701392 0.011217399 0.011116234 -0.029948073
-0.08698914 0.0043342146 -0.081510246 -0.038284577 0.021350225 -0.0047564525 0.03888808 0.011769547
0.039501354 -0.058188006 -0.04803657 0.023933642 -0.012368513 0.010884048 -0.12891456 -0.08682647
-0.018215265 -0.01929897 -0.042488948 0.015139113 -0.0046013547 0.01538791 0.058813646 -0.024916781
0.05837808 -0.0045141303 -0.0027459334 0.117465846 0.18120195 0.03620665 -0.017651623 -0.002131213
0.11169565 -0.13676313 0.008613835 0.07481315 0.012908712 0.071224906 -0.029533153 -0.009051165
-0.116054684 -0.05567342 -0.039530933 0.018295635 -0.12666534 -0.042999897 -0.08135704 -0.017245607
-0.01462121 -0.05783197 -0.10899187 0.039430756 -0.01511606 0.053268287 -0.055347435 -0.071714334
0.019726869 0.040740114 -0.021299105 0.0021243005 0.009880283 -0.037894577 0.0036792215 -0.044636585
0.10288581 -0.07040615 -0.030889038 -0.07381185 0.03220039 -0.025978725 -0.030042674 0.09462668
0.06335123 0.068748675 -0.09988462 -0.07988048 0.046362106 -0.20633711 -0.12613045 -0.037075106

actor.2.bias f4 [256]
00000000: 67a1 5b3d 6110 0cbd 07b3 b6bc b6c2 203d
00000010: 0021 0f3d 1bb8 c03c 570b 093d 48a6 05bd
00000020: 83fb 1a3d 7e91 cd3b 7eaa 923c 2498 a4bc
00000030: 4ff0 ebbc 8458 b4bb 66dc 213d 5835 84bc
00000040: 7439 193d 0a39 0d3d 887e 5a3d 3c18 27bd
00000050: c3ab 633d 4987 d4bc 221d 863c 4e4e 9fbd
00000060: 9391 73bd b7fb 273d df3a 7fbd c723 b438
00000070: b57e 4b3d 204d 8a3c ddd8 fbbc 78b3 24bd
00000080: d744 8fbc b4e4 8f3d fe84 943c 90eb 3ebc
00000090: 9911 8d3d 7e34 8ebd 8827 0fbd e7b5 a7bc
000000a0: 2f91 62bd d573 e9bc 639c 7fba 6136 83bd
000000b0: f769 63bd b76e 893c 8bca 823d 93cc 98ba
000000c0: 4f4d f0bc 8002 2bbd ff93 b3bc 775d b0bc
000000d0: 7f1d ae3d 6bef 353d 3368 84bc b192 06bb
000000e0: ff9d 543d a3e0 903d 12b8 50bc a432 e0bc
000000f0: d758 a13c d18c ce3c 9604 0a3d 574a 24bd
00000100: 8ab4 1a3b 3a0d 4cbc ea0e e8bb 9ea4 49bd
00000110: b627 5cbd 2f7d 8bbc d47b 1bbd 6015 5ebd
00000120: d920 06bd 9ce9 3bbd 0229 ef3b 6c07 9abc
00000130: 1f1f 883c 12f9 81bd 5dd7 88bd dde5 4b3c
00000140: 79fa 283d 4446 53bc e218 cbbc ba3b f23c
00000150: 4688 a83b 218d 473c 760f 0dbd b65d 903b
00000160: d83e 2e3d 7959 1dbd ef00 41bc bc55 bf3b
00000170: ff17 f4bb c3db 5e3d 581d b53b 0966 a8bc
00000180: d7a1 983d b110 813d 3ac6 12bd d959 6bbb
00000190: fd57 5dbc d5e2 98bc deda 443c 6ee7 123d
000001a0: c367 68bc 202d 85bc f227 543d 6fb2 eb3c
000001b0: db6b 8cbc b185 85bc de7f b8bc 682e d23c
000001c0: 528f d0bc 3061 153d c3f4 fa3c 5f3b 353c
000001d0: 06dc 3bbd 9628 093d 4fc1 7dbd b4dd 103c
000001e0: e979 65bc dfe5 3c3c 0717 c33b 9899 19bd
000001f0: 620e 973d 58ff 0bbc bdad 2d3d d7e4 763c
00000200: 76be 15bd a135 493c 2222 33bd 0b8c 873d
00000210: 4a29 22bd 794e a0bc 206c 11bd 1228 8dbd
00000220: 6f00 bc3b 351b c93c 5e01 923c 5414 71bd
00000230: 048a 6fbc a7ad f8bc 246b ac3b ed2c 733d
00000240: 9c9a 28bd e536 0cbd c2f3 473d 623e 23bd
00000250: 2781 5e3d 5e7f 4c3d 1ffa 76bd 1962 253d
00000260: d02b 5e3d 856d 9b3c 3566 8dbc 9161 643c
00000270: e36b 953d a955 80bd e39b 14bd 1d90 8bba
00000280: afb0 f9bc 6b3c 013d 65cd 19bc 0392 733d
00000290: 443f b1ba 7ede 68bd ea42 1a3d 1b52 3d3d
000002a0: d610 ba3c 51dc e8bc 699e bfbc 88a1 253c
000002b0: a832 593d a406 d53c 7fae 833a eb41 e6bc
000002c0: 62a8 6fbd 319e b33b f30a fcbc 23a0 24bd
000002d0: feb0 8a3d 4163 313d bdbb 8bbd 39d6 6c3c
000002e0: 345e f7bb d396 8d3c 3aee 17bd b3d0 f8bb
000002f0: 246d 15bd 9c1c 803c 38d3 9abc 2f0c 993d
00000300: 0ce2 f8bc ac9f 813d c01c e5ba e0cf 153c
00000310: c225 7e3d 70fe 44bd b3f2 cd3a 4ec6 a8bc
00000320: 3c8c ec3c c07c 7b3d 7b29 343d 2ba3 2ebc
00000330: 162d 4c3d 309c 743b 8dc0 91bc 518e ed3c
00000340: 9d3f 343d 758c 473d 1f9d f7bc 5c85 7cbc
00000350: e35a f03c 787d 40bd b848 98bc 241a e9bc
00000360: 21ea 103d b980 ebbc b4ab 9c3d e33d e43c
00000370: 4b1a 473d e8fc 863d bde6 39bb 0730 86bd
00000380: 5745 043d b32b 90bd 8cbe 57bd 68dd 5ebc
00000390: 217c fbbc 500f 36bc fc7b 0e3c 144b 013d
000003a0: 3da0 383c b4be 78bb 04bb edbc b2aa 70bd
000003b0: e7cb af3b b940 dcbc 3c1c 8dbc 6870 03bd
000003c0: 8ce4 bbbb f2f1 d5bc 8f52 913b b54d 353d
000003d0: 1e3f 1c3d c813 383d 8e48 053c 1869 153d
000003e0: be39 493d 5953 c3bb 6fb1 cbbc c0e7 323d
000003f0: 128b 44bd 6910 9e3c 581b bbbc 05c6 303d
0.053620722 -0.034195308 -0.022302164 0.03924819 0.03494358 0.023525288 0.03345808 -0.03262928
0.037837517 0.0062734475 0.017903563 -0.020092078 -0.028801112 -0.005503716 0.03951683 -0.016138718
0.037408307 0.034478225 0.053343326 -0.040794596 0.055583727 -0.025943415 0.016371313 -0.07778607
-0.059465002 0.04101154 -0.062312003 8.589733e-05 0.049681384 0.01688248 -0.030743057 -0.040210217
-0.01748888 0.070260435 0.018129822 -0.011652842 0.06888122 -0.06943606 -0.03494981 -0.02047248
-0.05531424 -0.028497616 -0.00097507815 -0.06406856 -0.055520978 0.016776426 0.06386288 -0.0011657648
-0.029333739 -0.04175043 -0.021921156 -0.021528943 0.0850172 0.04441778 -0.016162967 -0.0020534212
0.05190849 0.07074096 -0.012739198 -0.027367897 0.019695682 0.02521363 0.03369578 -0.04010996
0.0023606145 -0.012454325 -0.007081856 -0.049229257 -0.05374881 -0.017027466 -0.03795989 -0.054219604
-0.03274617 -0.045877084 0.0072985897 -0.018802367 0.016616402 -0.063463345 -0.06681702 0.01244494
0.041254494 -0.012895171 -0.024792138 0.029569495 0.005143198 0.012179644 -0.034438573 0.0044057025
0.0425404 -0.038415406 -0.011780008 0.0058390778 -0.0074491496 0.0544088 0.0055271797 -0.020556467
0.074527435 0.06302012 -0.035833575 -0.0035911708 -0.013509748 -0.01866285 0.012015073 0.03586524
-0.014184895 -0.016256869 0.051795907 0.028771607 -0.017141273 -0.0162991 -0.02252191 0.025656894
-0.025458965 0.03646964 0.03063429 0.011061518 -0.045864128 0.03348597 -0.06195193 0.008841921
-0.014006116 0.011529415 0.005953673 -0.037499994 0.0737579 -0.008544765 0.042402018 0.015069208
-0.03655859 0.0122808525 -0.043733723 0.06618508 -0.039590158 -0.019568669 -0.035503507 -0.068924084
0.0057373564 0.024549106 0.017822918 -0.058857277 -0.014620308 -0.030356241 0.0052617956 0.059369016
-0.041163072 -0.03423204 0.04881645 -0.039854415 0.054322388 0.049926154 -0.060297128 0.040376756
0.054241 0.018973121 -0.01726065 0.013939277 0.072959684 -0.062663384 -0.036281478 -0.0010647808
-0.030479757 0.03155176 -0.009387349 0.05946542 -0.0013522883 -0.05685281 0.03766147 0.04622088
0.022713106 -0.028425368 -0.023390966 0.010109313 0.053026825 0.026004143 0.0010046511 -0.028107604
-0.05851019 0.0054815044 -0.03076694 -0.04019178 0.0677204 0.043307547 -0.068229176 0.014455372
-0.0075490717 0.017283833 -0.037092425 -0.0075932383 -0.036481038 0.015638642 -0.018899545 0.07473027
-0.030381225 0.06329283 -0.0017479882 0.0091438 0.062047727 -0.048094213 0.0015712589 -0.020602372
0.028875463 0.061398268 0.04398487 -0.010659019 0.049847685 0.003732454 -0.01779201 0.028998526
0.04400598 0.048717935 -0.030226288 -0.015412655 0.029340213 -0.046994656 -0.018589363 -0.028454848
0.035379533 -0.028747903 0.07649937 0.027861541 0.04860906 0.06591207 -0.002836629 -0.06552129
0.03229269 -0.07039585 -0.052671954 -0.013602592 -0.030698838 -0.011112049 0.008696552 0.03156574
0.0112686725 -0.0037955465 -0.02901984 -0.058756538 0.005364883 -0.02688633 -0.017225377 -0.03208962
-0.005734032 -0.026116345 0.0044348906 0.04426356 0.03814613 0.04494074 0.008134974 0.03647718
0.049127333 -0.0059608635 -0.02486488 0.043678045 -0.04798419 0.019294934 -0.022840187 0.043157596

actor.4.weight f4 [2, 256]
00000000: 1291 aabd 5fe6 ea3d 3468 37bd 522c cebd
00000010: e893 8e3c d14b c5bd 6395 2bbd 931d 063e
00000020: 50e6 e03b d0d1 ffbb b3eb 08bd 45fa ec3d
00000030: dbe9 483d 712e 8fbd 52f8 1ebc fc2f 8ebd
00000040: e0c4 0d3e 26a2 4fbd b2f5 6dbc 5e55 61bd
00000050: 798d f23d be74 4e3a 05b6 37bd 7b3a ecbc
00000060: ebb1 71bd 8f5b 8d3b 82e2 143c ef24 0d3d
00000070: 405f dbbc 8cd7 113e b199 6bbc 2016 6cbb
00000080: a766 efbd 3e9f a53d 5c4e c23d 5b8f 023e
00000090: 0253 c7bd 41ad 35bd 9406 27bc cb64 ae3c
000000a0: 8926 2a3d 932a 2c3e 6f3b 8d3b 354d 213d
000000b0: d2fd dabc 1812 d93d 08ef dd3d 044a 10bd
000000c0: b03d 183e 5b8d 3a3d b4d0 da3d 1203 b23d
000000d0: 5ddd 0ebe bd46 5bbd e264 33bd 85eb ab3c
000000e0: 1aae 51bd 0ded d4bd fdb6 80bd ad7b c43d
000000f0: 8d1b 313d 901d 78bd a7ca 6a3d bf6d ba3c
00000100: a4df 053e a02b c23c 5e19 043e f3c7 86bc
00000110: 6c8e d93c bbd2 4dbd c015 073d 569e 343c
00000120: 2910 8dbc 52f3 85bd 24f4 843c 84f0 523d
00000130: bf39 02bc 31b3 1f3d c071 8dbc d643 41bd
00000140: 0e5f 1abd 3f93 26bd 9a83 a9bc b813 84bc
00000150: 209c 60bd 6151 e4bc b9a2 dbbd b699 853c
00000160: 0e87 d1bd 69d3 fd3d fc8c 1c3d 66fd 0dbc
00000170: ccf6 5f3b 56cd 503d f372 a4b9 61cc 90bc
00000180: 9254 9bbd 5762 92bd 7dc0 8b3d bccf 42bd
00000190: d62d 53bd 8095 d53d d150 0c3d 5e2f 1fbc
000001a0: f884 1a3e 7cf5 e43d bf3f 083e 529f 44bd
000001b0: 1df7 25bd 86dd 30bc af81 d83c 2459 263e
000001c0: afb3 0f3d 215e 433e 1ef4 223d ffed e73b
000001d0: c71f adbc 1e29 fc3d 3df1 6cba 87bb 00bd
000001e0: cd06 883d 8fed 4abd 6644 83bb 2e78 263d
000001f0: ce98 373e 8d20 363e 7751 78bd 6bfd d03d
00000200: 61e5 a23d ae42 533d a0b9 543c 1b49 e4bd
00000210: deca f63b 487e 4cbc a44e a2bd fab3 f4bc
00000220: 8b54 b03d 4c30 123d 45bb a8bd 3b70 35bd
00000230: 0ae2 adbd 35af 31bd 61d9 c23d aa0d 57bd
00000240: e0d4 a939 26d8 d53d f657 c5bd 1b0e 113e
00000250: 67a0 b7bd 0cc7 083e 53bd e23c 4696 bdbc
00000260: ae39 f0bb f401 163e 86c1 0e3e a9c0 823c
00000270: c0f5 b3bd 9f10 263c 211f 153d e41c 1e3d
00000280: 7303 e83d 0987 a6bd 7b56 5fbd 2a9c 023e
00000290: 0d5c 7c3d 46d4 3c3d 990c a1bd 1dc6 b9bc
000002a0: 9019 1cbd 854f 49bd e8c2 07bd 8a20 03bd
000002b0: 1d45 d7bb a007 84bd 4983 15bd 8c54 173e
000002c0: 75e2 7ebd cb7c 44bd 1c14 1bbd fd4b 61bd
000002d0: 6d97 2d3e f98a 5cbd ff58 753c edbf f5bb
000002e0: c0c3 c0bc bbd6 febc dd34 0b3c 85f0 bebc
000002f0: 0026 373a d0fe da3c 8083 e23a 7327 60bd
00000300: e3ad e03c 3ebf 0b3e b4de 1e3b cd9f 2f3d
00000310: 3686 f1bd 64c5 40bd ae4f 093e 1b12 2bbb
00000320: 7ff2 283d 9924 033e 501b c73d db97 803c
00000330: 360b b1bd 165e 5bbd 95ec 003d 62d8 943d
00000340: c3ec 1d3d 2d10 2e3e fbf3 073e ef2c 02be
00000350: 84b3 103e 0e54 3f3d d114 f8bd 3df8 82bd
00000360: 76cf 8bbd b967 e33c 7aef ec3d 03cf c13b
00000370: 995f 84bd 8d64 133e 94dd fc3c 672f 0ebd
00000380: f94a 70bc 6039 713d f701 c13c 1131 123d
00000390: b3a3 6b3d 449c 43bd e9e6 213e 72ea b9bc
000003a0: 5ff9 483d 9d74 52bd bc96 f33d c66c e139
000003b0: ae13 eb3a 07ad 07bd 22cd 07bc a7a6 e4bc
000003c0: f506 e13c 51ad 4a3c 60b6 913d 740c cfbd
000003d0: 66d4 65bc 8b19 4cbd 5778 083c 7f04 46bc
000003e0: 4518 2bbd d3ff e63b 4811 463d 2e92 2c3d
000003f0: 7fbf 8cbd ef97 90bd ee8c 9ebd bdd6 0dbd
-0.08328451 0.11469721 -0.04477711 -0.10067047 0.017404512 -0.096336015 -0.041890513 0.13097219
0.006863393 -0.007806994 -0.033427905 0.115711726 0.049051147 -0.0699128 -0.009702759 -0.06942746
0.13844633 -0.050691746 -0.01452391 -0.055013053 0.1184339 0.00078756723 -0.04485132 -0.02883648
-0.059007566 0.004313893 0.009087207 0.03445905 -0.026778817 0.14242381 -0.014379905 -0.003602393
-0.11689501 0.08087014 0.09487602 0.12749998 -0.09732629 -0.04435468 -0.010194439 0.021288296
0.041540656 0.16813116 0.0043100636 0.03938027 -0.02673236 0.10599154 0.10836607 -0.035226837
0.14867282 0.045544963 0.10684338 0.08691992 -0.13951631 -0.05353426 -0.04379738 0.020986328
-0.051191427 -0.10396776 -0.06284902 0.09593902 0.043239165 -0.060575068 0.05732217 0.02275741
0.13073593 0.023702443 0.12900302 -0.016452765 0.02655717 -0.050249796 0.032979727 0.011024078
-0.01721962 -0.0654055 0.016229697 0.051498905 -0.007948338 0.03898925 -0.017266154 -0.047183834
-0.037688307 -0.04066777 -0.020692635 -0.016122684 -0.054836392 -0.027870836 -0.10724396 0.016308647
-0.10230838 0.12393839 0.03822039 -0.008666372 0.0034174202 0.050977074 -0.0003136616 -0.01767558
-0.0758449 -0.07147663 0.068238236 -0.047561392 -0.051557384 0.104289055 0.03425676 -0.009715883
0.15089786 0.11179635 0.13305567 -0.048003502 -0.04051887 -0.010795003 0.026429025 0.16244942
0.03508347 0.19078876 0.03978359 0.007077932 -0.021133317 0.1231253 -0.0009038633 -0.03142884
0.06641922 -0.04954296 -0.0040059565 0.040641956 0.17929384 0.17785855 -0.060624566 0.10204586
0.07953907 0.051577263 0.01298371 -0.11146756 0.007531508 -0.01248128 -0.07925156 -0.029870976
0.08609875 0.03569059 -0.08238844 -0.044296484 -0.08490379 -0.04337998 0.09514118 -0.052503265
0.00032392796 0.10441618 -0.09635918 0.14165537 -0.08966141 0.1335718 0.027678167 -0.023142945
-0.0073310947 0.14649183 0.13941011 0.015961008 -0.087871075 0.010135799 0.03640664 0.03860177
0.11328783 -0.08131225 -0.054525834 0.12754884 0.061611224 0.046100877 -0.07863731 -0.022677476
-0.038110316 -0.0491481 -0.03314486 -0.032013454 -0.0065695182 -0.06446767 -0.036502156 0.14778346
-0.062227685 -0.047970574 -0.037860975 -0.05500411 0.16952296 -0.053843472 0.014974832 -0.007499686
-0.02353084 -0.03110825 0.00849649 -0.023308048 0.00069865584 0.026732832 0.0017281622 -0.05472512
0.027426666 0.13647172 0.0024241628 0.042877007 -0.11793177 -0.047063246 0.13409302 -0.002610332
0.041246887 0.1280693 0.09722006 0.01569741 -0.086447164 -0.053556524 0.031475622 0.07267834
0.03855587 0.16998358 0.13276665 -0.12712453 0.1413098 0.04671102 -0.121133454 -0.06395004
-0.068266794 0.02775942 0.11569114 0.0059145703 -0.06463546 0.14393826 0.030867375 -0.034713175
-0.014666312 0.058892608 0.023560507 0.035691325 0.057529163 -0.04775645 0.15810741 -0.0226948
0.049065944 -0.051380742 0.11893985 0.00042996387 0.0017934942 -0.033123996 -0.008288654 -0.027911497
0.027469138 0.012370423 0.071148634 -0.10109797 -0.0140276905 -0.049829047 0.0083294725 -0.012086033
-0.041771192 0.0070495396 0.048356324 0.042131595 -0.068724625 -0.07060229 -0.07741724 -0.03462862

actor.4.bias f4 [2]
00000000: e9d1 4dbd 81d0 da3c
-0.050249014 0.02671075
