algs/outputs/CartPole-v1/20230412-102005/models/ppo_critic.pt (torch, 271775 bytes, 5 tensors)

critic.0.weight f4 [256, 4]
00000000: 9569 98be ea5d 083f 2148 063e e2ca 95be
00000010: fe94 d73e c82a 99be e562 b7bd b959 eabd
00000020: 787a 183f cc71 a33e 6b55 cd3e e72e 583e
00000030: 34cf debd 8e5e 82be 34c8 373e e25c f33d
00000040: 3e0e 01be 50a1 c23c 4d70 23bf 37bf f6be
00000050: 628c 86be fffe e7bd 3077 94be 5b4d 22be
00000060: a456 2a3e db60 bdbe a96c e93e 26d8 763e
00000070: 8c1a f6be 79d7 983e cd56 543e 61fe cf3e
00000080: aba6 c33e 7cde 033e 62ba 2dbe 0ac4 bf3d
00000090: 1388 8bbe 4371 273e 15a4 84be 631e f63d
000000a0: 187e ac3d 603b c73c 08a5 a4bd f0d9 b7bd
000000b0: 8613 59bd 9fae f33d a492 723e 6e71 c2be
000000c0: 0839 863e 8cef c4be 52e0 d0be 839e a13c
000000d0: 7e5e cbbd 92da 8b3d 027f a4bd 56f5 113e
000000e0: 577a 8c3d ccca edbe 4ef9 cabe c1a1 cbbe
000000f0: 4667 9ebd 253c c63e 1348 aebc 7293 a03e
00000100: 1a54 8bbd 4b3c 303e 9972 9ebe 8a0d 603e
00000110: 2935 fb3d 5951 533e f64b c53e 40f1 70be
00000120: cef1 fe3d 9779 a33c 8f5a 803e bbe9 20be
00000130: f11c b5be dc40 c0be a868 bfbe c8e3 b7be
00000140: c5e2 fdbc 1994 a53e e823 183c 7523 883e
00000150: 60a4 ddbd 440d e43e 91bc 81bd dfc7 063f
00000160: e3c7 a9bd 3e08 703e 5f2a 80be d5ce ee3d
00000170: d7a1 a8be c27d eabe 3fa2 b0be 4772 8b3d
00000180: ebf3 363d f6f0 5c3e 8809 f53e 82c9 9bbd
00000190: 1c67 58be d7cc 9a3d 0168 e9be 2a26 bcbe
000001a0: 2249 913d 054a fb3e 8fe7 e63e cb2f 573e
000001b0: efd3 8cbe f3a2 ed3e 93bc 253d 62fe dabe
000001c0: e50a 163e ef3b 3bbe 0baf 163d cfdb 473e
000001d0: e879 a53e 1d70 933c 46e4 4b3d c5ff c43e
000001e0: 59f8 94be 5147 e23e 68af 3bbd bbd8 df3e
000001f0: 796a b13e 884f 8dbe c60b 9a3e de32 3abe
00000200: 96da 473e 8d94 85be 3a18 7dbe 4b4e 843e
00000210: 6962 463e 7631 313d 3cbc a33d ecb6 8dbe
00000220: 9d76 a1be 8fc1 a33e d16f c53e 4207 1b3e
00000230: 260d 5abe 1eaf dcbd 0732 083f e54b b33c
00000240: 0682 48be 83ea efbe 1430 c33e b084 b53e
00000250: 227f a3be e5f2 f8be 3b93 973e bd9c 17bf
00000260: e21c a2be f901 a33e e968 b0be f30e debd
00000270: 1a80 813e fc61 86bd 8ee2 183e 2dc9 ecbd
00000280: 3d54 a9be e3b7 043e 50e1 be3d ceab a2be
00000290: 258f fd3e 3557 dc3e 22fd 033f 6d98 9b3e
000002a0: 4025 c7be 4c21 2bbe 6805 86be df0b a0be
000002b0: 4fb7 6e3e 8c55 d1bd 67b7 04bf 7ea3 47be
000002c0: 8b22 c13e d222 a8be d6b7 c5be 5cec 82be
000002d0: fd18 0dbe a158 d6bd 1d2f f1be fcfd 883e
000002e0: 449a f53e f990 b73e 8375 b33e 372c 883e
000002f0: 2949 98bd a461 86be ff0e f53e 2296 15be
00000300: c83d 6a3e b8d5 923d 4f08 c63e 22c1 723e
00000310: b151 cbbe a871 afbd 11f7 92be f85f d8bb
00000320: 7bcd 4e3e 01dc e63e e444 493c 0f1b 043f
00000330: ba35 75bd e14a 893c eb09 503e 8a12 4fbe
00000340: c5a1 c1be a1c5 b33e 6b96 cabd 6c53 5dbd
00000350: de5d 153e 8d88 62bb 23e8 a03e ffd1 913e
00000360: 9301 bbbd 068c f13e 1f9e d33e c9ae 0d3f
00000370: ba21 863d 9a32 83bd a8d2 8cbe 53ee a43e
00000380: 02f0 d3be 9f07 88be 3c20 16be 58b4 49be
00000390: 5f88 cd3e e6ee 5e3d 17c1 72bd dc30 79be
000003a0: e63b e9be 6a15 aabd e480 b63e 4ba1 c2be
000003b0: 4da5 b53e 8f37 8bbe 5a9c b83e ef53 c73e
000003c0: ec30 0e3f c909 c3be 6c1e 4a3d 452d c0be
000003d0: 2d04 19be d3ad c13e b1d0 41be 3484 c13e
000003e0: 6509 b5be 9a70 d9bd b36f 1bbf 7cef 33be
000003f0: 1169 7ebe 7132 f4be 4464 82bd 9592 88bd
-0.29768053 0.532683 0.13113452 -0.2925635 0.4210586 -0.29915452 -0.089544095 -0.114428945
0.5956187 0.31922758 0.4010423 0.21111642 -0.108793646 -0.25462765 0.17947465 0.1188295
-0.12603089 0.02375856 -0.6384323 -0.4819276 -0.2627898 -0.113279335 -0.28997183 -0.15849821
0.16634613 -0.36987957 0.45590714 0.24105892 -0.4806713 0.29851893 0.20736237 0.40623763
0.38213095 0.1287784 -0.1696563 0.09363563 -0.27252254 0.163518 -0.25906435 0.120175146
0.08422488 0.024320304 -0.0803929 -0.08977115 -0.052997135 0.11898541 0.23688751 -0.37977165
0.26215386 -0.3846401 -0.40796143 0.019728905 -0.09930132 0.06828798 -0.08032037 0.14253744
0.06859272 -0.46443784 -0.3964333 -0.39771846 -0.077345416 0.38717762 -0.021274602 0.31362492
-0.068031505 0.172105 -0.30946806 0.21880165 0.12265999 0.206365 0.38534516 -0.2352953
0.12448464 0.01995544 0.2506909 -0.15714161 -0.35373643 -0.37549484 -0.37384534 -0.3591597
-0.030991921 0.32339552 0.0092859045 0.26589552 -0.10822368 0.4454137 -0.06334794 0.5264873
-0.082900785 0.23440644 -0.25032327 0.11660544 -0.32935974 -0.4579907 -0.34498784 0.06808906
0.044666212 0.21576294 0.47858834 -0.07606794 -0.21133083 0.07558601 -0.4558716 -0.36747867
0.07094027 0.4907991 0.4509854 0.21014325 -0.27505443 0.46413383 0.04046304 -0.42772204
0.14652593 -0.18284582 0.036788028 0.19517444 0.3231957 0.017997796 0.049778245 0.38476387
-0.29095724 0.44195035 -0.045821577 0.4372004 0.34651545 -0.2759974 0.30087107 -0.18183467
0.19516978 -0.26089898 -0.24716273 0.25840983 0.19373478 0.04326006 0.07994887 -0.2767862
-0.31535807 0.3198361 0.38561872 0.15139487 -0.21294078 -0.107755885 0.53201336 0.021886775
-0.1958085 -0.46858606 0.38122618 0.35452795 -0.31932932 -0.48622814 0.29604515 -0.5922354
-0.3166266 0.31837443 -0.3445504 -0.10842695 0.25293046 -0.06561658 0.14930174 -0.11561809
-0.3307208 0.12960772 0.09320319 -0.31771702 0.49523273 0.43035284 0.51558125 0.3038973
-0.38895607 -0.1671192 -0.26176 -0.31259057 0.23312114 -0.10221395 -0.5184235 -0.19495961
0.37721667 -0.32839066 -0.38616818 -0.25570953 -0.13779064 -0.10466123 -0.47106257 0.26756275
0.47969258 0.35852793 0.35050592 0.26596233 -0.07435829 -0.2624637 0.47863004 -0.14608052
0.2287513 0.0716967 0.38678214 0.23706487 -0.39710763 -0.085666 -0.28704122 -0.0066032372
0.20195572 0.45089725 0.012284491 0.5160379 -0.05986569 0.016759338 0.20316283 -0.20221916
-0.37818733 0.35111716 -0.09891971 -0.054034635 0.14586589 -0.0034566254 0.31427106 0.28480527
-0.0913116 0.47177142 0.41331574 0.55344826 0.065494016 -0.06406136 -0.27504468 0.32213077
-0.4139405 -0.26568314 -0.14660734 -0.19697702 0.40143105 0.05442705 -0.059266176 -0.24335045
-0.4555351 -0.08304866 0.3564521 -0.38013682 0.35477677 -0.27190825 0.36056787 0.38931224
0.555434 -0.38093403 0.04934542 -0.37534538 -0.14942999 0.3782793 -0.18927266 0.37796175
-0.3535873 -0.1061718 -0.60717314 -0.17571825 -0.24844767 -0.47694734 -0.063667804 -0.06668583

critic.0.bias f4 [256]
00000000: 3cf1 77be de12 a9be f6bc e2bd 3ff3 8bbe
00000010: a044 2ebe 3552 f2bd 46e6 eb3c 8e55 89be
00000020: daf8 053f 4f5b 103f 4c62 edbe d397 063c
00000030: 8c74 0d3e a39a 353e 1de1 02be 8ed0 183f
00000040: 2e7d fc3e 8180 cdbe 7223 b33e db23 eabd
00000050: 7deb ab3e 7bcc 8dbe 72b2 643e b671 af3e
00000060: aed9 0d3f 4441 d1bd a662 86be f1f1 f2be
00000070: 6423 c13e 3410 7c3e a9b1 093f 110b b23d
00000080: 8f23 993e a1f3 0e3f 9ef4 22bd d8ad 99be
00000090: f7d8 c1be 2e16 99bd d8f1 ccbd 93c7 063f
000000a0: f82f 0dbd b6d0 b8bc 07e3 fabd 8251 4fbe
000000b0: 0349 063f 5835 95be f16f f2be edf6 083f
000000c0: e9f4 22be 16cb 2bbe 0c54 80be 8a28 5c3e
000000d0: 7e83 41be 9ab4 dc3e 2c85 36be f3a4 3dbe
000000e0: 1b3a 07bf 0d13 78be 9068 023f 1841 acbe
000000f0: 38be 51be de12 9f3e a696 b5be 057f be3e
00000100: f245 c23e 8385 e8be 346f b0be daf0 71be
00000110: 2c5b 0a3f 1100 03be ef37 da3e dc28 81be
00000120: 8801 063f 1f9e 103f 9756 2f3e 3312 40be
00000130: 169b da3c 7159 72be 4542 9fbd f1a0 ba3e
00000140: 55a2 403e 2173 18bd 4160 bfbe b6e1 7ebe
00000150: b1ac 8bbe 1159 ae3e a9a6 96be 847a 49be
00000160: db21 18be 165f e03e 3979 e03e 4b13 d9be
00000170: a332 fdbe 5eae 06bf bb58 bf3d 97e3 d43e
00000180: 3021 613e 6265 c7be 8a8a 54be 815b ffbe
00000190: da2f c83e f91f 3fbe 87b5 cc3e 9c4b c53d
000001a0: c3eb e9be d39d f8be da71 e7be 90d6 38be
000001b0: aa82 d4be edca f23d ad57 0f3f d9c7 04be
000001c0: 0e09 043f acb5 f0bd 3113 8d3e efc8 8ebd
000001d0: 82a4 82be 7a5c f4be 9c13 1a3e 7493 14be
000001e0: dde7 993e 14b5 8dbe 0073 833e ca6a 90be
000001f0: 50ce ed3e 5d08 b53d 68e1 d8be 6009 e0be
00000200: 47ad 2cbd 5a1d 82be 3b76 c3be ab11 043f
00000210: feb6 0fbe 3049 0abf 51c7 c23e 0515 16bf
00000220: f111 92be 3d7f 0f3f cdad 0d3f 2c05 a63e
00000230: e48b 1a3e 0e20 ca3e eb2e 053f 1ad7 c6bd
00000240: 3820 813e 91b7 87be 03b4 90be fd05 923e
00000250: 272c fabe 7bd5 a9be 4d64 b9be dfd9 0abf
00000260: 5a8c 5ebe b339 debe 4046 06bf 83c8 c63e
00000270: d9f8 e1be e76a d23e 7069 c03e 4b4f bc3e
00000280: 3c65 87bd f067 e33e e255 8bbe 5355 2cbe
00000290: 0ff5 be3e 9cdb f73d 7f51 18be dcc6 853e
000002a0: 3c54 d2bd 1047 3d3e 9246 e83e b37f e7be
000002b0: bf6c 6a3d f05c 9f3e 3f40 c03e 8b3c 203e
000002c0: c078 0b3f 6b7a 033f ee6a c33e 9111 403e
000002d0: f72e 1dbe 52e0 36be ecc3 4d3e be95 063f
000002e0: a4f0 87be 7f47 b83e 9fcc 163f 233f 3c3e
000002f0: 9dc6 b43e 2eca cbbe 3186 cc3e 5b47 f0be
00000300: 6708 b9be 7154 823e 1a22 2dbe fc69 ec3e
00000310: 7a01 fbbe bfe0 e93e 22ff 17bd 615b 7bbe
00000320: 63bb 15be f1dc ebbe 53aa 543c 4be3 d43e
00000330: cc3a 683e e2b4 b03e 8a97 6fbe 6779 163f
00000340: 5d3b 97bc f3d1 083f a963 623e 6392 103f
00000350: 8784 01bf ecbb 15bf 0374 8c3e aee0 163e
00000360: 9bd1 f6be 0ad3 613e 3eeb 9a3e b898 263f
00000370: d8d7 96bd df2d 893e 1c79 a83e 31db 053f
00000380: 12da 703e 3c08 cfbe eef2 113f 61e2 013f
00000390: 97da ad3e b63f e0be 98e4 843e c221 f2bd
000003a0: 562f fdbd d8a7 6c3e 7de9 003f 841e eb3e
000003b0: 764a 2e3e 6100 0f3f e10d 803e 9740 d03e
000003c0: 849c 2ebe cdb3 02bd 17a1 f33e 3f66 ba3e
000003d0: 4645 e2bd d52b a43e 751c 0fbe 2028 133f
000003e0: 72be b1be 7926 b23e 9dcc b23e 29e8 113e
000003f0: 3305 89be 5e28 5e3e 6777 ebbd af6e b2be
-0.24213117 -0.33022207 -0.11071198 -0.2733402 -0.17018366 -0.11832086 0.028796326 -0.26823086
0.5233284 0.56389326 -0.46364057 0.008214909 0.1381399 0.1773477 -0.12781186 0.5969323
0.49314255 -0.40137103 0.3498798 -0.1143262 0.335781 -0.2769507 0.22333696 0.34266442
0.5541028 -0.102175266 -0.26247138 -0.47450212 0.37722313 0.24615556 0.5378671 0.08693517
0.29909942 0.558405 -0.039784066 -0.30015445 -0.37860844 -0.074749336 -0.100070655 0.52648276
-0.034469575 -0.022560459 -0.12250333 -0.20245937 0.5245516 -0.2914226 -0.4735103 0.5350178
-0.15913738 -0.1677669 -0.25064123 0.2149984 -0.18897817 0.43106538 -0.17824239 -0.18519954
-0.52823037 -0.24226017 0.509408 -0.33643413 -0.20482719 0.31069082 -0.35466498 0.37206283
0.3794399 -0.4541436 -0.3445984 -0.23627034 0.5404537 -0.12792994 0.426208 -0.25226486
0.52346087 0.56491274 0.17122875 -0.18756942 0.026685279 -0.23666932 -0.07776312 0.36450914
0.18811925 -0.03721917 -0.37378123 -0.2489079 -0.2728019 0.34052327 -0.29424027 -0.19675642
-0.14856665 0.43822545 0.43842486 -0.42397532 -0.49452695 -0.52609813 0.09343096 0.41579887
0.21985316 -0.38944536 -0.20755973 -0.498745 0.39099008 -0.1866454 0.39982244 0.09633562
-0.45687684 -0.4855791 -0.4520405 -0.18050599 -0.4150594 0.11855111 0.5599316 -0.12966861
0.51576316 -0.11753401 0.27553704 -0.06971919 -0.25516135 -0.47726804 0.15046543 -0.14509374
0.3005971 -0.27677214 0.25673676 -0.28206474 0.46446466 0.08839486 -0.4235947 -0.43757153
-0.042157438 -0.25413018 -0.3817614 0.5158946 -0.1403465 -0.54017925 0.3804269 -0.58625823
-0.28529313 0.56053525 0.55343324 0.3242582 0.15092427 0.3947758 0.52024716 -0.09708996
0.25219893 -0.26507238 -0.28262338 0.28520194 -0.4886181 -0.33170685 -0.36209336 -0.54238695
-0.21733227 -0.43403396 -0.52450943 0.38824853 -0.44135168 0.41097185 0.37580442 0.36779246
-0.06611106 0.44415236 -0.2721396 -0.16829424 0.3729634 0.12102434 -0.14874838 0.2612828
-0.10269973 0.1848414 0.4536634 -0.45214614 0.057232615 0.31125593 0.37549016 0.15648095
0.54481125 0.5135867 0.38167518 0.18756701 -0.15349947 -0.17859009 0.2009427 0.5257224
-0.26550782 0.35992047 0.58905977 0.1838346 0.3530778 -0.39802688 0.3994613 -0.4692944
-0.36139223 0.2545505 -0.1690754 0.4617461 -0.49024564 0.4567928 -0.037108548 -0.24546577
-0.14622264 -0.46067002 0.012980062 0.4157966 0.22678679 0.34513003 -0.23397651 0.58778995
-0.018460924 0.5344536 0.2210833 0.5647337 -0.50592846 -0.5848987 0.2743226 0.14734146
-0.4820679 0.22053161 0.302576 0.6507678 -0.07365388 0.2679281 0.329049 0.52287585
0.23520687 -0.4043597 0.57011306 0.5073605 0.33955833 -0.43798608 0.25955653 -0.11822845
-0.12362544 0.23110902 0.50356275 0.4592172 0.17020592 0.55859953 0.2501059 0.40674278
-0.17051893 -0.031909753 0.4758384 0.36406133 -0.11048369 0.3206469 -0.13975699 0.574831
-0.3471561 0.34794977 0.34921733 0.14248718 -0.2676178 0.21695086 -0.114973836 -0.3485007

critic.2.weight f4 [256, 256]
00000000: 07d4 a5bb 8502 babd a39b 42bd b3f2 29bc
00000010: c2fa c5bd 1575 a6bd af31 13bc 8c54 0cbe
00000020: 4340 513d 31fe 023e 38dc 593c bf55 7a3d
00000030: 5cc4 813d fe22 50bc c827 e9bd 0d90 d43d
00000040: b6a7 0d3d 49b7 4fbe 7499 9a3d 59c9 1abe
00000050: 0306 a339 d58a d2bd 97ad b13d 8070 a13d
00000060: b15e 003e 2a56 96bd a7ca d9bd c360 2b3d
00000070: f7e7 853d efd8 ab3d 9c9e 9c3d 503f 943b
00000080: ecff 4e3c 193d 723d a2a1 f0bc ad79 97bd
00000090: e9ae b73c da3d eebd 3bb2 a5bd 4918 483d
000000a0: cc28 8cbd 76d4 67bc e693 e7bd f426 98bd
000000b0: 8fb1 983d f7fe 1ebe 46c5 dfbd 3e5b b83c
000000c0: 9327 35bd c3fe f9bc 0fbe 27be ff97 553d
000000d0: 145d 9dbd 88ab 9b3d 4627 e2bd 0998 903d
000000e0: dfe4 0fbe 3342 24bd 9788 9f3d c5c2 d8bc
000000f0: 29c8 70be fe6c ac3d 9303 03be d4a5 a43d
00000100: 1b15 f13c 9627 d1bd df36 f7bd 16d3 b8bd
00000110: a7a1 d83d fb7c 21be 65c7 753c 31fb 06bd
00000120: 0f6a 763d b04d 423d e010 4d3d a772 89bd
00000130: c4e8 103d f012 b7bc 716b 36bc 6a7a 4f3d
00000140: e074 863d a304 363d 8eb4 42be e1e0 83bd
00000150: f128 bbbd 6b86 923d 8e19 57bd 1a97 69bd
00000160: 9013 41be 3774 023e 3d7c 8e3d 21f6 8fbd
00000170: cd95 ab3c 1cb5 95bd 4b7b 093d 6837 a13d
00000180: 89ee 9b3d 1158 a5bd 5c13 39bd 4424 d3bd
00000190: 8ac0 883d 1a31 67be f30b 643c 8c88 55bc
000001a0: 4ef8 86bd 410b f8bd 88a5 7fbc a8e8 14be
000001b0: 3b56 25be 33a8 593d 2e60 d63d d048 81bd
000001c0: b4b0 ac3d ba48 a0bd 04ee 463d ba17 a5bc
000001d0: 8d20 cbbd b198 17be 8b17 d23c 391c 093c
000001e0: 2990 413d 6857 ccbc 8bdd 15bc 19ac a1bd
000001f0: b8ae 7c3d b4f0 5f3d ea7e afbd 8c16 aebd
00000200: 7570 8f3d 4579 3cbe 20c0 bbbd 0962 c63d
00000210: f9bc bfbd 4883 31bd 549c 8e3d 7fbc 24be
00000220: f731 4fbd 4473 2b3d 83d9 953c 7e38 6e3c
00000230: 0d3e a33c 646b 30bb 0103 f13d 2933 9db9
00000240: dd82 9e3d 8eb8 22bd cada b6bb 1cc6 e43c
00000250: d324 30be 711d 55bd af81 3abe ae80 a1bd
00000260: c97f 24be 38fa b9bb d3d9 debd 56b3 4c3d
00000270: 8394 3cbe a614 f03a fd2c f43d ebb8 b13d
00000280: dafb 2fbd c43f 5a3d 5c65 7dbd 55bb 113d
00000290: 4a3f c83c c314 f13c 6497 283d d5d4 1a3d
000002a0: 7176 e2bd 3165 bf3c 0bef 323b 4c9a 39be
000002b0: 8f45 7b3c 3349 2abc 7015 fe3d 1ba8 a7bc
000002c0: f259 ccbc a795 ae3d 98a4 c43d 5070 9d3c
000002d0: 42c6 06bd a86e f9bd 4fcf 823c e73a a03d
000002e0: 02dd f2bd 7aa2 553b 09b4 743d 76fe 1e3d
000002f0: 23d3 d53d fa20 30be a894 b83d 702d 27bd
00000300: 30b6 01be da36 de3d 2254 94bc 27c4 ab3d
00000310: bdd3 e4bd bec0 933d 7e63 103d 65df 16be
00000320: fae3 97bc 2085 36be abc3 bcbc b4c2 733d
00000330: c225 d83d de60 3dbc 1c95 0bbe 82bd b83d
00000340: 0056 8bbd 655b d93d b461 c53b bb31 073d
00000350: 0db3 04bd 5b12 96bd 5cdb 843d 70b8 bf3d
00000360: bef1 c4bc c822 da3d 26f1 93bb 7904 523c
00000370: 96ed 53bd 85cb b03c 7418 bf3c 5487 003c
00000380: 1da1 1fbd 84ae 1cbe db3d fc3c 23f6 fb3b
00000390: cb58 073e 533d 9fbd 7258 aa3d 21f3 4fbd
000003a0: a4b2 ccbd 76be 743d d43d 063e c0c9 273d
000003b0: 734c 06bd c867 1a3d 07bd 883d 357e 283d
000003c0: bacd 45bd 021c cdbd fce5 2f3d 3eb0 ac3d
000003d0: 93fd 37bd 67ad ee3d 7917 0cbe f2c3 883d
000003e0: 9ba0 28be 18ff ed3d 5379 c73d 9540 b63d
000003f0: bf9d 1cbc 9adc ec3c 071f 42bd 41de 2ebe
-0.005060676 -0.09082512 -0.047511708 -0.010372805 -0.09666969 -0.081278004 -0.008984013 -0.13704127
0.051086675 0.12792279 0.013297133 0.06111693 0.06336281 -0.012703655 -0.11384541 0.10379038
0.03458377 -0.20284761 0.075488 -0.1511587 0.00031094262 -0.10280386 0.08675688 0.07882786
0.12536122 -0.07340653 -0.10634356 0.041840326 0.065383844 0.08390986 0.0764744 0.004524149
0.012634259 0.0591403 -0.029373948 -0.07396255 0.02242227 -0.11632891 -0.080906354 0.048851285
-0.06843719 -0.014149776 -0.11307506 -0.07429305 0.074557416 -0.15526949 -0.10926299 0.022504445
-0.044227194 -0.030516988 -0.16381095 0.052146908 -0.07683769 0.07601076 -0.11042647 0.070602484
-0.14052151 -0.040102195 0.07789724 -0.02646006 -0.23513855 0.08419226 -0.12794332 0.08039442
0.02942901 -0.102126285 -0.12071013 -0.090246364 0.10577708 -0.15770333 0.015001153 -0.0329544
0.06015974 0.04743737 0.05006492 -0.06711321 0.035378233 -0.022347897 -0.011134014 0.050653853
0.06565261 0.044438016 -0.19014189 -0.064393766 -0.09138668 0.071545444 -0.052514605 -0.057028867
-0.18855119 0.12739645 0.0695729 -0.07029367 0.020945454 -0.073099345 0.033564847 0.07871896
0.07613856 -0.08073438 -0.04518448 -0.103096515 0.06677349 -0.22577325 0.013918865 -0.013033044
-0.06590329 -0.121115215 -0.015603431 -0.14541876 -0.16146176 0.053138923 0.104675636 -0.06312716
0.08432141 -0.078263715 0.048566833 -0.020152915 -0.09918318 -0.14804341 0.025645992 0.008368545
0.047256622 -0.024944022 -0.009147058 -0.07894153 0.061690062 0.05467291 -0.08569129 -0.08500394
0.07003871 -0.18405636 -0.09167504 0.096866675 -0.093622155 -0.04333809 0.06963411 -0.1608753
-0.05058476 0.041857973 0.018292194 0.014539836 0.019927049 -0.0026919479 0.11768151 -0.0002998349
0.07739804 -0.039726786 -0.005580281 0.027926497 -0.17201547 -0.05203003 -0.18213533 -0.07885872
-0.16064371 -0.0056755804 -0.108813904 0.049975716 -0.18416028 0.0018316701 0.11922643 0.086778484
-0.042964794 0.053283468 -0.061864242 0.035579044 0.024444241 0.029428845 0.041160002 0.03780063
-0.11057747 0.023363682 0.0027303125 -0.18125266 0.015336408 -0.010393429 0.12406433 -0.020465901
-0.024945233 0.08524638 0.09601706 0.019218594 -0.032903917 -0.12179309 0.015967993 0.07823735
-0.1185856 0.0032598064 0.059742007 0.03881689 0.10440662 -0.1720008 0.09012729 -0.040814817
-0.12667155 0.10850306 -0.018106524 0.083870225 -0.11173198 0.07214497 0.035251133 -0.14733656
-0.018541325 -0.1782422 -0.02304252 0.059511855 0.10554077 -0.0115587395 -0.136311 0.09020521
-0.068035126 0.10613135 0.00602361 0.03300641 -0.03239732 -0.0732772 0.06487152 0.093613505
-0.024041053 0.10651165 -0.004514831 0.012818449 -0.05174025 0.02158142 0.02332709 0.007844765
-0.03897201 -0.15300947 0.030791214 0.007689254 0.13217466 -0.077753685 0.08317651 -0.050768975
-0.099950105 0.05975195 0.13109523 0.04096389 -0.03278775 0.03769663 0.06676679 0.041135985
-0.0482919 -0.10015108 0.04294394 0.08432053 -0.04491956 0.116541676 -0.13680829 0.066779986
-0.16467516 0.11620921 0.09739938 0.08899037 -0.009559094 0.028913785 -0.04739287 -0.1707697

critic.2.bias f4 [256]
00000000: 8d88 e93d 8548 42bd 2a72 313d c015 5fbd
00000010: b1df 6dbc 5dcf 98bc f9f9 0f3e 2c8e 023d
00000020: e9cc 71bd a662 7c3d b911 82bd 8c49 53bd
00000030: 9a0b aabc ce9d debd 35c8 dcbd 9cac ecbc
00000040: 90c6 f8bb db04 49bd 2714 f9bc 4c01 193d
00000050: a052 243d c572 f53d dd07 0a3d 7fcd 543d
00000060: a84a 713d d269 59ba f69f dc3d 9070 c7bc
00000070: 011b 023e 1cef 36bd b048 b8bc ea79 823d
00000080: 2997 70bd 52b4 bb3d cf26 073c 6f77 32bd
00000090: 5575 093d e72d 90bd 1cf7 da3d 84c9 0a3e
000000a0: b21b 74bd 87fa 883d e528 dd3d c605 e93c
000000b0: 777c 3b3d 6abc 2c3d 5f39 c7bd 976e 9d3d
000000c0: 3212 933c 9d25 fc3d 1ee2 c2bb c47d 84bd
000000d0: c43b e03d 2d6d b4bc f95c ff3d 4deb 1b3c
000000e0: f9f8 8fbd 8ee3 f33d c375 363d a81c cf3c
000000f0: 0cd0 ef39 58eb 223c 474a 92bd 34e6 863d
00000100: 57d9 bbbc 4305 c93d 3faf 1abd 6da0 9c3d
00000110: 3e57 a03d 6694 00be 34f6 d3bc 7ab8 f93d
00000120: c546 38bd 20f8 683a b540 75bd 2493 85bd
00000130: 720d 01bc c402 d53c 5f89 fa3d 48a7 acbd
00000140: efed 0a3d 2018 0abd 0043 973d 9089 243d
00000150: 52eb 9a3d 4595 bd3c d1d6 1c3e 522c 653c
00000160: 0e3d 163d b8d4 4ebd 9558 45bd 955b 0b3d
00000170: 5921 d4bc 4bcd 70bd 1dac e73c a1b5 6ebc
00000180: 91a9 a13c b2fa eb3d 003c 40bd 571f 953d
00000190: 9bf8 89bc 7d93 013e e6e5 dc3c 949e 37bd
000001a0: 9029 90bc 55a0 4d3d 2a1f 67bd 223c 083d
000001b0: c256 f53d 3036 9e3c e887 60bd 76d5 993d
000001c0: 6e97 6c3d d6c2 503d 5b54 973d 219f 133e
000001d0: cc08 bbbc 7031 b23d ea4c 83bd b1aa 5b3d
000001e0: 4ab3 69bd 5150 b63d 8483 1f3d 5c7a ccbc
000001f0: 55c7 ed3d 85c0 643a 3c02 1f3d d861 f53d
00000200: 5a81 e53d 9adf d5bd 9f14 a73b 3bfa 33bd
00000210: 7bfd 1d3d 77e8 5d3d a412 a63d d855 0a3e
00000220: af2c 113c 90a4 17bd 7071 0abd 25d2 85bd
00000230: 8416 a83d bab5 563d 512c 413d 21b4 053d
00000240: b84f b6bc 9333 243d 7078 bc3d 2309 e13c
00000250: e8da d73c 4f4e 0b3e c3ed 0c3e 7b43 7e3c
00000260: 34b2 053d 647b 68bd 82d1 be3c 04f9 483d
00000270: 83d9 cebc 4a91 dfbc a96e 9fbc 7b3f b7bd
00000280: 641a 57bc 8956 8ebc f3ab aa3c 7a67 973c
00000290: ec5c d53d 34c8 87bd 85a5 833d 30be d43c
000002a0: 0c11 23bd fcd5 fcbc afaf 85bd 9b47 b9bc
000002b0: 5e06 79bc 3ada 15bd 4eb5 ef3d 0cce 32bd
000002c0: 34e7 023d 98ad 08bd 6f17 033e f3b6 ef3c
000002d0: d5ad 0e3d 918c 4bba 6995 2f3d 9e1b 0d3e
000002e0: 6bcb f33d ae70 9f3c 0cb8 953b 1f92 d1bc
000002f0: 7f31 d03c d045 3f3c 43fa 673d 422b 89bd
00000300: e3a3 2f3d c64d 82bd 5ca1 9cbd 4ad4 0b3e
00000310: 50c8 093e 6034 6bbd 44c2 083d 0772 963d
00000320: 8c74 973d 666b 53bd 4c47 8f3d b159 c2bd
00000330: aa8b ca3d dc4d cdbc 7802 a83d 1f21 2c3d
00000340: 1354 573d 6b5c f13c 0507 893d ab8c d33d
00000350: c31d 003e 2e73 1fbd 1fad 223d deb4 403d
00000360: 310e f33d 8516 35bd 09b6 33bd cbda 02bd
00000370: e17f c93d 081b 1b3e 60ad e83d 5031 c93c
00000380: 3b83 6ebd 8de3 04bd 1108 b0bc c798 f83d
00000390: b222 953c ec5a ffbc aa54 6cbd 7828 823c
000003a0: 87ba 89bd 94a2 623d cda3 603d 7d78 9cbc
000003b0: 0e49 8a3d 12c5 b7bd da3c a13d e239 45bc
000003c0: 644b bcbc 2ffc 4e3d d419 a63d 0c1b 0c3e
000003d0: ddc1 5ebd ac38 02bc 0272 c13b d118 d7bd
000003e0: b45a 3bbd d996 57bd 4edb b73d f254 51bc
000003f0: 49f1 383d 29f0 dd3d 2094 dc3d 5c92 fd3d
0.11402998 -0.04743244 0.043321766 -0.0544641 -0.014518664 -0.018653566 0.14060201 0.031873867
-0.05903331 0.061617516 -0.063510366 -0.05158381 -0.020757485 -0.108699426 -0.10780374 -0.0288909
-0.00759203 -0.049076896 -0.030405117 0.037354752 0.04011786 0.11984781 0.033698905 0.05195379
0.05890909 -0.00082936615 0.10772698 -0.024345666 0.12705614 -0.044661626 -0.022495598 0.063709095
-0.058737908 0.09165253 0.008248999 -0.043570932 0.033559162 -0.07040005 0.106916636 0.13553435
-0.059596725 0.06688409 0.10798816 0.028445136 0.045772996 0.042171873 -0.097277395 0.07687109
0.017953012 0.12311862 -0.0059473654 -0.064693004 0.109488994 -0.022024715 0.12468905 0.009516549
-0.0702991 0.11908637 0.0445459 0.025282219 0.0004574064 0.009943806 -0.071430735 0.065868765
-0.022930784 0.09815457 -0.037764784 0.07647786 0.0782914 -0.1255661 -0.025874235 0.12193389
-0.044989366 0.0008887071 -0.059876163 -0.065222055 -0.007876741 0.026002295 0.12233233 -0.08430344
0.033918317 -0.033714414 0.07385826 0.040170252 0.07564415 0.023142466 0.15316321 0.013987618
0.03667932 -0.050495833 -0.04818018 0.034022886 -0.025894808 -0.058789533 0.028280312 -0.014569671
0.019734176 0.11522426 -0.04693222 0.07281368 -0.016842177 0.12653919 0.026965093 -0.044828966
-0.017597944 0.050201733 -0.056426205 0.033260472 0.11979438 0.019312948 -0.05481711 0.075114176
0.057761602 0.05096706 0.073891364 0.14416172 -0.022831343 0.08700836 -0.064111546 0.05362958
-0.05705575 0.08902038 0.038943782 -0.02496069 0.11610285 0.00087261974 0.03882049 0.11981553
0.112063125 -0.10443039 0.005098894 -0.04393981 0.038571816 0.054176774 0.08109024 0.1350931
0.008860751 -0.037022173 -0.03379959 -0.065342225 0.082074195 0.0524194 0.047161404 0.032642487
-0.02225481 0.040088248 0.09202659 0.027470177 0.0263495 0.13604091 0.13762574 0.015519018
0.03264065 -0.0567583 0.02329326 0.049065605 -0.025250202 -0.027290959 -0.019461947 -0.08947655
-0.013128851 -0.017375248 0.020833945 0.018481959 0.10418114 -0.066299826 0.06428055 0.025969595
-0.03981118 -0.030863754 -0.065276496 -0.022617152 -0.015199272 -0.03658507 0.11704503 -0.043653533
0.031958774 -0.033368677 0.12801908 0.029262042 0.034833748 -0.00077647815 0.042867098 0.13780066
0.11904033 0.01946291 0.0045690592 -0.025582371 0.025414227 0.011674359 0.056635153 -0.06697704
0.042880904 -0.0636249 -0.07647964 0.136552 0.1345532 -0.057422996 0.03338839 0.07345968
0.073952764 -0.051616095 0.06996021 -0.094897635 0.0988992 -0.02506154 0.08203596 0.042023774
0.052570414 0.029463014 0.06690792 0.10329565 0.12511353 -0.038928203 0.039715882 0.04704749
0.11867941 -0.04421093 -0.043874774 -0.03194694 0.09838844 0.1514703 0.11361194 0.024559647
-0.05823062 -0.03244357 -0.021488221 0.12138515 0.01820502 -0.031171285 -0.05769793 0.015888438
-0.067250304 0.055330828 0.054843713 -0.019100422 0.06752215 -0.08973135 0.07872935 -0.012037726
-0.022985168 0.05053347 0.08110395 0.13682193 -0.0543841 -0.007948082 0.0059034834 -0.1050278
-0.045740798 -0.052634094 0.08977376 -0.0127766 0.045151982 0.108368225 0.1077044 0.123814315

critic.4.weight f4 [1, 256]
00000000: 789d 5a3d 1e67 b6bc 3422 883d 086a 12be
00000010: b327 ccbc ab63 91ba 2bdf c13d 36d0 783a
00000020: f785 2dbd 09eb c03d 467b 4dbc df58 45bd
00000030: 3436 40bc a704 1cbe 72de 15be 6c85 77bc
00000040: 3ebe 98bc 9ffc 12bd 478e 4cbc 0ac8 663d
00000050: c16c 763d 5f4e 983d ca17 a63d 2f3a cd3d
00000060: fa13 bb3d 4107 8abb fede 943d 9c58 8b3c
00000070: 87fe ab3d 4c64 72bd 11a6 d4bc 1ea7 693d
00000080: e866 6bbd b1c0 7f3d 8ef8 913c a2ba 91bc
00000090: 023a 9d3d 204c 54bc 4575 353d 865a 5a3d
000000a0: 78cf a1bc d935 723d e3e4 6c3d c28b dfbb
000000b0: 320f 8abc 1c0f a23d e443 3ebe 7afc d23d
000000c0: 0ad4 23bd f107 cd3d 810e 87bc 6e44 62bd
000000d0: 1ecb 873d b143 54bc 3fc5 8b3d 8d92 5bbc
000000e0: dd66 473d d8b3 9c3d 56d7 58bd 5ffc 13bd
000000f0: 3cd3 10bd 97a4 61bd 53d3 5c3c 1a28 963d
00000100: c59b 37be 60a7 913d 9280 39bd 41d4 b03d
00000110: 5b4d 6b3d 052c 40be 1bae 1dbe 22c9 913d
00000120: b73e 0fbd 3f3f 66bd aaab 4bbe e963 fbbb
00000130: 3187 77bc 347e 1a3b 930d e53d e2dd 33be
00000140: 71d9 4d3d cf68 1ebe 0c43 303d baa3 4fbd
00000150: ce29 403d 3aae d0bd 21c7 4d3d 906e 14bd
00000160: 31e0 8b3d f51b 4cbd 9770 46bb d793 bbbc
00000170: cda0 35be 6cdb c0bb 49d9 4dbd cf0a 18bc
00000180: 9468 66bd eba8 973d 574a cdbc 86d6 cb3d
00000190: fdc9 56be 3649 973d e025 03bd 29fc 5dbd
000001a0: bb8c 51bb 9426 a03d aa41 1cbc 5668 9abc
000001b0: f4ce 7c3d 9804 e03c 273a babc e1ae 8d3d
000001c0: 73c4 803d 1e0e 61bd d53a 8c3d 6fe7 9d3d
000001d0: 56f2 68bc bc93 543d a49a c1bc 753a 483d
000001e0: 7089 c6bc b56a 3d3d 4b49 aa3b b0cc 14bc
000001f0: fda9 303d 975e c1bb 4ea1 5e3d 110b 9c3d
00000200: d46d 8a3d 5b68 26be cae4 4cbc 890b e13a
00000210: d13e a33d f251 43bd 303a 793d fb87 b33d
00000220: d8ba a2bc 38d2 1a3c b400 07ba 6142 1bbe
00000230: b284 533d 978c 853d c16f 0fbd 03ed b63d
00000240: 61ad 73bc 64aa b6bc 670e 323d da7a 033d
00000250: 0b34 28bd 04b0 c13d f865 cc3d 47a9 3bbd
00000260: ae49 fdbc 8571 4fbe cd9a 823d 429a 11bd
00000270: 9676 02bd b963 073d 4c20 1ebd 1c6c 51be
00000280: 9e88 9dbc ac1d 19be 10da 9b3d f5b6 d33c
00000290: eb55 cb3d c6bf 0dbd 80f4 723d bdb9 ca3c
000002a0: 26de 3abd d46f 163c 2b46 4bbd 7a40 2fbe
000002b0: 6496 cfbd 89ca a8bb daad 473d d985 17be
000002c0: df4b a23d e37e 3ebd 4437 cb3d aa7a 5c3d
000002d0: de48 23bd efb2 afbb 7549 06bc da6e 8d3d
000002e0: d1d7 533d 8f45 b5bc 18e7 1bbd 4df7 693d
000002f0: e7f9 8dbc f083 103d 9a4f c1bb c948 2cbb
00000300: 09b2 2dbd 9f3d 1abd 6f13 523b adaa c23d
00000310: 1c88 c43d c8f5 0bbd 54b0 c03d aff4 833d
00000320: 8e9e 8e3d aa1d 9bbc 5a67 803d a6b3 33be
00000330: efa5 763d 4e6f 14bd 086d 953d b299 1c3d
00000340: 43ed 97bb c129 b23d 07e6 833d f299 633d
00000350: 7358 513d 16a0 03bd d861 0cbd 2ee7 0cbd
00000360: 3fd1 673d 35f1 07bd f948 5cbd 249c 253d
00000370: 47a3 363d 408b 4f3d 938a 9d3d 6c66 54bc
00000380: abe7 a2bc e151 60bb df60 52bd 3b81 513d
00000390: ddec c0ba 3289 1b3d f12a 52bc 66e1 2fbd
000003a0: ebc2 43be b6f5 fdbc 3ab4 b63d 784e 4bbd
000003b0: 814f 503d 46ca 2fbe daea 923d a49a 4cbe
000003c0: 90f2 a2bb 2264 603d d208 863d 211b 773d
000003d0: 0805 99bb f9aa 94bc c5fd 9fbd cbf8 4cbe
000003e0: 0ece 6cbd d125 8cbd be94 873d fbfd f3bc
000003f0: 1041 ad3d 6feb bf3d fc17 7c3d cbe9 953d
0.05337283 -0.022265967 0.06647149 -0.1429826 -0.024921274 -0.0011092325 0.09466394 0.0009491475
-0.042364087 0.094198294 -0.012541598 -0.048180457 -0.011731673 -0.1523615 -0.14635637 -0.015107494
-0.018645402 -0.03588545 -0.012485093 0.056343116 0.06016231 0.07436823 0.08110006 0.10020863
0.091346696 -0.0042122905 0.07269095 0.017010026 0.083981566 -0.05917768 -0.025958093 0.05704414
-0.057471186 0.062439624 0.017818715 -0.017789189 0.0767708 -0.012957603 0.04430129 0.053308986
-0.01975225 0.059133384 0.05783547 -0.0068220804 -0.016852949 0.07913038 -0.18580586 0.10302062
-0.039997138 0.1001128 -0.016486408 -0.05524104 0.066305384 -0.012955592 0.06824731 -0.01340164
0.048682082 0.0765149 -0.052939735 -0.03612935 -0.0353577 -0.055088606 0.013478118 0.073318675
-0.17930515 0.071120024 -0.04528863 0.08634234 0.05744682 -0.18766792 -0.15398447 0.07118441
-0.03497192 -0.05621266 -0.19889703 -0.0076718223 -0.015107916 0.0023573758 0.1118423 -0.1756511
0.050256196 -0.15469669 0.04303269 -0.05069325 0.046914868 -0.10189481 0.050238732 -0.036238253
0.068298705 -0.04983135 -0.003027951 -0.022897644 -0.17737122 -0.005885532 -0.050256047 -0.009279921
-0.056252077 0.074052654 -0.025059862 0.099530265 -0.2097549 0.07387011 -0.032018542 -0.054195557
-0.003197475 0.07819858 -0.00953714 -0.01884858 0.061720803 0.02734594 -0.022732807 0.06918121
0.0628747 -0.054945104 0.06847159 0.07710158 -0.014217934 0.051898703 -0.023633309 0.048883874
-0.024235457 0.046244342 0.0051967255 -0.009082004 0.043130863 -0.0059011686 0.05435305 0.07619298
0.06759229 -0.16250746 -0.012505719 0.0017169575 0.07970966 -0.04768557 0.060846508 0.087661706
-0.019864485 0.009449534 -0.0005149946 -0.1516204 0.05164022 0.06520956 -0.035018686 0.08931925
-0.01487288 -0.022298045 0.043470766 0.032099582 -0.041065257 0.094574004 0.099803865 -0.045815732
-0.030918922 -0.20258148 0.06377182 -0.035547502 -0.031851374 0.033054087 -0.03860502 -0.20451397
-0.019230183 -0.14952725 0.076099515 0.025844077 0.09928497 -0.034606718 0.059315205 0.02474677
-0.045622014 0.009181935 -0.049627464 -0.1711444 -0.101361066 -0.005151097 0.048749782 -0.14797153
0.079246275 -0.046507727 0.099226505 0.05382792 -0.039864413 -0.0053619067 -0.008196224 0.06905909
0.05171949 -0.022127895 -0.038062185 0.05712061 -0.017331077 0.035282075 -0.005899382 -0.00262885
-0.042406116 -0.037656423 0.003205504 0.0950521 0.09596273 -0.034169942 0.09408632 0.06443154
0.06963836 -0.018935043 0.06269713 -0.17548999 0.06021684 -0.03623896 0.07296187 0.038232513
-0.004636438 0.0869937 0.064403586 0.055566736 0.051109742 -0.03213509 -0.034273 -0.034400158
0.056596037 -0.033189017 -0.05378053 0.04043211 0.044589307 0.05066991 0.076924466 -0.012963872
-0.019885859 -0.003422849 -0.051361915 0.051148634 -0.0014719028 0.037972637 -0.012827621 -0.042939566
-0.19117324 -0.031000953 0.08921094 -0.04963538 0.05085707 -0.17167005 0.07173701 -0.19980866
-0.0049727634 0.054782994 0.06544651 0.060328607 -0.004669789 -0.018147932 -0.078120746 -0.20016782
-0.057813697 -0.068431504 0.06620167 -0.029784193 0.08459675 0.09371077 0.06154631 0.07319983
