algs/outputs/CartPole-v0/20230330-172109/models/ppo_actor.pt (torch, 272863 bytes, 6 tensors)

actor.0.weight f4 [256, 4]
00000000: 119e fcbe 259e cfbe 0fef 90be 7e15 7dbd
00000010: 1ea9 f3be 1e33 213e d786 ccbd 1851 0dbf
00000020: 472d b73e 70bc 433e 2cae 5abe 523b f3be
00000030: a2ae 8a3c e800 acbe e3da d03e dc99 013f
00000040: 1a52 83be 3d2f cebd cd43 e3be 2045 67be
00000050: 5aff fd3d 110b 0a3e fb26 e53e ecc5 8f3e
00000060: d086 c03c 1a2c 103d 5a2a 78be c2ef 03bf
00000070: eeba ae3e d985 82bd bd96 d3bd 63b8 e4be
00000080: d75d 643e f87a 8f3e e47c 573e 7a73 89be
00000090: 4825 a3be eff9 2fbc 7034 943e a363 41be
000000a0: 2265 0abf ac8a 33be 08b6 10bf da09 fbbd
000000b0: bce9 20be 8810 e7be 59ae b2be 42e2 95be
000000c0: ae03 8c3d e054 d83c 458b 913e bdbe 7ebe
000000d0: 4259 0ebe d159 613e a683 10bf 8483 86be
000000e0: 3ee3 a8be 293e 1c3e 7bc3 9b3e 411e edbe
000000f0: b7f8 bdbe 6802 aabe 1b20 0a3e 728e 84be
00000100: 532e bfbd e8b7 943d d1bf cdbe 2097 e33e
00000110: 0b0b 9e3e f0fd 8fbe a8b6 cabe 6bb4 72be
00000120: bf29 a9be f845 5a3e ca83 1dbd 89d4 c8be
00000130: 3848 debe 4248 e9bd 8500 cbbd 5dc4 d73e
00000140: ecb9 a3bc 0c97 143e 0915 6e3e 7638 cf3e
00000150: b4af d5bd 29f2 92bd ae17 cabe 51d0 02bf
00000160: 9a20 e8be 7e92 cd3e 201a 04bf 0728 4dbd
00000170: 216c ec3c 0ba6 d9be f498 95be d5d6 e73e
00000180: 3478 e43e 10f2 a4bc 2624 7cbe b1c2 e3be
00000190: e15f 86be a2c2 ccbe 3cc3 203e ba20 ee3d
000001a0: 7702 a0bd 21c3 8d3c 4310 043e 648b 113f
000001b0: f47e ae3e 9b42 233e 2634 933d 3af6 eebe
000001c0: 3983 c73e 5f67 ac3e 3aaf 8d3d 7697 fa3e
000001d0: 9627 a23e b564 8d3d b916 9a3e ce65 62be
000001e0: 4c07 bbbd 9b1f 3ebe 65cb 99be 42cc 033f
000001f0: f37f 263e e82d 04be f392 b53e 5de1 1b3f
00000200: 9bb7 5d3e 02df f13e 3fda 363d b410 7dbd
00000210: f62e 673d 173c 0b3e 857f dfbe 928d abbe
00000220: 1f4d 05bb d50b 6d3e 5b89 f9be 12a4 01bf
00000230: 47fc 3bbe d38c ae3e 7be0 b7bc 1baa 843e
00000240: e8b2 cd3d 494a 20be 01c8 263f 5bf2 fc3e
00000250: 27a0 e13d 6306 5bbe f99b 083f 960c 433e
00000260: 22ab 92be 089f dbbd 520b d6be 4a57 0c3f
00000270: 0796 bfbd b566 76be c989 733e 65eb 993e
00000280: 32e4 e93e 947a 46be a2ad 34be c5d2 7fbe
00000290: d942 59bb 1f54 443e 5c60 963c 8d4a 093d
000002a0: cdea dabe d2a3 e2be 5324 9ebe c799 7cbe
000002b0: 8e47 f93d 2da9 e63e 2854 fcbe 17e4 25bf
000002c0: dd0b aebe 7d3b 84bd 58df d63e 8a1f c13e
000002d0: 0247 a83e 4f35 99be f45e 1ebf ed4e 36bf
000002e0: 39c0 f53e 427a 61be 4e50 80bc e343 dbbe
000002f0: 1598 cbbe 0c1e 023e 3f69 0b3e f12a 6a3e
00000300: 9398 de3d e617 373e e660 093e deab 05bf
00000310: 0403 ef3e ebdf 133e fa40 4e3e afbf fa3e
00000320: 91af 55be 4c98 b33c 4b44 5b3e 0875 efbe
00000330: f4e7 86be fa26 ec3d f117 28be a716 cb3e
00000340: 4aa6 55be 0d60 ad3e 6465 a5bc d945 493e
00000350: 9439 e93e 847f d7be e755 00bf ffc1 0abf
00000360: ffc0 d0bd 5d14 ea3e e053 7f3d 1d29 033f
00000370: 343f d8be 6003 f5be 2134 abbe 0799 cebe
00000380: 2014 9cbe 5fad f93c 0f2b b03c 6aeb 0a3f
00000390: 6c73 813e c4c8 34be 2c4a a73e 948f 38be
000003a0: 74d1 92be ad0f a13e ad68 ccbe 4394 0fbf
000003b0: 3762 223e 1206 adbe 313b 833e 9c49 513e
000003c0: a286 c93d fd3d 513b 538a 98be 4f92 323f
000003d0: 26c5 083e 279f 213e 087f 85be 9de1 b43e
000003e0: f4d3 a4be 0039 e23e 7d14 dc3e b4ed c93e
000003f0: 637f e83e 119a 5ebe 7f64 2a3e b79c 943e
-0.49339345 -0.40550342 -0.28307387 -0.061788075 -0.47589964 0.15742156 -0.09986656 -0.55201864
0.3577673 0.19114852 -0.21355504 -0.47506195 0.016928975 -0.3359444 0.40791997 0.50625396
-0.25648576 -0.10067604 -0.44387665 -0.22584963 0.1240222 0.13480784 0.44756302 0.2808069
0.023501784 0.03519831 -0.24234906 -0.51537716 0.3412699 -0.06373186 -0.103314854 -0.44671926
0.22301422 0.28023505 0.21043736 -0.26845914 -0.3186438 -0.010740741 0.28946257 -0.18885665
-0.54060566 -0.17533368 -0.5652776 -0.122577384 -0.15714163 -0.451298 -0.34898642 -0.29274184
0.06836639 0.026407659 0.28426567 -0.24877448 -0.13901237 0.22006918 -0.5645088 -0.26272213
-0.32985872 0.15258087 0.30422577 -0.46312144 -0.37103817 -0.3320496 0.1348881 -0.25889927
-0.093350075 0.0726164 -0.40185407 0.44451237 0.308678 -0.28123426 -0.3959248 -0.23701636
-0.33039662 0.21315753 -0.038455762 -0.3922465 -0.43414474 -0.11390735 -0.099122085 0.42142
-0.019986115 0.14510745 0.23250212 0.40472764 -0.10433903 -0.07175095 -0.3947119 -0.51099116
-0.45337373 0.40150827 -0.51602364 -0.050087 0.028860154 -0.42509493 -0.29218256 0.4528109
0.44622958 -0.020134956 -0.24623165 -0.44484475 -0.26245025 -0.39992243 0.15699476 0.11627336
-0.0781297 0.017304959 0.12896828 0.5685332 0.34081233 0.15943377 0.07187681 -0.4667223
0.38967302 0.33672616 0.069181874 0.4894368 0.31670827 0.06903974 0.3009546 -0.22109148
-0.09132251 -0.18566744 -0.3003799 0.5148355 0.16259746 -0.12908137 0.35463676 0.6089075
0.21652071 0.47240454 0.04464173 -0.061783507 0.05644127 0.13597141 -0.43651977 -0.33506447
-0.0020340157 0.23149045 -0.48737606 -0.50640976 -0.18357955 0.34091815 -0.022445908 0.2591103
0.10043889 -0.15653338 0.6514893 0.49403653 0.11016875 -0.21389155 0.53362995 0.1904777
-0.2864619 -0.10723692 -0.41805512 0.5482069 -0.09354787 -0.24062617 0.2378303 0.30062404
0.45681912 -0.19382697 -0.1764436 -0.24982746 -0.0033151417 0.19172715 0.018356495 0.033518363
-0.42757264 -0.4426561 -0.30887088 -0.24668036 0.12171851 0.45050946 -0.49282956 -0.6480116
-0.33993426 -0.06456659 0.41967273 0.37719375 0.32866675 -0.29923484 -0.61863637 -0.7121418
0.47998217 -0.22019294 -0.015663292 -0.4282523 -0.39764467 0.12706774 0.13614367 0.22867943
0.10868945 0.1788021 0.1341587 -0.52215374 0.46681988 0.14440887 0.20141974 0.48974368
-0.20867755 0.021923207 0.2141277 -0.46768975 -0.2634884 0.11530872 -0.16415383 0.3966572
-0.20864215 0.33862343 -0.020189948 0.19655551 0.4555174 -0.42089474 -0.50131077 -0.54202265
-0.10193061 0.4571866 0.06233585 0.5123461 -0.4223572 -0.47854137 -0.3343821 -0.40351126
-0.30484104 0.030478178 0.021504907 0.54265463 0.25283372 -0.17654711 0.32673776 -0.1802352
-0.28675425 0.31457272 -0.3992361 -0.56085604 0.15857778 -0.33793694 0.25631097 0.20438236
0.09840132 0.0031927817 -0.29793033 0.697545 0.13356456 0.15783368 -0.2607348 0.3532838
-0.32192957 0.44184113 0.4298438 0.39439166 0.45409688 -0.21738459 0.16639899 0.29025814

actor.0.bias f4 [256]
00000000: 26ec acbe 17d7 a63d 6c2f b83e 29d6 68be
00000010: 98a1 473e a362 d33e 5f8a 7c3d 679e f4be
00000020: f9dd c9be 0208 b33c c351 61bd de02 e33c
00000030: 471d bebe 7379 e13e 5978 74bd 5283 e2be
00000040: f36e 8dbe f2af bc3e 36b8 29bd a44b aabe
00000050: 58ab 0d3d d448 d53e 6845 c5be a37f e6be
00000060: 319c 86be 1eb7 1abe b802 023e 1491 d9bd
00000070: e0e0 edbe 6c1f a0be a4da 0abe de63 243e
00000080: 4946 03bf f190 a93e 52d4 f03d 9918 a2be
00000090: 2df2 d03d aae3 8c3e af3c f0be fcec 13be
000000a0: a2df eabe 4579 cdbd 9e94 6dbe f307 cfbc
000000b0: 759b 37be 7f60 ba3e 21a0 52bd 2205 4f3e
000000c0: 3b23 77be 1f7b cdbe bc23 e1be 9c34 d13e
000000d0: 81c4 393e 5918 d43e 4266 803e 64bd 123c
000000e0: 2b22 5bbe 60d5 f8be e2de 613d 86c4 723c
000000f0: 856c 913e 45e5 f6be a7d9 d0bd dd95 f3be
00000100: e715 d4be 9940 f03e 706a 8abe 96b5 963e
00000110: 6a08 8b3e cd4f f3bd 09af fbbe 8039 543d
00000120: 920c e5be 32f4 3f3e a5c5 063e c40f 193d
00000130: 150c 293d 5dab 013e b3fb febd 305c d3bd
00000140: 3498 3a3d e579 01bf 3dfb a43e fb0d d9be
00000150: 2e4a 8a3e 95e9 103e bb8b 6d3e 9324 d53e
00000160: 09f5 bd3e f59b fbbe a908 993e 260f 9ebe
00000170: 698b 423e b3e4 133e 4ab9 073e e94c 2cbe
00000180: a077 7cbe a651 5bbd e8ac c4ba 43d8 adbe
00000190: 737f dabe dc79 b93e 5d94 50bd d956 573e
000001a0: c80a d73e 1d0a 89be f218 e13e 0c11 c4be
000001b0: 6527 363d 8c97 b93e 57b2 0c3e a0cb 81be
000001c0: 8255 39be 64e6 c4be 9008 803d a56b f6be
000001d0: 4770 c63e 2d82 0d3e 381a ac3d 13a9 6cbe
000001e0: 7570 903e 28bb d83e c7e9 f2be fa93 883d
000001f0: 3c17 dabe 1b9e d83e 4e34 f5be 79da ecbe
00000200: 4457 acbe 05db fcbd ee48 183e f171 9d3d
00000210: ef4d bebe ddeb fcbe ed63 e7be 4352 1ebe
00000220: b464 c43e 73e5 f7be 4e95 aa3d 51bb 06be
00000230: 786e f33e 0d67 e1be 7491 353e cffc 813e
00000240: 9bc0 dbbe 71de 4dbe 1b27 6e3d 99b4 04be
00000250: c0f7 943e 937e 8d3e 2032 813e 17d6 ebbe
00000260: 062e d73e f525 833d ba33 e23d 9b2f 6bbd
00000270: cb1a a93e 3297 083e 51f6 5d3e b6ee 1ebe
00000280: 7073 aa3b 41c0 853e f412 593e ac8f b93e
00000290: 6295 233e dfd0 de3d f2f8 3d3d 3aa2 a9be
000002a0: e1fe 7a3e d1cf cd3d 42da cd3d 5527 983e
000002b0: d096 afbe b2f0 dd3d 3f30 833d f061 febd
000002c0: 6769 11be efe4 d13e 1ea9 abbe 3698 ddbe
000002d0: 4e07 b33e 1e3e 5f3e bd65 aa3e 4a96 cc3e
000002e0: af53 a83e 7e32 963d b6dd edbe 6afb 94be
000002f0: b3d4 c2be e42d 073e eaec b23e 2c3d f2bc
00000300: 35c1 f13e 8e8f 8f3e c218 323e 79bd 543d
00000310: 3765 7fbe afea ba3e 1c69 003f a4aa 32be
00000320: ab71 ad3e e4a9 5ebe 12cb 9e3e 0a30 c4be
00000330: ca1e 2a3e 3c4e bfbe 66d9 223e d838 7f3e
00000340: ef89 8f3e 65e2 983d 2a1b d9bc a208 363e
00000350: bed5 24be 6456 c0be 3118 f1be 235e dd3e
00000360: c567 c9be 00c0 9fbe 5118 a03e e2b2 8f3d
00000370: fa32 d53e 16c5 bf3e 5705 c03e 32a5 183e
00000380: ea5a d13e 37f1 193e e6f3 3abe c7ab 1ebc
00000390: 402c 87bd 8296 123e de48 a3be 1cc5 163d
000003a0: 3471 dd3e e100 a0bd 6a86 f2be b4a8 d3be
000003b0: 18ba cd3d 7e38 cbbe 0a8b dcbe 4a1f 90be
000003c0: b620 04be f49d c9be 1989 163e 3e16 f9be
000003d0: 152c ab3d 709d b93e b6bb ba3e 6390 1a3e
000003e0: dde7 2dbe d8f6 b6be 564a 56be 4ba6 fb3d
000003f0: 5169 a63e c097 9abe 7bf5 533e 4f51 a5be
-0.33773917 0.08146494 0.3597368 -0.22737946 0.19495237 0.4128619 0.0616554 -0.477771
-0.39427164 0.021854404 -0.055009615 0.027711328 -0.37131712 0.4403797 -0.059685085 -0.44240814
-0.2762371 0.36852986 -0.041435443 -0.33260834 0.034587234 0.41657126 -0.38529515 -0.45019254
-0.2629104 -0.15108916 0.1269635 -0.106233746 -0.46460629 -0.31273973 -0.13559967 0.16053721
-0.5127912 0.33118394 0.11759247 -0.31659392 0.10202441 0.27517444 -0.46921298 -0.14445871
-0.45873743 -0.10032896 -0.23201224 -0.025272345 -0.17930396 0.36401746 -0.051422242 0.20216802
-0.24134533 -0.40132996 -0.43972576 0.4086045 0.18141367 0.41424826 0.25078017 0.008956287
-0.21399753 -0.48600292 0.0551442 0.014817363 0.28403106 -0.48221794 -0.10197764 -0.47575274
-0.4142296 0.46924284 -0.2703433 0.29435414 0.27154857 -0.11880455 -0.4915698 0.05181265
-0.44736153 0.18745497 0.13161333 0.03736855 0.041271288 0.12663026 -0.124503516 -0.10320318
0.04555531 -0.5057662 0.3222293 -0.4239348 0.2700972 0.14151604 0.23197834 0.41629466
0.3710101 -0.49142423 0.2988942 -0.30870932 0.18998493 0.1444271 0.13254276 -0.16826214
-0.24655008 -0.053544663 -0.0015005143 -0.33954057 -0.4267536 0.36225784 -0.05092274 0.21029224
0.42000413 -0.26765528 0.43964344 -0.38294256 0.044471163 0.36248434 0.13739906 -0.25350666
-0.18099025 -0.38457024 0.06251633 -0.48129 0.38757536 0.1381919 0.08403438 -0.23111372
0.28210798 0.4233029 -0.47443983 0.06668849 -0.4259585 0.42308125 -0.47891468 -0.4626043
-0.33660328 -0.12346462 0.1487157 0.07687748 -0.37168834 -0.493987 -0.45193425 -0.15461068
0.3835808 -0.48417243 0.08329259 -0.13157393 0.47545218 -0.44023934 0.17731267 0.2538819
-0.42920384 -0.20104386 0.058142763 -0.12959518 0.29095268 0.2763563 0.25233555 -0.46061775
0.420273 0.06403724 0.11045022 -0.057418447 0.33028254 0.13338926 0.21675994 -0.15520748
0.0052017495 0.2612324 0.21198636 0.36242425 0.15974954 0.10879683 0.04637999 -0.33131582
0.24511291 0.100494035 0.10051395 0.29717508 -0.34294748 0.108369246 0.064056866 -0.12421024
-0.14200364 0.40994975 -0.33527464 -0.4328019 0.3496651 0.2180104 0.33280745 0.3995841
0.32876346 0.07333849 -0.46458215 -0.29098064 -0.38052902 0.132011 0.34946376 -0.029570185
0.47217718 0.2803921 0.17392257 0.051938508 -0.24940954 0.36507174 0.50160384 -0.17447907
0.33875784 -0.21744496 0.31014305 -0.383179 0.16613308 -0.37364376 0.15903243 0.24924028
0.28034922 0.07465056 -0.02650221 0.1777673 -0.16097161 -0.3756591 -0.4708877 0.43235883
-0.39336982 -0.31201172 0.31268552 0.07016541 0.41640455 0.37455052 0.37504074 0.14906767
0.40889674 0.15033422 -0.18257102 -0.00968451 -0.06600237 0.14315227 -0.3189153 0.036809072
0.4325043 -0.07812668 -0.47368175 -0.41339648 0.1004526 -0.39691538 -0.43074828 -0.28148872
-0.12903103 -0.3937832 0.14700736 -0.48649782 0.08358017 0.36252928 0.36471337 0.15094142
-0.1698298 -0.35735202 -0.20926794 0.12287577 0.32502225 -0.301939 0.20699112 -0.32288596

actor.2.weight f4 [256, 256]
00000000: a584 53bc 6f6a c8bc 7d02 023d 1066 f6bc
00000010: 47f8 9d3c d178 bbbc a0f2 19bd be59 04bd
00000020: 8c0b 133d 0da9 713b 6e5f a03c a3de 2dbc
00000030: 927e 623d 6068 263d a233 69bc 490c 75bc
00000040: 7c6d d43c fcec 7fbd e4c2 ea3c dab0 80bd
00000050: 01c3 7abd 3657 5cbd a0a0 453d 3a80 1f3d
00000060: 0a0c 07bd c5e0 99bd 3eb3 85bc 6699 48bd
00000070: 68ad c93c 7cfe b03c 22ac 23bd c5c1 2f3d
00000080: 7cd5 1e3d a483 3ebd f9d7 403d c377 08bd
00000090: 70c4 d7bc cf3b 4b3d e063 da3c 43dd 27bc
000000a0: bc92 95bc 48b6 283d fa98 7ebd 01f5 a439
000000b0: cb53 5c3d a8f5 7fbc 542e 17bd a2ec d9bb
000000c0: c4a9 43bd f4f0 1d3d 5069 4c3b b652 683d
000000d0: c251 093d 467c 113d b12d c73c 9175 4e3d
000000e0: a198 573d 2201 3cbd ea20 613d ecb1 4fbd
000000f0: 97a9 bdbb f412 bb3c 9974 80bd c851 013c
00000100: c260 6e3d 599b f33c 0878 093d 84a7 38bc
00000110: 1e7d 933a c0dd f7ba f64a 633d 1537 02bd
00000120: dc0b c5bb ecdf 21bd 074e 233b f9aa 4abd
00000130: 532d 4f3d 9a62 32bd 4ee4 933c 32f7 203c
00000140: cd64 903c a025 6ebd 6044 46bd 19ef 2a3d
00000150: 8668 cf3c 2286 08bc dbaf 7f3c 1a2d 08bd
00000160: a463 143d 881f 813d 2618 c63c c812 82bc
00000170: 2a1d 61bd 4948 60bd 9abb 20bd aab1 edbc
00000180: f0aa b1bc e48c e9bc 6010 223c 53e9 1a3d
00000190: 27e6 26bd e162 06bd a559 46bd b23e 163d
000001a0: 9638 463d f9ad 94bd 8ad9 82bd 8ede 4ebd
000001b0: 169b 67bd febd 3d3d 9b30 c73c b6e3 8c3c
000001c0: 4785 0e3c 62d7 443d 9550 9dbd e877 243d
000001d0: b216 95bc 9566 5bbd 54bd 723d f08f de3b
000001e0: b80b 53bd 4561 03bd 2cfd fcbc 5e9d 0abc
000001f0: 1481 d5b9 b4da 96bd 8042 ddbb 8a7b 583d
00000200: f052 4abc 0caf 30bd 57ca 97bb 88a8 62bc
00000210: b818 243d 4126 4f3c 2e36 3a3b 00ac 25bb
00000220: 17bf 113b 374a 1e3d efb5 733c 88d1 27bd
00000230: 16e2 88bc c0d9 903c ad1e 833d 83be edbc
00000240: a03d 7d3c 22cb cbbb 9f84 243d d8a7 cc3c
00000250: bbaa 213a 95ad 253c d4d3 fcbc b00e e73b
00000260: 4bb0 083d 24d6 593d e099 fd3b 21e1 ae3c
00000270: 1080 593c 3e75 f4bb 75dd 7dbd 8520 353d
00000280: 8541 233d 8c8c 35bc 9b3c ff3b d58a 53bd
00000290: d684 663d 4a18 58bd 2001 03bb a098 bbbc
000002a0: 9d5c e5bc 24d4 d43c cc2f 5abd 9d54 a9bc
000002b0: 3063 2fbc 9274 103c 7917 f3bc 15bb aabc
000002c0: 4be0 6b3d ed53 04bd c221 0abd b257 413d
000002d0: 9cb3 29bd 001f d43a 6c94 14bd 0faa 713b
000002e0: 404e 00bd 50d5 ac3c cf42 3a3d 7e7e 47bd
000002f0: 7e92 1d3c 4d73 febc ae6c 27bd 4c68 233d
00000300: 886f 9c3c 3d9a 073b 3d3f 983c e007 523c
00000310: c43b c1bb 4a6f 16bd e24f 09bd f88e 0cbd
00000320: 7813 45bd 2059 c5bb a3de 173d b3d7 48bd
00000330: 22df 1abd bd9c 1ebd 543b 86bd 414f 9abc
00000340: 7c42 2e3d 58f3 8e3c f8e7 a0bc bce2 0bbd
00000350: 7aae 2b3d 8013 11bc 7cf1 bfbc e16f 3d3d
00000360: e03e 23bc bc67 18bd 284a 0fbd 2cd1 e83c
00000370: 6827 373c 78d2 13bd 53d0 5bbd 902c fa3c
00000380: d3da 76bd a663 95bc 54a4 a73c 7033 5bbd
00000390: f6bc 45bd 7108 513d 23f9 25ba ab29 5b3d
000003a0: c644 1c3b 58e3 4ebc 7eeb 443d a0cc 63bb
000003b0: 8f39 5bbd 9dc1 fb3c fc60 7dbd 28ee 0abd
000003c0: 354c 023d e037 5abd dca8 56bd 6323 bcbc
000003d0: 11f0 05bc 0992 90bc f2a2 123d fef2 85bd
000003e0: 433d 45bd 0c40 88bc 2e82 173c 403e 18bd
000003f0: 4855 b4bc ac0e ad3c 62de e6b9 8625 37bd
-0.012910043 -0.024464814 0.031740654 -0.030077964 0.019283427 -0.022884758 -0.0375849 -0.032312147
0.035899684 0.0036874444 0.019576754 -0.010612163 0.055296488 0.040626884 -0.014233502 -0.014956542
0.025931112 -0.062481865 0.028657384 -0.06283732 -0.061221126 -0.05379411 0.048248887 0.038940646
-0.032970466 -0.075135745 -0.01632082 -0.048974417 0.02461882 0.021605723 -0.03995908 0.042909402
0.038777813 -0.04651226 0.047080968 -0.03331734 -0.026338786 0.049617585 0.026658952 -0.010245624
-0.018258445 0.041189462 -0.06215761 0.0003146306 0.05379085 -0.015622534 -0.036909416 -0.0066505233
-0.047769323 0.03855987 0.00311907 0.056719504 0.033525236 0.035518907 0.02431378 0.05040509
0.052635793 -0.045899518 0.05496303 -0.05070679 -0.005788039 0.022836186 -0.06272239 0.007893033
0.058197744 0.029737161 0.033561736 -0.011270408 0.0011252498 -0.0018910691 0.05549141 -0.03179081
-0.0060133766 -0.03952019 0.0024918334 -0.04947946 0.050580334 -0.043551065 0.0180532 0.009824561
0.01762619 -0.05814135 -0.04840505 0.041731928 0.025318395 -0.008332761 0.015605892 -0.033246137
0.036227837 0.06304842 0.024181437 -0.015878096 -0.054959454 -0.054756436 -0.03924141 -0.02901538
-0.021687955 -0.028509565 0.009891599 0.03782017 -0.040746834 -0.032809142 -0.048425335 0.036680885
0.04839381 -0.07259745 -0.063891485 -0.050505213 -0.056544386 0.04632377 0.02431517 0.017198425
0.008698768 0.048056968 -0.076813854 0.040153414 -0.018199299 -0.053564627 0.05926259 0.006792061
-0.051524848 -0.032075185 -0.03088244 -0.008460371 -0.00040722697 -0.07365933 -0.006752312 0.05285219
-0.012348875 -0.043135688 -0.004632275 -0.013834126 0.040062636 0.012643398 0.0028413641 -0.0025279522
0.0022239143 0.038644996 0.014874919 -0.04097131 -0.016709369 0.017681956 0.06402335 -0.029021507
0.015456587 -0.0062192837 0.04016554 0.024982378 0.00061671034 0.010112186 -0.030862726 0.0070513114
0.03337125 0.053182736 0.0077392906 0.021347584 0.013275161 -0.0074602654 -0.061978776 0.044220466
0.039857406 -0.011080872 0.007789207 -0.051646072 0.056279026 -0.05275754 -0.0019989684 -0.022899926
-0.027998263 0.025980063 -0.05326824 -0.02067023 -0.0107048005 0.008816855 -0.029674279 -0.02084116
0.05758695 -0.0323066 -0.0337236 0.047202773 -0.041431054 0.0016183555 -0.03627436 0.0036875044
-0.031324625 0.02109781 0.04547387 -0.048704617 0.009617446 -0.03106084 -0.04087513 0.039894387
0.019096151 0.0020691298 0.018584842 0.01281926 -0.005897017 -0.036727227 -0.033523448 -0.034316033
-0.04811427 -0.0060225874 0.037077557 -0.04903383 -0.037810452 -0.038723696 -0.06554285 -0.01883662
0.042543873 0.01745002 -0.019641861 -0.034151778 0.04191444 -0.008854747 -0.023430578 0.046249274
-0.009963721 -0.037208304 -0.03498283 0.028420053 0.011178829 -0.03608939 -0.05366547 0.030538827
-0.06026728 -0.018235993 0.0204641 -0.05351585 -0.04827591 0.05103344 -0.0006331375 0.053506535
0.0023844703 -0.012627445 0.048076145 -0.0034759417 -0.05352169 0.03073197 -0.06186007 -0.03391853
0.031810958 -0.053275943 -0.05240713 -0.022966092 -0.008174912 -0.01764776 0.035799928 -0.06540488
-0.048154127 -0.016632102 0.009247346 -0.03716874 -0.022013322 0.02112516 -0.00044034707 -0.04471352

actor.2.bias f4 [256]
00000000: 507c f53c a5da bdbc 7f14 e23a d3ea bebc
00000010: 45de 07bd d346 fcbc 30c6 393d bc25 0ebd
00000020: 4303 91bc 9246 053d 1e07 2abd 8c62 bb3b
00000030: b155 33bd ba87 143d e828 1e3c 48a6 1cbd
00000040: 0b7c 37bc 8ec4 40bd 6630 afbc a74f 863b
00000050: 247e 7fbd a276 8c3b 2350 14bd a859 113d
00000060: 22ce 5f3c 1f96 8d3d 56c0 41bc 7b19 75bd
00000070: cd5f 513d 1050 ebbc b5fe b13b d424 be39
00000080: 9744 48bd 9704 0bbb 676c 443c 6f52 49bd
00000090: 3419 37bd c07e b2bc ac5a 77bd c7c3 63bb
000000a0: a177 9abc 8ac6 ec3b 678a 3b3d 0db1 913c
000000b0: 90bb a23d 9887 73bd 844d 5abc c548 103d
000000c0: ba86 443d 1048 803d eefb f1bc 8a3f 4a3d
000000d0: d665 4abc bdb8 58bd ee15 f6bc 85b2 4b3b
000000e0: 8ca1 f73c 97a1 8b3c 230a 6d3b e7a2 17bd
000000f0: 1839 543b 73cd 303c 30ee 493d 9a67 c9bb
00000100: 7e7c eb3c 1591 82bd 730f 893d 3b4a d43c
00000110: 422e 0cbd 9d4f f63c c36c 77bd 7efe 19bd
00000120: 903b 293c 4ecd 903d 17b1 f03c f5ee 12bd
00000130: 1214 8bbd 2592 903c 4609 383d f48e 41bd
00000140: 923b f8bb 19f0 713d bea0 1fbd 8873 413c
00000150: e124 8fb9 e621 913d a271 903c dc07 bebc
00000160: b714 c93c 7bbf 633d 8402 a53d 2b01 f7bc
00000170: fce7 fc3b 06a5 033c 33f4 0fbd 801b 0bbd
00000180: 1d92 2c3d 7314 ab3b b5f1 253d 3f35 01bc
00000190: bd2c dbbc ff29 e8bc 3aa4 d2bc 08fb 81bd
000001a0: 9ca9 91bc c491 1bbd 2f16 5dbb 829b 1e3d
000001b0: c917 283d f10e 753c fb8a 213d 3a76 d0bc
000001c0: 4c7f 5a3d 7ee4 8d3d 5e7b 153d 7a44 97bd
000001d0: 7b5d 043c 4ae6 08bd 2546 adbc 2c5b cd3c
000001e0: 1803 61bd fd5b 3bbd 1dde 67bd b8d2 53bc
000001f0: 0e51 43bd 0b8d 31bc 52b9 02bd 0fa0 033d
00000200: 5960 9f3d 7299 2d3c df22 cdbb 4810 2ebc
00000210: 7e6f 8fbc 8516 8ebc 1001 4d3d 55b3 46bc
00000220: 0427 5abd c463 a03c 4e59 84bd 979b c3bb
00000230: 3fbc 4c3d 0a40 5f3d 4b8f 30bd cb6b 423d
00000240: 7987 733d 47c3 1b3d b132 f03c 0e7b f83c
00000250: 1bd1 eabc 6e3a b0bc 9afd 47bd 3213 74bc
00000260: 681a 523d a1b3 37bd 9f89 2abd f640 f63c
00000270: fe7c 173d cc17 463c 2425 72bd 0efc 543d
00000280: 33a5 acbc 70e3 043c 8f89 44bd 0103 023d
00000290: 1164 75bc 7678 213c 34c2 183d a318 3a3c
000002a0: 13ec 403d f06d 1d3d cc4b 1fbd 14ed 94bc
000002b0: 642e 5f3c cfd7 323d b057 65bd 3831 533d
000002c0: 2d97 a2ba 74dc 253d 20a2 663c 279d 55bd
000002d0: 3efd b9bc 0f00 f0bc 6c0a 4aba 458f ae3c
000002e0: ce10 89bc efc8 66bd 5ca9 0ebb 78e7 1e3c
000002f0: db3e 2bbd bd01 1c3d f616 56bd 0b08 623d
00000300: 5683 63bd 9fe7 a33c 6cc7 213c 3781 573d
00000310: 9697 ac3d 80b4 62bc 9fe7 383d c2c9 babc
00000320: d965 9abc 09c6 953d 4aac ab3c b6aa 343d
00000330: 121c 6a3d 5142 be3c 6494 20bc 8d73 ea3c
00000340: 4f59 54bd ebb8 943d 4a90 c83c 809d 923c
00000350: af13 a43b ee33 82bc a1fa 0a3c a8e3 713d
00000360: 6cd4 07bd 3562 a03b 81c4 aebb fbc9 fd3b
00000370: dd4f 023d 21f3 f2bc 9d60 27bd 7088 603c
00000380: 9dfe 3e3c a12f a4bc 2cae 8abd 53ae f6bc
00000390: d139 313d b30f 88bb 5ff8 3f3d 9b66 803c
000003a0: 3595 55bd 14eb 1f3d dff0 04bd a09f f83a
000003b0: c12d c23c d604 eebc 6094 2b3c 13e5 b0bc
000003c0: 2f62 323d b3bc 0b3d fd88 343d a8ef 4b3d
000003d0: 1c27 0cbd 7b02 bd3c ee60 ebbc 98a9 d0bb
000003e0: 7144 28bd 6e00 a93d f979 9a3d 4dce 74bd
000003f0: 7875 52bd a138 2b3c 684c ed3c 4d21 09bd
0.029966503 -0.023175547 0.001724854 -0.023305332 -0.033170957 -0.03079549 0.045355022 -0.034703955
-0.01770175 0.032538004 -0.041510694 0.005718535 -0.043782894 0.03626225 0.0096533075 -0.038244516
-0.011199008 -0.04706245 -0.021385383 0.004098851 -0.062376156 0.004286603 -0.036209237 0.035485893
0.013659986 0.06913399 -0.011825642 -0.059838753 0.051116753 -0.0287247 0.005431975 0.00036267063
-0.048893537 -0.0021212453 0.011988736 -0.04915088 -0.04470177 -0.021788955 -0.060389206 -0.0034754144
-0.018855872 0.007225816 0.045786288 0.01778462 0.07945931 -0.059455484 -0.013324145 0.03522565
0.047980048 0.06263745 -0.029539075 0.049377 -0.012353381 -0.052910555 -0.030039754 0.0031081748
0.030228399 0.017044825 0.0036169372 -0.03702059 0.0032382663 0.01079117 0.04929942 -0.0061463835
0.028745886 -0.063753285 0.066924 0.025914302 -0.034223802 0.03006726 -0.060406458 -0.03759622
0.010329142 0.07070409 0.029381318 -0.03587242 -0.067909375 0.017647812 0.04493072 -0.04725547
-0.0075754607 0.059066866 -0.038971655 0.01180733 -0.00027302562 0.07086544 0.01763231 -0.023197107
0.02454601 0.055602532 0.080571204 -0.030151924 0.0077180844 0.00803495 -0.035144996 -0.033961773
0.042131532 0.0052209436 0.040513713 -0.00788623 -0.026754731 -0.028340338 -0.025713075 -0.063467085
-0.017781071 -0.03798081 -0.0033735146 0.038722523 0.04103831 0.014957176 0.039439183 -0.025447
0.053344056 0.06928347 0.036494605 -0.07386108 0.008078928 -0.033422746 -0.021151612 0.025067888
-0.05493459 -0.045742024 -0.056608308 -0.012928657 -0.04768472 -0.01083685 -0.031915016 0.032135066
0.07782049 0.010595666 -0.0062602605 -0.010623999 -0.017509218 -0.017344723 0.05004984 -0.012127717
-0.053259864 0.019578822 -0.06462346 -0.0059694755 0.049984213 0.05450443 -0.043105405 0.04746608
0.05945537 0.038028028 0.029321047 0.030332115 -0.028664162 -0.021512236 -0.048825838 -0.014897155
0.051294714 -0.04484904 -0.041635152 0.030060273 0.036984436 0.012090635 -0.05911745 0.05199819
-0.021074867 0.008110866 -0.04798275 0.031741146 -0.014977471 0.00985538 0.03729458 0.011358413
0.047100138 0.038434923 -0.038890645 -0.018179454 0.0136219 0.043662842 -0.05599183 0.05156061
-0.0012404673 0.040493444 0.01407674 -0.052151825 -0.022703763 -0.029296903 -0.00077072415 0.02130855
-0.016731646 -0.05634397 -0.0021768427 0.009698741 -0.04180799 0.038087595 -0.05226799 0.05518345
-0.055545174 0.020007906 0.009874206 0.052613463 0.0842735 -0.01383698 0.045142766 -0.022801284
-0.018847393 0.07313163 0.020956177 0.044108115 0.057155676 0.023224982 -0.009801004 0.028619552
-0.051842984 0.07261833 0.024482865 0.017897367 0.0050072293 -0.015893903 0.008482606 0.059055
-0.033161566 0.0048945197 -0.0053334837 0.007745025 0.031814445 -0.029656949 -0.040863622 0.013704404
0.011657384 -0.020042242 -0.06771502 -0.030112421 0.04326803 -0.004152262 0.046867725 0.015673926
-0.052144248 0.039042547 -0.032456275 0.001896847 0.023703458 -0.02905504 0.010472387 -0.021593606
0.043550666 0.034115504 0.044075955 0.0497891 -0.034216985 0.023072472 -0.028732743 -0.0063678734
-0.041080896 0.08252035 0.07542796 -0.059767056 -0.05138156 0.010450513 0.028967097 -0.033479024

actor.4.weight f4 [2, 256]
00000000: 6881 7b3c 0064 0a3d d579 5fbd ac77 b23d
00000010: 2de2 be3d e51b 193e cd84 d53d 55c2 b2bd
00000020: b547 093e 33b3 333d 86c2 373d 8541 9b3c
00000030: a52e 1a3d d7d6 4cbd f45b a93d e8bb f03c
00000040: 8a1b a3bd c466 d43b b287 42bc ccb6 f53d
00000050: 8a58 7ebd 6974 a23c a8f2 b6bb bc2b 203c
00000060: 6f1a b3bc 0c35 ed3d 4994 b6bd 7967 9abd
00000070: a2c0 103e 338f 8ebc 7c77 f63c 2179 0f3d
00000080: 6e4d 913d 6cb6 0e3d d874 85bd bf4b c4bd
00000090: 197c 803c ab69 10be 2f88 f4bd f9a4 413d
000000a0: 3d5d ae3d 8855 0abe 9e4d fb3c 16ca ef3d
000000b0: b584 f53d 35d8 92bd b48e 29bd ac4f cd3d
000000c0: 17b1 ca3d 2768 94bd 2098 cb3d 5755 0ebe
000000d0: 823b 12bd 6a76 8dbd a3c1 fcbd f257 fb3d
000000e0: 27f3 d03c 7a24 25bc d5d5 e73d 78f8 c93c
000000f0: eace 193e e90c 39bc 9979 13bd ed93 5b3d
00000100: 5de8 e9bd cb1c 993c d47e c63d d92f dfbd
00000110: 7974 963c a5db 3ebc c0f9 a13b 232b cc3d
00000120: d441 95bd 2b9d d53d 0e80 0f3c dc57 083d
00000130: f8ba b03c 943c 95bd c2cb 823d 3fc3 193d
00000140: db35 ab3d 25e4 96bd 18f1 e3b9 abed 0e3e
00000150: a0d8 0cbd a1ba 263e 9f14 ebbd c8de 4e3d
00000160: fae0 b03d 8d93 5c3d 2943 b03d 3371 013e
00000170: 3d01 6fbd 08a5 d53a 1a71 5e3d a07d 703c
00000180: 88a3 f03d cad0 dbbd 9913 ac3d 9f4d 48bd
00000190: 23bc 90bc 762a 24bd 4cfc 06bb c50f 443d
000001a0: 5a39 65bd f284 5c3d d75d cfbd 035d 95bd
000001b0: 6f53 a0bb 93a2 5a3d 14f0 8d3d 0c48 6dbd
000001c0: 89d7 7cbc caf4 d63d 8091 f33d c92d 193c
000001d0: 990d 813d 8db3 76bd c549 ddbd 294c 083e
000001e0: 3845 b43c 9f36 4abc 88cf f9bc f8ba 9d3c
000001f0: 2ca5 4b3d c772 45bb 6a20 283d c710 eebd
00000200: 0be9 e13d 8ae6 163e f6fa 323d f836 9cbc
00000210: d075 943b 07f3 46bd b8e6 a7bd db75 c8bc
00000220: 6d0d 033d 4e58 13bc a763 6bbd a030 dcbd
00000230: fa86 c83d e74b 033e 2f68 1ebb 0834 d4bd
00000240: 0b08 e53d e2be 9c3d 831e 063e 4c4c d63d
00000250: 1dd4 e8bd 9c3a d0bc 7cf7 aa3c c530 c83c
00000260: 8f6a 163e 9d73 7e3d bd34 17bd ea28 80bd
00000270: 16b7 3ebd 572d 3f3d ed06 47bd 1601 063e
00000280: 67d3 c63d d91a a7bc 0066 f6bd 9447 b1bc
00000290: bd74 853d 2bb8 613c 9362 b0bb aaf4 373d
000002a0: d9f7 e2bd 98ba 633c e37c b03d 2feb 3ebd
000002b0: fafb febd d0ff fcbc c055 d9ba c857 c4bc
000002c0: 2305 34bb 8cb9 0c3d e137 a4bd 2c16 143d
000002d0: 0637 d3bd 598e fe3c cd20 6dbc 46d7 05be
000002e0: 79d7 493d 4f90 123d 56c8 ba3d b476 d73d
000002f0: 22bf f3bc a060 863c 3e99 193d 1945 84bd
00000300: b7a6 c63c 7114 d73d 6862 51bd 1ef0 e6bd
00000310: 13ab 0b3e 00bb ad3b 38d2 b2bd 5853 7f3c
00000320: febe 14bd 0c5e 0a3e 9a1c 9b3d 6220 203e
00000330: e8ef 1d3d ef1d 083e d60a aabd aad0 eabd
00000340: debd 89bd ad97 773d 228c 61bd c62e 2e3d
00000350: fb97 dc3c 8f81 c5bc bf07 4d3d 033d d73d
00000360: 7438 233d d5c8 803d 3f16 573d 6a34 293d
00000370: 28e2 ab3d 8731 4c3d 6a69 a1bd aaac b53d
00000380: 4af4 95bd 86eb 383d e4fa 373c 737b 40bd
00000390: d8b7 77bd b6b6 a7bd e70e 96bd ee35 81bd
000003a0: 4302 3cbd ad7b 0f3e 7cd8 173d ab76 81bc
000003b0: d2df b53d 0615 4d3c 500a 8fbb 070e 2c3b
000003c0: 15d3 5a3d 1f35 133e bf3a f43d 4422 32bd
000003d0: be7d 6ebb 3d95 01bd d55e 033e c7e7 8e3c
000003e0: cd14 babc ff19 843d ab02 ad3d 4a72 aebd
000003f0: ceea afbd 9459 bd3d 5b2a 033e 4800 73bd
0.015350677 0.033786774 -0.054559547 0.08714232 0.09320483 0.14952047 0.1042572 -0.08728472
0.1340626 0.04387207 0.044863246 0.01895214 0.03764214 -0.050009575 0.08269492 0.029386476
-0.07964237 0.006481977 -0.011873173 0.11997756 -0.062096156 0.0198309 -0.005583126 0.009776052
-0.02186319 0.115823835 -0.08915002 -0.07539267 0.14135984 -0.017402267 0.030086271 0.035027627
0.07094847 0.03484194 -0.06516427 -0.0958476 0.015684174 -0.14102809 -0.119400375 0.04727647
0.085138775 -0.1350919 0.03067666 0.11708467 0.119882025 -0.071701445 -0.041395858 0.10024962
0.098970585 -0.07246428 0.09941125 -0.13899742 -0.035701282 -0.06907351 -0.12341621 0.122726336
0.02550657 -0.0100794975 0.11320082 0.024654612 0.15020338 -0.011294582 -0.036004636 0.05360787
-0.11421273 0.018690487 0.09692159 -0.10897798 0.018366085 -0.011649047 0.0049431026 0.09969165
-0.07287946 0.10430368 0.008758558 0.033286914 0.021573529 -0.07286945 0.0638652 0.037539717
0.083598815 -0.07367734 -0.00043476443 0.1395785 -0.034386277 0.16282131 -0.114785425 0.05050543
0.08636661 0.053851653 0.0860656 0.12640838 -0.05835079 0.0016299793 0.05430708 0.014678389
0.11749941 -0.10733183 0.084021755 -0.04890215 -0.017667836 -0.040079556 -0.0020597158 0.0478666
-0.055962898 0.053837724 -0.101253204 -0.07293131 -0.0048927586 0.0533777 0.06930557 -0.057930037
-0.015432247 0.104959086 0.11892986 0.009349295 0.06301422 -0.060229827 -0.10805086 0.13310303
0.022005662 -0.012342124 -0.030494466 0.019254193 0.049718067 -0.0030128227 0.041046537 -0.11624294
0.110307775 0.14736381 0.043696366 -0.01906918 0.004530646 -0.048571613 -0.08198303 -0.02447026
0.031995226 -0.008993221 -0.057468083 -0.10751462 0.0979137 0.12821923 -0.0024170985 -0.10361487
0.11183175 0.076535955 0.13097577 0.10463771 -0.113685824 -0.025418572 0.020869963 0.024437318
0.14689086 0.062121976 -0.03691553 -0.06257804 -0.046561323 0.0466741 -0.04859059 0.13086352
0.097082905 -0.020398544 -0.12031174 -0.021640576 0.06516407 0.013776819 -0.0053828447 0.044911064
-0.110824294 0.013899468 0.0861757 -0.046611007 -0.124504045 -0.0308837 -0.0016581342 -0.023967639
-0.0027468882 0.03435664 -0.080184706 0.036153957 -0.10313229 0.031073736 -0.014473152 -0.13070402
0.049277756 0.035782155 0.09120242 0.10520688 -0.029754225 0.016403496 0.03749966 -0.06458492
0.024249418 0.10501946 -0.05111924 -0.112762675 0.13639478 0.005301833 -0.08731502 0.015583836
-0.036314957 0.13512439 0.07573815 0.15637353 0.03855887 0.13292669 -0.08302848 -0.11465581
-0.067256674 0.060447384 -0.05506528 0.042525075 0.026927939 -0.02410963 0.050056215 0.10509684
0.03984876 0.06288306 0.05251145 0.04130975 0.08392745 0.04985192 -0.07881434 0.08870824
-0.07321985 0.045146488 0.011229251 -0.04699273 -0.06047806 -0.08189146 -0.07327061 -0.063091144
-0.045900594 0.14012022 0.03707169 -0.015803656 0.08880581 0.012517219 -0.004365243 0.0026253478
0.05342396 0.14375733 0.119252674 -0.04348971 -0.0036390866 -0.031636465 0.12829144 0.017444504
-0.022714997 0.06450271 0.084477745 -0.08517893 -0.08589707 0.09245601 0.12809126 -0.05932644

actor.4.bias f4 [2]
00000000: 5765 f13c c820 9bbc
0.029467268 -0.01893653
