algs/outputs/CartPole-v0/20230330-172109/models/ppo_critic.pt (torch, 271775 bytes, 5 tensors)

critic.0.weight f4 [256, 4]
0	0xbe989ce0	-0.29807186
1	0xbed5437c	-0.4165305
2	0xbc077e9a	-0.00826993
3	0xbcc01733	-0.023448562
4	0x3ebca97c	0.36848056
5	0xbe995f47	-0.29955503
6	0x3c8ce7e9	0.017200427
7	0xbe67ffec	-0.2265622
8	0xbd360a36	-0.04444333
9	0x3ebbf710	0.3671193
10	0x3be6cc0f	0.0070433686
11	0x3ed8ab2d	0.42318097
12	0xbea561ac	-0.3230108
13	0x3e813301	0.25234225
14	0xbe134201	-0.14380647
15	0xbe3df732	-0.18551329
16	0xbe7b91ae	-0.24567291
17	0x3e024628	0.12722075
18	0x3e49386d	0.19650431
19	0x3e43d9ae	0.19126007
20	0x3dcdd709	0.1005078
21	0xbe1616f8	-0.146572
22	0x3e731907	0.23740016
23	0x3e2551ef	0.16144536
24	0xbeec4675	-0.46147504
25	0xbee1b110	-0.440804
26	0xbf1200c9	-0.5703245
27	0xbee1d7e2	-0.44110018
28	0x3e5e843f	0.21730135
29	0x3d06459e	0.032781236
30	0xbe9f10fb	-0.31067643
31	0x3dbd4196	0.09241025
32	0x3e89bf12	0.26903588
33	0x3d4b576a	0.04964391
34	0xbeaa37d1	-0.3324571
35	0x3c0262b4	0.007958103
36	0x3d4ab567	0.049489405
37	0x3c66116a	0.014042238
38	0xbafa89e5	-0.0019114582
39	0x3ec90e1b	0.39268574
40	0x3ec2d61c	0.38053977
41	0x3ebdc6e3	0.370658
42	0xbce9c12e	-0.028534498
43	0x3eed5e11	0.4636083
44	0xbd3fc875	-0.04682203
45	0xbc30eda3	-0.0107988445
46	0x3e158daa	0.14604822
47	0xbdb11ebd	-0.08648441
48	0xbe955b47	-0.29171202
49	0x3de2dd67	0.110773854
50	0x3ed430b9	0.41443422
51	0xbde361c7	-0.11102634
52	0x3eb4310b	0.35193667
53	0xbe71d9d4	-0.23618251
54	0x3e044151	0.12915541
55	0x3de62e3f	0.112392895
56	0xbdd59596	-0.10428922
57	0x3e7f455c	0.24928802
58	0xbe2b59d2	-0.16733482
59	0xbd4aa1c8	-0.049470693
60	0x3d9dc954	0.07704416
61	0xbeedc5b6	-0.46439904
62	0xbc96fbd3	-0.018430626
63	0x3eb9eb4c	0.3631233
64	0xbd9a5af7	-0.075368814
65	0x3ea91ed7	0.3303134
66	0x3ebd4f8f	0.3697476
67	0x3ee514e5	0.44742504
68	0xbc9151ef	-0.017739264
69	0xbbf2a04a	-0.007404362
70	0xbe94cfa2	-0.2906466
71	0xbd17dc6a	-0.037075438
72	0xbe8fbbad	-0.28072873
73	0xbed8bb45	-0.42330375
74	0x3e6b9708	0.23006833
75	0xbf0636fc	-0.5242765
76	0xbed27eea	-0.41112453
77	0x3eeffffa	0.46874982
78	0x3dba870a	0.09107788
79	0x3dd89f5c	0.105772704
80	0xbe10ab55	-0.14127858
81	0x3e3fb004	0.18719488
82	0x3ee2b104	0.44275677
83	0x3edccfda	0.43127328
84	0xbe97ea19	-0.2967079
85	0xbd2b411c	-0.04181014
86	0x3e0e5725	0.1390043
87	0xbd9ab754	-0.07554498
88	0xbb3a4d4b	-0.0028427418
89	0xbe8b0d75	-0.27158704
90	0xbec2ddd4	-0.38059866
91	0x3e721157	0.23639427
92	0x3f00cb94	0.50310636
93	0x3d7e6bbb	0.06211446
94	0xbea7fccf	-0.32810065
95	0x3c913d00	0.017729282
96	0xbe829436	-0.255037
97	0x3e5e30d6	0.21698317
98	0xbe6e4441	-0.23268224
99	0xbe326f9b	-0.17425387
100	0xbe011a98	-0.12607801
101	0xbe653644	-0.22383982
102	0x3ea35f2f	0.31908557
103	0xbda14074	-0.078736216
104	0xbdc56848	-0.09639031
105	0xbd8247d6	-0.06361358
106	0xbed15208	-0.40882897
107	0x3e4b6828	0.19863951
108	0xbecff7b5	-0.40618673
109	0x3e95a491	0.29227117
110	0xbeb18d89	-0.34678295
111	0x3d00dad5	0.031458694
112	0xbdd464d0	-0.10370791
113	0xbdf65957	-0.12028759
114	0x3ef03c92	0.4692121
115	0xbc6425b7	-0.013925008
116	0xbe333028	-0.17498839
117	0xbe87aba2	-0.26498133
118	0xbe78bf05	-0.24291618
119	0x3d2508f7	0.040291753
120	0xbebc69d3	-0.36799487
121	0x3e7ecff8	0.24884021
122	0x3c59b043	0.013286653
123	0xbc55536c	-0.013020378
124	0xbea1096e	-0.31452507
125	0x3e9709d8	0.29499698
126	0xbe6eb743	-0.23312096
127	0x3eb792b7	0.35854122
128	0xbe6c8dae	-0.23100922
129	0xbdfa96ba	-0.1223578
130	0xbcb78a1c	-0.022404723
131	0xbd4e9da9	-0.050443325
132	0x3e41f884	0.18942457
133	0xbdea2bb0	-0.11434114
134	0x3f09b745	0.5379527
135	0xbe36c517	-0.17848621
136	0xbd98d332	-0.07462157
137	0xbe363c03	-0.1779633
138	0x3e97585a	0.29559594
139	0xbdccd6d5	-0.100019135
140	0xbe0d51a8	-0.1380068
141	0x3e814b16	0.252526
142	0xbcd4ed6c	-0.025992118
143	0xbd352bf1	-0.04423136
144	0xbe955333	-0.29165038
145	0xbdd5eecc	-0.104459375
146	0xbbd06975	-0.0063602277
147	0xbec19ca9	-0.37814835
148	0xbf1057b5	-0.5638383
149	0x3e7760ff	0.24158095
150	0x3e9e63f6	0.3093564
151	0x3df6c443	0.12049153
152	0x3df044d0	0.11731875
153	0x3c2dd904	0.010610823
154	0x3da571e4	0.080783635
155	0xbe8366c3	-0.25664338
156	0xbe2563f5	-0.16151412
157	0xbc05ed59	-0.008174264
158	0xbe8b09d1	-0.27155927
159	0xbeb14eee	-0.3463053
160	0xbe951836	-0.29120034
161	0xbe857f23	-0.2607356
162	0x3f0c0f73	0.54711074
163	0xbef12eac	-0.4710592
164	0xbda5ecea	-0.081018284
165	0x3d35e37d	0.044406403
166	0x3ea14511	0.31498006
167	0x3e0c23aa	0.1368548
168	0x3ed5d9b6	0.41767663
169	0x3e80c6cd	0.25151673
170	0xbee0bb3d	-0.4389285
171	0xbd85bf04	-0.06530574
172	0x3ea9c15f	0.33155343
173	0xbea3a22d	-0.31959668
174	0xbe3fcb64	-0.18729931
175	0xbe711164	-0.2354179
176	0x3eaf36de	0.34221548
177	0xbdc97009	-0.09835822
178	0x3d9d24ac	0.0767301
179	0x3e87b5ba	0.26505834
180	0xbed45f51	-0.4147897
181	0x3eb3e99b	0.35139164
182	0xbf1aa840	-0.6041298
183	0x3e0fef16	0.14056048
184	0xbe86e65d	-0.26347628
185	0x3d5e14ad	0.054218937
186	0x3e4d588f	0.20053314
187	0x3d132334	0.035922244
188	0x3eff2e08	0.49839807
189	0xbd4c273b	-0.0498421
190	0x3ec259c7	0.3795912
191	0x3dbf829c	0.09351084
192	0xbdb2e050	-0.087341905
193	0x3e35874d	0.17727394
194	0x3e5c2934	0.21500093
195	0x3f22ac1e	0.6354388
196	0xbea0c2bc	-0.3139857
197	0x3e841093	0.25793895
198	0x3f074803	0.52844256
199	0xbe658af6	-0.2241629
200	0x3e0110e1	0.12604095
201	0x3eba2362	0.3635512
202	0x3ec1a48c	0.37820852
203	0xbecb54ee	-0.39713234
204	0x3ea08eb1	0.31358865
205	0x3eba3a1e	0.36372465
206	0x3f072671	0.5279303
207	0xbe1a493d	-0.15067
208	0xbeba8e10	-0.3643651
209	0x3e999f79	0.3000448
210	0xbdd00990	-0.10158074
211	0x3f00e887	0.5035481
212	0xbe97ed36	-0.29673165
213	0xbead1043	-0.3380147
214	0x3e129fc0	0.14318752
215	0xbecff790	-0.40618563
216	0x3e99e75b	0.30059323
217	0xbeef9c6a	-0.46799022
218	0xbe9cc9af	-0.30622622
219	0xbe92333a	-0.28554708
220	0x3ee6fbd0	0.45113993
221	0x3da058e0	0.078294516
222	0x3e9b9f78	0.30395103
223	0xbc7e5e50	-0.015525416
224	0x3ecfcc52	0.40585572
225	0x3de05f81	0.10955716
226	0x3ebde001	0.37084964
227	0xbcb2b31e	-0.021813925
228	0x3e378a44	0.17923838
229	0xbeabafbb	-0.3353251
230	0xbe8747ca	-0.26421958
231	0x3e3318f8	0.17489994
232	0xbeda765c	-0.42668426
233	0x3e1ba498	0.15199506
234	0xbe637258	-0.22211587
235	0xbe85d0b1	-0.2613578
236	0x3e097632	0.13423994
237	0x3e0bfa80	0.13669777
238	0x3be8a4df	0.0070997323
239	0x3efb58d8	0.4909122
240	0x3ef212c0	0.4727993
241	0x3e784199	0.24243774
242	0x3e54e7a5	0.2079149
243	0x3d2cb7c6	0.042167448
244	0x3dd32be0	0.10311103
245	0x3eab681e	0.33477873
246	0x3ec6d4be	0.38834184
247	0x3f04a098	0.51807547
248	0xbe0c146a	-0.13679662
249	0xbe17e892	-0.14834812
250	0xbea0fa56	-0.3144099
251	0x3d686299	0.056734655
252	0xbe3b16ce	-0.18270418
253	0x3f05f42b	0.52325696
254	0xbefb0ffd	-0.49035636
255	0xbdc27fb3	-0.09497013

critic.0.bias f4 [256]
0	0x3ee989e1	0.45613006
1	0xbd838eaa	-0.064236954
2	0x3efd3c68	0.4946015
3	0x3ed3bc61	0.4135466
4	0x3ee843fd	0.4536437
5	0xbe8c6d90	-0.2742734
6	0xbe8f92d0	-0.28041697
7	0x3ee132ac	0.43983972
8	0x3e9da39e	0.30788893
9	0x3e78c993	0.24295644
10	0x3eaacbed	0.33358708
11	0x3e35d6c2	0.17757705
12	0x3f076c2a	0.5289942
13	0x3ed27e03	0.41111764
14	0xbe33f321	-0.17573215
15	0xbe04ebaa	-0.12980524
16	0x3e3ca242	0.18421271
17	0x3e322879	0.17398252
18	0xbe856769	-0.26055458
19	0xbdd04754	-0.10169855
20	0x3f0b3cb8	0.54389524
21	0x3eaf36d1	0.3422151
22	0xbd95c8bd	-0.073136784
23	0xbedb6fa5	-0.42858616
24	0x3ef0bac9	0.47017506
25	0x3f04df38	0.51903105
26	0xbd86b83b	-0.06578108
27	0xbd15573f	-0.036460157
28	0x3efaacb1	0.48959878
29	0xbe1b5eef	-0.15172933
30	0xbd056546	-0.032567285
31	0xbdbd3ea4	-0.092404634
32	0x3eb66b2e	0.35628647
33	0xbe07084c	-0.13186759
34	0x3f0f720f	0.56033415
35	0xbe4d4bfb	-0.20048515
36	0xbe83f303	-0.2577134
37	0x3d2a61fd	0.041597355
38	0x3eb03377	0.34414265
39	0x3eff0bac	0.49813592
40	0x3ed24b52	0.4107309
41	0x3d708260	0.058718085
42	0xbdbfe5ea	-0.093700245
43	0x3ed8cf3c	0.42345607
44	0x3eb7723f	0.3582935
45	0xbcc5adfe	-0.024130818
46	0x3f10d837	0.5657992
47	0xbdfc56b4	-0.12321225
48	0xbeb03eda	-0.34422952
49	0x3efb45eb	0.4907678
50	0x3f0a42ef	0.5400838
51	0xbf093ce3	-0.5360853
52	0xbe1e2e8f	-0.15447448
53	0xbd8fff32	-0.070310965
54	0xbec52ebd	-0.3851222
55	0xbed4782b	-0.4149793
56	0xbeba4f16	-0.36388463
57	0x3eb686f6	0.35649842
58	0xbea968a3	-0.33087644
59	0x3eef256e	0.46708244
60	0xbef27e7b	-0.47362122
61	0xbee37584	-0.44425595
62	0xbdb327fd	-0.087478615
63	0xbebd5bd7	-0.3698413
64	0x3ed89697	0.4230239
65	0x3b4076f8	0.0029367786
66	0xbe9d0ccb	-0.30673823
67	0xbedab983	-0.4271966
68	0xbe42b027	-0.1901251
69	0x3eb18d64	0.34678185
70	0x3eb00e5a	0.3438595
71	0xbe872af8	-0.2639997
72	0x3e99ec06	0.30062884
73	0xbec2655c	-0.37967956
74	0xbe54131e	-0.20710418
75	0xbecf34dc	-0.40470016
76	0xbcc15c1e	-0.023603495
77	0xbe10b6e4	-0.14132267
78	0x3f0834a6	0.53205335
79	0x3e2ba760	0.16763067
80	0x3eb47ec8	0.35252976
81	0xbeb74d37	-0.35801098
82	0xbde8bab4	-0.11363736
83	0x3f0aef3e	0.54271305
84	0x3f131c2c	0.5746486
85	0x3e71d936	0.23618016
86	0x3e9a16c8	0.30095506
87	0xbe442761	-0.19155647
88	0x3eec160a	0.46110564
89	0x3f00e0d8	0.50343084
90	0xbe69357d	-0.2277431
91	0x3ea1c6c6	0.31596965
92	0x3eaf7e2d	0.34275952
93	0xbe31590e	-0.17319128
94	0xbd435e2c	-0.04769723
95	0xbe70244e	-0.23451349
96	0xbe89bc48	-0.2690146
97	0x3ed2fe9f	0.41209885
98	0x3e4fda8b	0.20298211
99	0xbe87be67	-0.26512453
100	0x3ccb53a3	0.024820155
101	0xbe8fc127	-0.2807705
102	0xbdad3b5c	-0.084585875
103	0x3dd46b2f	0.10372006
104	0x3eb97864	0.36224663
105	0xbd5fe9a9	-0.054666195
106	0xbe9c3575	-0.30509534
107	0x3e2314bf	0.15925883
108	0x3ecd1fa8	0.40063214
109	0xbdbe06d9	-0.0927865
110	0x3e93e641	0.28886607
111	0xbef0ed7d	-0.4705619
112	0x3dc7f080	0.097626686
113	0xbecbc6ca	-0.39800102
114	0xbecdf687	-0.40227148
115	0xbed9b9f3	-0.4252468
116	0x3f01692f	0.5055112
117	0xbe8f311b	-0.27967152
118	0x3e6bc645	0.23024853
119	0x3edb6f95	0.42858568
120	0xbf03ded9	-0.51511914
121	0x3e7792cc	0.24177092
122	0xbed9af01	-0.4251633
123	0xbe9e1da6	-0.30881995
124	0xbd0f849c	-0.035038576
125	0x3ec13e88	0.3774302
126	0xbe32f205	-0.17475136
127	0x3f074b77	0.52849525
128	0xbe08b21a	-0.1334919
129	0xbe31764f	-0.17330287
130	0x3ede0bd5	0.43368402
131	0x3dee4519	0.11634273
132	0xbd8674d6	-0.065652534
133	0xbe68918d	-0.22711773
134	0xbdce9f51	-0.10088981
135	0xbd320593	-0.043462347
136	0x3f060a63	0.523596
137	0x3ebe8bb5	0.37215963
138	0x3eec9ecc	0.46214902
139	0x3ee97fe5	0.45605388
140	0xbdae69a1	-0.08516241
141	0x3ed33f7c	0.41259372
142	0xbec2c7e2	-0.38043123
143	0xbecdf488	-0.40225625
144	0x3f09f221	0.53885084
145	0xbe12db5e	-0.14341494
146	0x3ec1e425	0.37869373
147	0xbedf36fc	-0.43596637
148	0x3ede6488	0.43436074
149	0xbea4a1ee	-0.32154793
150	0x3e2adf99	0.16686858
151	0xbdfade38	-0.12249416
152	0xbe83bae9	-0.2572854
153	0x3f0df869	0.5545717
154	0xbed8a429	-0.42312744
155	0x3f0bc8a4	0.5460303
156	0xbd8c2376	-0.06842701
157	0xbdfed072	-0.124421015
158	0x3ea1485c	0.31500518
159	0xbe879178	-0.2647817
160	0xbd931ca4	-0.07183197
161	0x3e0f08de	0.13968226
162	0x3ef1fbcb	0.47262415
163	0xbea56933	-0.32306823
164	0x3e58e574	0.2118128
165	0x3ee71d88	0.45139718
166	0x3d9c3afa	0.076284364
167	0xbe7baa61	-0.24576713
168	0x3ed4f6ad	0.4159445
169	0xbdf2e845	-0.11860708
170	0xbe257b8a	-0.16160408
171	0x3efcaf93	0.49352702
172	0xbe952dd5	-0.2913653
173	0xbec1ccff	-0.37851712
174	0xbee6b256	-0.45057935
175	0xbe083d6d	-0.13304682
176	0x3e1beafa	0.15226355
177	0xbe897c37	-0.2685258
178	0x3ec937eb	0.39300475
179	0x3e1764a8	0.14784491
180	0xbe41e82f	-0.18936227
181	0x3e7c3473	0.24629383
182	0x3eb83ab0	0.35982275
183	0x3f0c42c5	0.5478938
184	0x3eb62055	0.35571542
185	0xbdc6c7f7	-0.09706109
186	0xbdb2a7f9	-0.087234445
187	0xbeb4ad19	-0.35288313
188	0x3f0e6d47	0.55635494
189	0x3e4559eb	0.19272582
190	0x3e944081	0.28955463
191	0x3dbf8bb7	0.0935282
192	0xbd07e597	-0.03317794
193	0xbccec2ba	-0.025239337
194	0xbe8bc147	-0.27295896
195	0xbeab4825	-0.3345348
196	0xbdcf7deb	-0.10131439
197	0x3eea5683	0.45769128
198	0x3eface2e	0.48985428
199	0xbee1e6bb	-0.44121346
200	0xbe9e099f	-0.30866715
201	0xbedc0e52	-0.42979676
202	0xbe1e1316	-0.15436968
203	0x3e1c1e3d	0.1524591
204	0x3d9f3f60	0.0777576
205	0xbd5de154	-0.054169968
206	0x3f0a9ded	0.54147226
207	0x3ea5bcb0	0.3237052
208	0xbe83066a	-0.2559083
209	0x3e65830c	0.22413272
210	0xbdcdd5d1	-0.10050548
211	0xbeb027e9	-0.3440545
212	0x3d43efb0	0.047836006
213	0x3c48878b	0.012239347
214	0xbe1d719d	-0.15375371
215	0xbedbc829	-0.42926148
216	0xbd87df93	-0.0663444
217	0xbe4bc8c8	-0.1990081
218	0xbed4f8e0	-0.41596127
219	0xbe7b35cd	-0.24532242
220	0xbe5f985b	-0.21835463
221	0xbd6650ef	-0.056229528
222	0x3ebd02f2	0.3691631
223	0xbe9b5845	-0.30340782
224	0xbe2e9d06	-0.17052087
225	0xbef71744	-0.48259938
226	0xbd77fddb	-0.06054483
227	0x3e612447	0.21986495
228	0x3ef707dc	0.48248184
229	0xbccd98b1	-0.025097223
230	0x3cd0d45f	0.025491891
231	0xbe7651aa	-0.2405459
232	0xbe7bf069	-0.24603428
233	0xbeb6f8ce	-0.35736698
234	0xbdba3405	-0.09091953
235	0x3e45ab96	0.19303736
236	0x3e2348bd	0.15945716
237	0xbd83920e	-0.06424342
238	0x3f104957	0.5636191
239	0xbec7fe8d	-0.39061394
240	0x3e8eb247	0.2787039
241	0xbcc4ca8f	-0.024022369
242	0xbde7427b	-0.11291977
243	0xbe721f35	-0.23644717
244	0xbe809b56	-0.25118512
245	0xbe9dc4e1	-0.3081427
246	0xbd930648	-0.071789324
247	0x3ef51142	0.4786473
248	0x3ef7c976	0.4839589
249	0xbe970743	-0.29497728
250	0xbe512e80	-0.20427895
251	0x3eb5b27a	0.3548773
252	0xbec611d2	-0.3868547
253	0x3ede268e	0.4338879
254	0xbde2788f	-0.11058151
255	0x3e45adc9	0.19304575

critic.2.weight f4 [256, 256]
0	0x3d9debb4	0.077109724
1	0xbe94ef15	-0.29088655
2	0x3cc22b5f	0.023702322
3	0x3deae249	0.11468942
4	0x3dca3717	0.09873789
5	0xbd932c08	-0.07186133
6	0xbd25dde5	-0.04049482
7	0x3ddc178f	0.10746681
8	0x3d0f7bda	0.035030223
9	0x3d6a43cf	0.057193574
10	0x3d07ffcf	0.033202942
11	0x3b6ffb71	0.0036618377
12	0x3de16519	0.11005611
13	0x3dadee36	0.08492701
14	0xbd60f850	-0.05492431
15	0x3d87fb2e	0.066397056
16	0x3ba1f4da	0.0049425187
17	0x3d8d7ea8	0.069089234
18	0xbca2cd4d	-0.019873286
19	0xbdb893f8	-0.09012598
20	0x3dbe92b5	0.09305326
21	0xbc163bb6	-0.00916951
22	0x3df2fc83	0.11864569
23	0xbe079bc3	-0.13243012
24	0x3cb63376	0.022241335
25	0x3d89cde8	0.067287266
26	0xbb2686be	-0.0025409902
27	0xbe02c9ff	-0.12772368
28	0x3da3a930	0.07991254
29	0xbd4b0199	-0.04956207
30	0xbda40cc6	-0.08010249
31	0xbe393769	-0.18087544
32	0x3c7ba278	0.01535856
33	0xbe42359b	-0.18965761
34	0x3cab7354	0.020929016
35	0x3c9dea0a	0.019276638
36	0xbd9dd68e	-0.07706939
37	0xbe2b08c0	-0.16702557
38	0x3ddb8f4e	0.107206926
39	0x3d9b108b	0.07571515
40	0x3d9d72bb	0.07687899
41	0x3d199452	0.037494965
42	0xbceb21ff	-0.028702734
43	0x3db6e01b	0.089294635
44	0x3de25a80	0.11052418
45	0xbde31176	-0.11087315
46	0x3dcaac7a	0.098961785
47	0xbd8fa151	-0.070131905
48	0xbe217d55	-0.15770467
49	0x3ce461f3	0.027878737
50	0x3c8f09e0	0.017460763
51	0xbc1ebd32	-0.009688662
52	0xbdf9768c	-0.12180814
53	0xbc436073	-0.011924851
54	0x3d441258	0.047869056
55	0xbd825bc9	-0.06365163
56	0xbdcb4adc	-0.09926388
57	0x3db42b82	0.08797361
58	0xbdf5c237	-0.11999934
59	0x3d8d6c18	0.06905383
60	0xbc524e88	-0.012836106
61	0xbe135c85	-0.14390762
62	0xbd237fe0	-0.039916873
63	0xbe0862c0	-0.1331892
64	0x3dfa7333	0.12229004
65	0xbdba8e04	-0.091091186
66	0x3d00f41c	0.0314828
67	0x3ae993d8	0.001782055
68	0xbdf8c7eb	-0.12147506
69	0x3dd595b9	0.10428948
70	0x3d9df7e9	0.07713301
71	0xbdb685ce	-0.0891224
72	0x3d594381	0.053042892
73	0xbde2e0fb	-0.11078068
74	0xbac5726b	-0.0015064006
75	0xbd8eb3f1	-0.06967915
76	0xbdaa1b54	-0.08305994
77	0xbd673b6b	-0.05645315
78	0x3c73414b	0.01484711
79	0x3da7dad0	0.08196032
80	0x3ceb7404	0.028741844
81	0x3bb19f35	0.0054205903
82	0xbcf4134f	-0.029794363
83	0x3dd3d5a6	0.103434846
84	0x3e0988ea	0.13431135
85	0x3deabfa0	0.11462331
86	0x3aeca1e4	0.0018053618
87	0xbdecd246	-0.11563544
88	0x3d0f583b	0.034996253
89	0x3dfb96a0	0.12284589
90	0xbd05dc31	-0.032680694
91	0x3d867eac	0.065671295
92	0x3bb46dc6	0.00550625
93	0xbd9bfd05	-0.07616619
94	0xbdbc115c	-0.091829985
95	0xbe02d10b	-0.12775056
96	0xbe0a082f	-0.13479684
97	0x3d995b37	0.07488101
98	0x3d3e1a67	0.046411898
99	0xbe32ed65	-0.17473371
100	0x3d8e89cd	0.06959877
101	0xbe2bd182	-0.1677914
102	0x3c8166df	0.015796123
103	0x3d7d262d	0.061803985
104	0x3cb66704	0.022265919
105	0xbdc61f39	-0.09673924
106	0xbd9304b0	-0.071786284
107	0x3d586274	0.052828267
108	0x3dab7d40	0.08373499
109	0xbc3723f5	-0.011178006
110	0x3d562604	0.05228235
111	0xbe027331	-0.12739255
112	0xbc8ff875	-0.017574528
113	0xba4dd7de	-0.0007852296
114	0xbd9076e8	-0.070539296
115	0xbd5810eb	-0.05275051
116	0x3d1982c4	0.037478223
117	0xbe103e65	-0.14086302
118	0x3d17c403	0.037052166
119	0x3ce1b23d	0.027550811
120	0x3c2608c9	0.0101339305
121	0xbb0a41fa	-0.0021096454
122	0xbd010b6b	-0.03150503
123	0xbdd3f82c	-0.103500694
124	0xbdac44f3	-0.084115885
125	0x3d4c66e6	0.04990282
126	0xbd1a3f81	-0.03765822
127	0x3d48b834	0.049003795
128	0xbd6b96ca	-0.05751685
129	0x3b82b2a4	0.003988581
130	0x3dc50777	0.096205644
131	0x3d0edacf	0.03487664
132	0xbe014b7f	-0.12626456
133	0x3c9b03ca	0.018922705
134	0xbdb1f310	-0.086889386
135	0xbdc4d1ad	-0.09610305
136	0x3d98b002	0.07455446
137	0x3ab43f84	0.0013751839
138	0x3d957d1f	0.072992556
139	0x3dd3c7a4	0.10340813
140	0xbc43655a	-0.01192602
141	0x3d4c777a	0.04991863
142	0xbd9f5fd1	-0.077819474
143	0xbd6c3d09	-0.057675395
144	0x3d476ddf	0.048688766
145	0xbdfef7f4	-0.12449637
146	0xbcc89ac5	-0.024487862
147	0xbdd1e62e	-0.102489814
148	0x3d71ca4f	0.059030827
149	0xbe31506c	-0.17315835
150	0xbbf9bd04	-0.0076214094
151	0x3cbe15fa	0.023203839
152	0xbd909527	-0.070596986
153	0x3dc45b59	0.09587736
154	0xbd697d0e	-0.057004027
155	0x3d87eade	0.06636594
156	0xbdce631d	-0.10077498
157	0xbda4d01e	-0.08047508
158	0x3d0ed905	0.034874935
159	0xbdd375da	-0.10325213
160	0xbd8d9e3e	-0.06914948
161	0x3d5b2f83	0.053512108
162	0x3dbde949	0.09273011
163	0xbde95638	-0.11393398
164	0x3da2afb6	0.079436705
165	0x3cdbaa2b	0.02681454
166	0x3d67ef0f	0.05662447
167	0xbd927360	-0.07150912
168	0x3d854304	0.06506923
169	0x398a640b	0.0002639595
170	0xbe2ff19f	-0.17182015
171	0x3b987529	0.0046526385
172	0xbcf841ef	-0.030304877
173	0xbdbcad5b	-0.092127524
174	0x3d4a6616	0.049413763
175	0xbe16badd	-0.1471972
176	0x3cd432b0	0.025903076
177	0xbd1e18a4	-0.038597718
178	0x3d804077	0.06262296
179	0x3d8ce693	0.06879916
180	0xbdf9df68	-0.122008145
181	0x3df29013	0.11843886
182	0x3dce4234	0.10071221
183	0x3d65d2a6	0.056109093
184	0x3d63036c	0.055423185
185	0xbdba8784	-0.09107879
186	0xbdc10fb7	-0.094268255
187	0x3d95bc06	0.07311253
188	0x3dd806a7	0.10548144
189	0x3dc1088c	0.09425458
190	0x3cb5ab16	0.022176307
191	0xbc8e6f3e	-0.017387029
192	0x3d30d4d2	0.04317171
193	0xbb41f0f6	-0.0029593087
194	0x3d21f315	0.03953846
195	0x3ccbf5f8	0.02489756
196	0xbd126d5e	-0.035748832
197	0x3cb32636	0.021868806
198	0x3dcc8923	0.09987094
199	0xbe61f372	-0.22065523
200	0xbdb91072	-0.0903634
201	0xbdf5955a	-0.11991377
202	0xbd233478	-0.03984496
203	0x3d8afba1	0.06786276
204	0x3cf9d449	0.030496733
205	0xbe3ac638	-0.18239677
206	0x3d71b32e	0.05900877
207	0x3dc3e764	0.09565619
208	0xbc897d1a	-0.016783286
209	0x3d6b9f2f	0.057524856
210	0xbc5319e5	-0.012884592
211	0x3d0236fc	0.03179072
212	0x3ceb05cd	0.02868929
213	0xbe065487	-0.13118182
214	0xbdb679f4	-0.089099795
215	0xbe00a45e	-0.12562701
216	0xbe91c4e6	-0.28470534
217	0xbc0d00c0	-0.008606136
218	0xbd33f787	-0.043937232
219	0xbe8b43ea	-0.27200252
220	0xbd533704	-0.05156614
221	0xbd9cd37f	-0.07657527
222	0x3d3eae39	0.04655287
223	0xbcff5038	-0.031166181
224	0xbd421a28	-0.047388226
225	0xbdbaf4f9	-0.09128756
226	0xba9ece4d	-0.0012115926
227	0xbc00907d	-0.007846949
228	0x3e0a50e2	0.13507417
229	0xbe1230c8	-0.14276421
230	0xbd344544	-0.04401137
231	0xbe5183ca	-0.2046043
232	0xbdd4bedf	-0.10387968
233	0x3d463b6e	0.04839652
234	0xbe17ae47	-0.14812575
235	0xbcc0cdce	-0.023535635
236	0x3d7c8aa9	0.061655674
237	0xbdb5b27a	-0.08871932
238	0x3d6171a8	0.05504003
239	0xbe0eaa01	-0.13932039
240	0x3d1dfd90	0.038571894
241	0x3e0ece8f	0.13945983
242	0xbe52bb10	-0.20579171
243	0xbdcfc41a	-0.10144825
244	0xbdfd972f	-0.123823516
245	0xbda5c011	-0.080932744
246	0xbe3bede2	-0.18352464
247	0x3d94239d	0.07233355
248	0x3c62bb99	0.013838672
249	0xb97bb68e	-0.00024005232
250	0xbd85f855	-0.06541506
251	0x3dc36c7e	0.095421776
252	0xbddb11cd	-0.106967546
253	0x3d984560	0.07435107
254	0xbe0a2ff3	-0.13494854
255	0x3c694a68	0.014238931

critic.2.bias f4 [256]
0	0x3d82471c	0.06361219
1	0x3e0d3d0a	0.13792816
2	0xbd8eb23e	-0.06967591
3	0x3bde7509	0.006788854
4	0x3d2789b8	0.040902823
5	0x3d62c0d9	0.055359695
6	0x3d733b8e	0.059382968
7	0x3e0c1bcc	0.13682479
8	0x3d9603ab	0.07324918
9	0xbce0f1fa	-0.027459133
10	0xbd3f4f41	-0.04670644
11	0x3da060e9	0.07830984
12	0x3d9dd1b8	0.07706016
13	0xbcdf2628	-0.027239874
14	0x3d15f9cf	0.03661519
15	0x3d909ceb	0.0706118
16	0x3d0e2006	0.03469851
17	0xbcdba114	-0.026810206
18	0x3c3e1dd6	0.011603793
19	0xbd65e2f8	-0.056124657
20	0x3de39098	0.111115634
21	0xba1f5400	-0.00060778856
22	0x3c8e16b8	0.017344818
23	0x3d05c584	0.03265907
24	0xbd5cf4d7	-0.053944435
25	0xbcb2fe2e	-0.021849718
26	0x3e00c9ee	0.1257703
27	0x3e05fb0b	0.13084047
28	0xbd0a1ee9	-0.033720884
29	0x3e0f6b15	0.14005692
30	0x3d10d2f2	0.035357423
31	0x3e079c4d	0.13243218
32	0xbc27aa3a	-0.010233456
33	0x3db7f88c	0.089829534
34	0xbc8d8098	-0.017273232
35	0xbd7e54ec	-0.062092707
36	0x3ded1799	0.115767665
37	0x3e0fb218	0.14032781
38	0xbd42b64e	-0.04753714
39	0xbd1fcf70	-0.039016187
40	0x3dd89079	0.10574431
41	0xbd6cceb5	-0.05781432
42	0xbdc7a23e	-0.09747742
43	0xbc1c115b	-0.009525622
44	0x3d802b79	0.06258292
45	0xbd030add	-0.031992782
46	0x3d64e0f2	0.055878587
47	0x3ddbbdb4	0.107295424
48	0x3cb2cecc	0.021827124
49	0x3db09a85	0.08623222
50	0x3d17b730	0.037039936
51	0x3ce50881	0.027958157
52	0xbd857828	-0.065170586
53	0x3da6f372	0.08151902
54	0x3d43fee5	0.04785051
55	0x3d7577b3	0.059928607
56	0x3b73d68b	0.0037206735
57	0x3d300bdc	0.04298006
58	0x3dfdaf89	0.12386996
59	0xbd69109b	-0.0569006
60	0xbd34afcb	-0.04411296
61	0x3d8ac928	0.06776649
62	0x3e0643fa	0.13111869
63	0x3cf98553	0.030459082
64	0x3ccb1c46	0.024793755
65	0xbd9cd386	-0.076575324
66	0x3e0566fb	0.13027565
67	0x3dde1da4	0.10845497
68	0xbb64e654	-0.0034927325
69	0x3dc97743	0.098372005
70	0x3e049924	0.12949044
71	0x3dfafac8	0.12254864
72	0x3c2508ea	0.010072926
73	0x3d12b18b	0.03581385
74	0x3deb5a0a	0.11491783
75	0xbcbb5270	-0.022866458
76	0x3dd96016	0.1061403
77	0xbd7ecd6a	-0.062207617
78	0x3dcd9392	0.100379124
79	0xbccbf983	-0.02489925
80	0x3d0d88d2	0.03455431
81	0x3dd44034	0.10363808
82	0xbda32ed0	-0.07967913
83	0x3de32366	0.11090736
84	0x3e1c2739	0.15249337
85	0xbd7775ad	-0.06041496
86	0xbb35a6c1	-0.0027717801
87	0x3e02703a	0.12738124
88	0xbd52ba97	-0.051447477
89	0x3d29b244	0.041429773
90	0x3dd8b5ae	0.10581528
91	0xbd1aa1db	-0.037752014
92	0xbc2e2e08	-0.010631092
93	0x3d5191d4	0.051164463
94	0x3d403b84	0.04693176
95	0x3cf04a94	0.029332437
96	0x3dc5003f	0.096191876
97	0x3cfad8fc	0.030621044
98	0xbbbbc320	-0.005730048
99	0x3d2f168b	0.042746108
100	0x3db8d1db	0.09024402
101	0x3dd6ca66	0.10487823
102	0x3d8e5fc7	0.06951862
103	0xbcdaad04	-0.026693828
104	0x3c945be3	0.018110221
105	0xbbc5a581	-0.0060316925
106	0xbcf232fb	-0.029565325
107	0xbd54d8b4	-0.051964477
108	0x3de0245a	0.109444335
109	0x3d127f8e	0.035766177
110	0xbd3eea30	-0.046610057
111	0x3d4f0a9c	0.050547227
112	0x3df845ae	0.12122665
113	0xbc2f6761	-0.0107058
114	0x3d0ad684	0.033895984
115	0xbc64f282	-0.013973834
116	0xbd0d80f3	-0.034546804
117	0x3cf16834	0.029468633
118	0x3d7f3c98	0.062313646
119	0x3d50e738	0.051001757
120	0xbd8103ec	-0.06299576
121	0xbc45d915	-0.012075682
122	0xbd4821e4	-0.048860446
123	0x3d5fc572	0.054631658
124	0x3dbbf832	0.09178199
125	0xbda3b53b	-0.07993551
126	0x3daea31d	0.08527205
127	0x3db0dce7	0.08635884
128	0x3d9aa2dc	0.07550594
129	0xbd0de396	-0.03464087
130	0xbbda7e40	-0.006667882
131	0x3d125cd0	0.035733044
132	0x3da8f514	0.0824987
133	0xbd75dbf9	-0.060024235
134	0x3ca4e914	0.020130672
135	0xbd9c93c2	-0.0764537
136	0x3e03a26a	0.12854925
137	0xbcce6c4a	-0.02519812
138	0x3d82386a	0.063584164
139	0xbd854c6f	-0.06508719
140	0xbd6e2e19	-0.05814943
141	0xb9206324	-0.00015295722
142	0x3c166c5b	0.009181107
143	0xbdbed985	-0.09318832
144	0x3de6a92b	0.11262735
145	0xbd5232f5	-0.051318128
146	0x3d996485	0.07489876
147	0x3d30659b	0.04306565
148	0xbb83a2e4	-0.004017221
149	0x3df7f3e7	0.121070676
150	0xbd8415e3	-0.06449487
151	0x3d00a599	0.031407926
152	0x3d4ec02c	0.050476238
153	0x3d5dcf46	0.05415275
154	0x3a05f229	0.0005109632
155	0xbdb64a0c	-0.08900842
156	0x3e081c9d	0.13292165
157	0xbbf232d0	-0.007391311
158	0x3de77608	0.113018095
159	0x3e032930	0.1280868
160	0x3da71b3b	0.08159491
161	0x3dd4da32	0.1039318
162	0x3d0162c4	0.03158833
163	0x3c5d0180	0.013489127
164	0x3dd63d56	0.10460918
165	0x3d272e82	0.040815838
166	0x3dd7c6f1	0.10535992
167	0x3cc8b25e	0.024499115
168	0xbd4787de	-0.048713557
169	0x3cead635	0.028666595
170	0xbd4cdb2e	-0.050013714
171	0x3cd40e90	0.02588585
172	0xbe006409	-0.1253816
173	0x3d31b756	0.043387733
174	0x3df9e2fa	0.122014955
175	0x3d276252	0.04086525
176	0x3ddc72ec	0.10764107
177	0x3c1c6602	0.009545805
178	0x3e02a8b3	0.12759666
179	0x3d176dc3	0.03696991
180	0xbd06dfa9	-0.032928143
181	0x3bc891a3	0.006120877
182	0x3d80497a	0.062640145
183	0xbc25bbb0	-0.010115549
184	0xbd6ca61c	-0.0577756
185	0xbd7095b0	-0.058736503
186	0x3cb9ea4c	0.02269473
187	0xbd7084f9	-0.058720563
188	0xbcc25c58	-0.023725674
189	0x3d4d4f55	0.050124485
190	0x3d0336c5	0.032034654
191	0x3db3c9d5	0.08778731
192	0xbc7b461a	-0.015336538
193	0x3d354c4b	0.04426221
194	0xbd83c17b	-0.06433388
195	0x3dd4992e	0.10380779
196	0x3d23b39b	0.039966207
197	0xbd7ac557	-0.061223354
198	0x3d122a6b	0.035684984
199	0x3b9dfff7	0.004821773
200	0xbd23012c	-0.03979604
201	0x3d713d03	0.058896076
202	0x3d05e80d	0.032692004
203	0x3dd304c9	0.10303647
204	0x3c37dd10	0.011222139
205	0x3e0a689a	0.13516465
206	0xbcf7740f	-0.030206708
207	0x3d072043	0.03298975
208	0x3d94bbe3	0.07262399
209	0x3df48907	0.119401984
210	0x3e14db41	0.14536764
211	0xbd0a96e1	-0.033835296
212	0xbdfb7c52	-0.122795716
213	0x3defc16d	0.11706815
214	0xbc9df80c	-0.019283317
215	0xbde9aa8d	-0.11409483
216	0x3e143a62	0.14475396
217	0x3ccaa872	0.024738524
218	0x3d85fbfa	0.06542201
219	0x3d204c49	0.03913525
220	0x3bd6b611	0.0065524657
221	0xbd982796	-0.074294254
222	0xbd9da12d	-0.076967575
223	0x3e174c29	0.14775147
224	0x3e0f7b29	0.14011826
225	0xbd796903	-0.060891163
226	0xbd75ba98	-0.059992403
227	0x3dd979c4	0.10618928
228	0xbd6bcc4c	-0.05756788
229	0x3e16adaf	0.14714693
230	0x3dd20910	0.10255635
231	0xbd3d6e44	-0.046247736
232	0x3dc6ddfd	0.0971031
233	0xbcace013	-0.02110294
234	0x3d528709	0.05139831
235	0x39c545af	0.00037626686
236	0xbd2ee514	-0.042698935
237	0xbd53e13b	-0.05172847
238	0x3d6c6bd4	0.05772002
239	0x3c340b33	0.010988998
240	0x3ddb2da9	0.10702068
241	0xbc730603	-0.014832976
242	0x3dd30f0c	0.10305604
243	0xbd2de8ea	-0.042458452
244	0x3dad837b	0.084723435
245	0x3d00a676	0.03140875
246	0x3dfeacc8	0.12435299
247	0x3d09b73b	0.033622008
248	0x3df5c519	0.12000484
249	0xbd4109f2	-0.047128625
250	0x3bee7220	0.0072767884
251	0xbd942fcd	-0.0723568
252	0xbde19c9e	-0.110162005
253	0x3db48bb9	0.088157125
254	0xbcbfbdaf	-0.023405878
255	0xbd186748	-0.03720787

critic.4.weight f4 [1, 256]
0	0x3dc63a21	0.09679056
1	0x3dc646d8	0.09681481
2	0xbd30692c	-0.04306905
3	0xbc6686ee	-0.014070256
4	0xbd422a53	-0.047403645
5	0x3c8a76af	0.016902296
6	0x3d97d9bc	0.074145764
7	0x3d9b6d31	0.07589186
8	0x3d943650	0.07236922
9	0xbcdb988c	-0.026806138
10	0xbccba1a2	-0.024857346
11	0x3dc5bd6c	0.0965527
12	0x3dbed713	0.09318366
13	0xbd86d7fc	-0.065841645
14	0xbd49a24f	-0.049227055
15	0x3d818d8d	0.06325827
16	0xbd1b51d5	-0.037919838
17	0x3b5bff4b	0.0033568915
18	0xbd28d61d	-0.04121982
19	0xbc3306a3	-0.010926875
20	0x3d03ff84	0.0322261
21	0xbd237d54	-0.039914444
22	0xbce2e0c7	-0.027695073
23	0xbcb7594d	-0.02238145
24	0xb9b9a934	-0.00035412016
25	0xbd4531b3	-0.0481431
26	0x3d1b7656	0.03795465
27	0x3d127400	0.035755157
28	0xbc9c40e3	-0.01907391
29	0x3d685ebd	0.056730974
30	0xbd68f69d	-0.056875814
31	0x3d697bc1	0.057002787
32	0xbd32bf52	-0.04363949
33	0x3d2965be	0.041356795
34	0xbd38c85d	-0.045112956
35	0x3b1487e4	0.0022664005
36	0x3dc60e68	0.096707165
37	0x3d916466	0.070992276
38	0xbcaf392a	-0.021389563
39	0xbbb85416	-0.005625258
40	0x3dba09b1	0.0908388
41	0xbbbdd575	-0.0057932683
42	0xbdac5c77	-0.08416074
43	0xbbb97fe6	-0.0056609986
44	0x3dca4dde	0.09878133
45	0xba7b7e7c	-0.0009593738
46	0x3d83a866	0.06428604
47	0x3db18083	0.0866709
48	0xbd53740e	-0.05162435
49	0x3dbbf538	0.09177631
50	0x3d133476	0.035938703
51	0xbca81541	-0.020517947
52	0xbd06fe8d	-0.032957602
53	0x3db90c3c	0.09035537
54	0xbc15cafb	-0.009142633
55	0x3da975d9	0.08274431
56	0xbd94c887	-0.0726481
57	0xbc88d508	-0.016703144
58	0x3d8fee56	0.07027881
59	0xbd224c5c	-0.039623603
60	0x3ccbd2d8	0.024880812
61	0x3d13b9bd	0.036065806
62	0x3d34f715	0.04418095
63	0xbbf86540	-0.0075804293
64	0xbd562a15	-0.052286226
65	0xbd8654f3	-0.065591715
66	0x3d8d7ff2	0.06909169
67	0x3dc2dd04	0.09514812
68	0xbc9d0eb1	-0.019172044
69	0x3d8064c7	0.06269222
70	0x3d496d9c	0.049176797
71	0x3d9f5e19	0.077816196
72	0xbd4c774a	-0.04991845
73	0xbc526e7c	-0.012843724
74	0x3dd629dc	0.10457203
75	0xbce06978	-0.027394041
76	0x3dd43e4a	0.10363443
77	0x3b1f8f00	0.002434671
78	0x3d0f0175	0.0349135
79	0xbd18b297	-0.03727969
80	0xbce1630b	-0.027513048
81	0x3dc2e1ee	0.09515749
82	0xbd825ea5	-0.06365708
83	0x3d9b2c4d	0.07576809
84	0x3daf38e5	0.08555774
85	0xbc5e6a36	-0.013575127
86	0xbd4570c3	-0.04820324
87	0x3d990752	0.07472099
88	0xbd5f073c	-0.05445026
89	0xbcaf021e	-0.021363314
90	0x3d8cee43	0.06881382
91	0xbd526112	-0.051362105
92	0xbd53d97e	-0.05172109
93	0x3d77572a	0.06038586
94	0x3da8cd49	0.0824228
95	0xbc38f300	-0.011288404
96	0x3d8cba62	0.06871487
97	0xbcbe0658	-0.023196384
98	0x3d38d1df	0.045122024
99	0xbd0e0a65	-0.03467788
100	0x3d14d9c2	0.036340483
101	0x3dd1ae22	0.10238291
102	0x3d7c156d	0.06154387
103	0xbd683004	-0.056686416
104	0x3c02c28d	0.007980955
105	0x3a67999f	0.0008834842
106	0xbda53c23	-0.08068111
107	0xbc6b8c77	-0.014376751
108	0x3d202b4e	0.0391038
109	0x3db78ad1	0.08962024
110	0x3d1335f1	0.035940114
111	0xbcd1ed2c	-0.025625788
112	0x3dbe08fe	0.09279059
113	0xbd05d300	-0.03267193
114	0xbad0619d	-0.0015898232
115	0xbd16dca1	-0.036831502
116	0xbd558e77	-0.05213782
117	0xbc55933b	-0.013035591
118	0x3da89540	0.08231592
119	0x3dd2fa3d	0.103016354
120	0xbc433a83	-0.011915806
121	0xbd724c35	-0.059154708
122	0xbcdd62cd	-0.027024651
123	0xbd31e597	-0.043431845
124	0x3d623274	0.055223897
125	0xbc6a56dd	-0.014302936
126	0x3da3a86d	0.07991109
127	0x3d8c8fef	0.06863391
128	0x3d3e55a9	0.04646841
129	0xbc6bd6d8	-0.014394484
130	0xbcdaa818	-0.026691481
131	0x3dc9afac	0.0984796
132	0x3db0a4db	0.08625194
133	0xbd026b09	-0.031840358
134	0xbc295eff	-0.01033759
135	0xbd42243b	-0.047397833
136	0x3d9c62e9	0.07636053
137	0xbd52bbae	-0.051448517
138	0x3d821124	0.063509256
139	0xbd84c4f1	-0.06482876
140	0xbcbd92b7	-0.023141248
141	0xbd29ab45	-0.0414231
142	0xbbed4010	-0.007240303
143	0xbd759b22	-0.0599624
144	0x3dc70697	0.09718054
145	0xbd7d4f73	-0.061843347
146	0x3d522ef3	0.051314306
147	0x3d9958df	0.07487654
148	0xbd1086c6	-0.03528478
149	0x3d828ed8	0.063749015
150	0xbdb0a745	-0.08625654
151	0x3db639a2	0.08897711
152	0x3dbdbff5	0.092651285
153	0x3dc9d07e	0.0985422
154	0xbc165fec	-0.009178143
155	0xbdb87c90	-0.090081334
156	0x3d7757e6	0.06038656
157	0xbd56b688	-0.05242017
158	0x3d8f5138	0.06997913
159	0x3d90779d	0.070540644
160	0x3db369c5	0.08760408
161	0x3d89b8fa	0.067247346
162	0x3cc702df	0.024293361
163	0x3d56d6e2	0.052451022
164	0x3d413002	0.047164924
165	0xbd370946	-0.04468658
166	0x3da4d41d	0.0804827
167	0xbced748a	-0.028986234
168	0xbcbcd788	-0.023051992
169	0xbd59ad90	-0.053144038
170	0x3d3e9d11	0.04653651
171	0xbd3bad58	-0.04581961
172	0xbdedbecf	-0.116086595
173	0xbd5229e2	-0.051309474
174	0x3d6ef0da	0.058335163
175	0x3da0c6db	0.07850429
176	0x3dc40b09	0.09572417
177	0xbcf3eecb	-0.029776951
178	0x3d9ddc03	0.077079795
179	0xbc95f25d	-0.018304044
180	0xbc215df7	-0.009849063
181	0xbb5c22c4	-0.0033590058
182	0x3db89f17	0.09014719
183	0x3c110840	0.008852065
184	0x3d22d2a0	0.03975165
185	0xbd3c0a4a	-0.04590825
186	0xbcf122fc	-0.029435627
187	0xbdb5a383	-0.08869078
188	0xbcabbfe2	-0.02096552
189	0x3dd3e5ed	0.10346589
190	0x3d4185dc	0.0472468
191	0x3d95b67a	0.07310195
192	0xbcc854af	-0.024454443
193	0x3dba0e19	0.0908472
194	0xbd6a5269	-0.0572075
195	0x3d895c5e	0.06707071
196	0x3dc8c8c7	0.0980392
197	0xbd0545f9	-0.032537434
198	0x3d2e90ab	0.042618435
199	0xbd0f7c25	-0.035030503
200	0xbd4bc9c4	-0.049752966
201	0x3d1b2c3b	0.03788398
202	0x3ce8de0f	0.028426198
203	0x3d5ef60d	0.05443387
204	0xbd402f5a	-0.046920158
205	0x3dab7ab8	0.08373016
206	0xbc79dc6b	-0.015250306
207	0x3d9ef445	0.077614345
208	0x3c24bef6	0.010055294
209	0x3d6b9865	0.05751838
210	0x3d3405e0	0.043950915
211	0xbdda5c5b	-0.10662147
212	0xbe0e544b	-0.13899343
213	0x3d5fcbd3	0.05463774
214	0xbd018e81	-0.031630043
215	0xbdefe091	-0.117127545
216	0x3da85a2e	0.082203254
217	0x3d5a3f1b	0.05328284
218	0x3d5ff786	0.054679416
219	0x3d18219d	0.03714143
220	0x3bc49f8e	0.0060004657
221	0xbd8c98e5	-0.068651
222	0xbda7f1e2	-0.08200432
223	0x3d8cfd63	0.06884267
224	0x3d6166c4	0.055029646
225	0x3c8fa66d	0.017535413
226	0xbd6c7609	-0.057729755
227	0x3d8c5590	0.06852257
228	0xbd49254c	-0.049107835
229	0x3d574502	0.052556045
230	0x3db53930	0.08848798
231	0xb9e93400	-0.00044479966
232	0x3d888892	0.06666674
233	0xbab640ff	-0.0013904868
234	0x3dc8d7ff	0.09806823
235	0xbac12e70	-0.0014738571
236	0xbd369cc8	-0.044583112
237	0xbd13aa9d	-0.03605138
238	0x3cca4db1	0.02469525
239	0xbcc3344f	-0.023828654
240	0x3d5dab92	0.0541187
241	0xbc1c4e49	-0.009540149
242	0x3db17abb	0.08665987
243	0xbcf8a978	-0.030354246
244	0x3d5559b5	0.052087504
245	0x3d88917e	0.066683754
246	0x3d9ee3bc	0.07758281
247	0x3c88aa62	0.016682807
248	0x3d59908a	0.05311636
249	0x3d526544	0.051366106
250	0xbd7f2a0a	-0.06229595
251	0xbdc0f909	-0.094225
252	0xbd773d7d	-0.060361374
253	0x3d0a15b2	0.033712097
254	0xbd2456dd	-0.0401219
255	0xbc291858	-0.010320745
