algs/outputs/CartPole-v0/20230330-172459/models/ppo_critic.pt (torch, 271775 bytes, 5 tensors)

critic.0.weight f4 [256, 4]
00000000: b25c 04be adc2 d4be 1526 2c3e a4f3 003d
00000010: a437 1e3e 4644 c43e eb41 de3d d2c4 1d3e
00000020: 0320 09be f2d2 d23e 4239 d33e d72c 8b3e
00000030: 9ea2 a53e 5018 7dbd 29cd e1bd 90af e5be
00000040: df64 433e 78fd 863e a111 afbd 9fe2 e7bd
00000050: ca70 e33e 9dcb b53e 383d d1be fed8 4cbe
00000060: d314 53be 116a d4be c0e5 ae3d 708e 263a
00000070: 9755 013f bdab 07bc b4fb 91be 9408 dabe
00000080: 817c e3be 9778 4c3d c011 dd3e be5e 333c
00000090: 7933 153f 3ea3 36bc eff6 d13e 2264 74bc
000000a0: 681a 063d cd2a 73be ed83 17be e7a7 aabe
000000b0: faa4 c23c ed6d 923e 55e0 9c3d 8265 ba3e
000000c0: 384d 1bbe 019c c83e de30 cfbe 6188 953e
000000d0: a3e2 353e 1993 9abe df61 46be c9ba b2be
000000e0: 4143 04bf 4a1e b63e 0124 9abe 3a3d d73d
000000f0: ce3a 833e 4933 663d 43db b4be 3c27 503e
00000100: 734f 6ebd ea41 673e c9c9 50be 8ab1 de3e
00000110: 2d6e cdbe 0f4f 04be 02f6 bdbc 857c 5b3d
00000120: 1930 13be 4dc5 a5bd 8fde 46bf 0d27 19be
00000130: f673 49be f2ef ab3d 3bc3 013f 1ebb c0be
00000140: 356e dcbe c3df aa3e 65b6 713e b540 be3e
00000150: 77e4 c3bc 52ad 183e bc80 f4be dafe fbbe
00000160: baa2 32bd f65f 31be a613 d8be 0124 be3e
00000170: ca0b cf3e 4d5f bdbe 3da4 97be 4732 563d
00000180: 5e7f 613e 5874 5f3e 94b5 ec3e aff0 e4bd
00000190: 4eb4 dd3e 4e77 cc3e 0895 c1be e92f 9e3e
000001a0: 890a e83d 68cc e03d 2ecb c3be 4c21 94be
000001b0: 2fce d1be 7ecc e43e b04d e6be 275b 14be
000001c0: 9d57 a0be 9ae2 fb3d b331 adbe 8e47 643e
000001d0: 560d 0e3e 0263 5abc b5ae d2bd fbff 6a3e
000001e0: df1b 123e 6ae8 2dbd 6304 8bbe 0ae0 49bc
000001f0: c0f3 0fbf f95f 8c3e a274 7fbe 7d6e 2f3e
00000200: e40d 8f3d b2c0 1ebe 4ed0 6c3e 37d9 2cbe
00000210: 049c b8be 1079 683e ae38 363e 8838 9c3e
00000220: aff1 2b3e 72db c43e 8874 c1be dea3 b93e
00000230: 3817 463e 5480 963e 4537 603e faa3 99be
00000240: 0d76 dc3e d13f 95be ceaf a0be e023 89be
00000250: 6e59 62be bb81 2f3c dcf7 c73e 0be3 903e
00000260: 6b1c 7f3c 0a85 d1bd 4415 9ebd 4121 bebd
00000270: 6580 103e b7a4 16bb 79fb 1ebe 38f2 a1bc
00000280: 491f 733d cdc3 633d fc95 00bf 715c 62be
00000290: 6233 143f cefd 953c 4b4e b93d 3f4f c2be
000002a0: 8cf6 163e 0686 b53d 4bd8 a4be 5a32 ee3e
000002b0: 7f18 34bd 79ad f1bd 430d 65be b7ff 023e
000002c0: 5945 a43e fab3 a43e 1a8b 833e 320f 6a3e
000002d0: 67d6 813d d3d1 8abe d6c1 f53d 6001 9b3e
000002e0: b553 a13e 3ee6 ea3e bfa8 6ebe 39c7 b23e
000002f0: 3c4e b7be 2c13 3b3e b354 cebe abd3 e0bc
00000300: 4afb 263e 41ec b3bd 2097 82be 7b3f 06be
00000310: a403 03be 1a0f 2f3d 6892 893e 54ac bd3e
00000320: ff0a 873e 0abc ef3d c5fb 10be 70b4 87be
00000330: 8a08 41be 6c99 4b3e d1bb e23e 4ed4 b83e
00000340: aa6e 8cbd fa49 db3d 6434 8b3d 5179 37be
00000350: 0444 523d 567d ab3e 7ffa 0fbf 9385 cb3d
00000360: 8f1b e23e 87f6 c43d 13ed 313e 9f6d b63e
00000370: 036b a8be 7d98 ee3e 101a 5d3e 3af6 bfbe
00000380: f842 e5be 5a40 2dbe 6985 0dbd f125 c43e
00000390: 1dd3 ae3d 1034 79be cbdc 3a3e 3f82 a7bd
000003a0: 3412 983e 4865 76be 6db9 1ebe 9006 a7be
000003b0: 6836 1fbe 1f1e b63d 77aa 6fbe 1797 5fbe
000003c0: 0496 963d 7acf 92be a84c b83d e03d 593e
000003d0: ff96 90be 9612 273c c3ff 863e c7de d33d
000003e0: 29af 14be d40c e4bd ed63 d43d c4bb 7bbe
000003f0: 86d2 73be 6430 823e 6f55 783e ac88 ee3b
-0.12925985 -0.41554776 0.16811402 0.031482354 0.15450913 0.38333338 0.108524166 0.15407112
-0.13391118 0.41176564 0.41254622 0.27182648 0.3235063 -0.061790764 -0.11025459 -0.44860506
0.19081448 0.26365256 -0.08548284 -0.113225214 0.4442199 0.35506907 -0.4086702 -0.20004651
-0.20613413 -0.41487172 0.08539915 0.00063536223 0.50521225 -0.008280692 -0.28512347 -0.4258467
-0.44430926 0.04991969 0.43177605 0.010947881 0.58281666 -0.011147318 0.41008708 -0.014916452
0.032740027 -0.23746796 -0.1479642 -0.33331224 0.023760308 0.28599492 0.076599754 0.3640557
-0.15166175 0.39181522 -0.4046697 0.2920561 0.17762236 -0.30190352 -0.19373272 -0.3490813
-0.5166512 0.35569984 -0.30105594 0.10509725 0.25630802 0.056201253 -0.35323533 0.20327467
-0.058181237 0.22583738 -0.20389475 0.43494827 -0.4012312 -0.12920783 -0.023188595 0.053585548
-0.14373817 -0.08094273 -0.7768335 -0.14956303 -0.19673142 0.08395375 0.50688523 -0.3764276
-0.4305283 0.33373842 0.23604734 0.37158743 -0.023912651 0.14909866 -0.47754467 -0.49217874
-0.04361222 -0.17321762 -0.4220249 0.37136844 0.40438682 -0.3698677 -0.2961749 0.052294042
0.22021243 0.21821725 0.46232283 -0.11178719 0.43301624 0.39934772 -0.37809014 0.30895928
0.113301344 0.109764874 -0.3824095 -0.28931653 -0.40977618 0.44687265 -0.44981146 -0.14487897
-0.31316844 0.1229908 -0.3382698 0.22292921 0.13872275 -0.013329269 -0.10287229 0.22949211
0.14268444 -0.042457975 -0.27151784 -0.0123214815 -0.5623131 0.2741697 -0.24946836 0.17131992
0.06985071 -0.15503195 0.23126337 -0.16879736 -0.3605653 0.22702432 0.17795059 0.3051188
0.16791414 0.38448673 -0.3778422 0.36257833 0.19344795 0.29394782 0.21896084 -0.30007917
0.43058816 -0.2915025 -0.31384128 -0.26785183 -0.22104427 0.0107120825 0.3905629 0.2829822
0.01557074 -0.10230453 -0.077189 -0.092836864 0.14111479 -0.0022986361 -0.15525617 -0.01976882
0.059356008 0.055606652 -0.5022886 -0.22105576 0.57890904 0.0183095 0.09048136 -0.37951085
0.14742488 0.088634536 -0.32196268 0.4652279 -0.043968674 -0.118006654 -0.2236834 0.1279286
0.32084158 0.3216856 0.25692064 0.22857359 0.06339722 -0.27113208 0.11999862 0.30274487
0.31509176 0.45878786 -0.23306559 0.3491762 -0.35801876 0.18269032 -0.40298995 -0.027444681
0.16306797 -0.08785296 -0.25505924 -0.13110153 -0.12794358 0.04273901 0.26869512 0.37045538
0.26375577 0.117057875 -0.14158542 -0.2650485 -0.18850914 0.19882745 0.44283918 0.36099476
-0.06857045 0.10707469 0.06797102 -0.17917372 0.051334396 0.3349406 -0.562416 0.09937587
0.4416165 0.09617334 0.17375593 0.3563051 -0.32894143 0.46600714 0.21591973 -0.37492543
-0.44777656 -0.1691908 -0.034551058 0.38310197 0.085363604 -0.24336267 0.18248288 -0.08179139
0.29701388 -0.24062073 -0.15500422 -0.32622194 -0.15548098 0.08892464 -0.23404871 -0.2183498
0.07352832 -0.28673917 0.08998996 0.2121501 -0.282402 0.010197302 0.26367006 0.10345226
-0.14519943 -0.11135259 0.10370622 -0.24583346 -0.23810777 0.25427544 0.2425134 0.007279476

critic.0.bias f4 [256]
00000000: fe3f bb3e d3ef 463e 2393 17be 5e17 c0be
00000010: 2e8b ff3e 998b f7bd 0dc5 9f3e 8df8 8dbe
00000020: b935 bebe 1ff0 b7bc e223 d73e 37b4 0c3f
00000030: bf35 fd3e 1014 023f db30 b5be 2250 923e
00000040: 9a6f f43e 8788 74be 75de c1bd 2da2 123e
00000050: 7343 5dbd ee7f 67bd 3c6d 8a3e 030c f53e
00000060: 11c7 d6be 2782 4bbd adb7 e23e 0f00 a23e
00000070: bc40 a83e 7b4f ab3e ead4 053f 8f45 98be
00000080: f835 053e 0415 073f 579b 00bf e5eb 923e
00000090: 3bba 44bc ee53 003f 734c 0e3e 4ab0 e3bc
000000a0: 91e9 b5bc a93a 36be 2b7d b2be fb03 99be
000000b0: 8226 3cbd c865 c1bd 6bdb c1bd 85a8 7dbd
000000c0: a25d 8b3e 1cac d73e 8e63 b6be 961c c83e
000000d0: 8b61 043f dd75 433e 2fbf d7bd 9b56 afbd
000000e0: fce9 e7be c2c9 7d3e 45ac d93e 2374 723e
000000f0: 6588 113d 6340 093f 7515 11be ef56 f63d
00000100: cb22 a83e 8957 773e f8b1 ad3e d722 f13e
00000110: d646 4a3e 4aff ebbe b7e8 7f3e 6edc 813e
00000120: 92c3 c03e f55b e03e 59cb c63e b559 063f
00000130: 5632 b5be 999d cabe d13f 34bd c2b6 153d
00000140: b263 043e dce4 95bd 1367 ccbd baa5 81bd
00000150: d7ce cc3e 7c2c 943e e473 dabd 1282 bf3d
00000160: b1c1 00bf 0050 bcbe 83f6 35be 043e e8be
00000170: bc67 19be 0055 7d3e 1616 b2be 7ce8 da3e
00000180: 8e23 c8be 6b3d afbc a1fe 4b3e 84cd a9bc
00000190: e7f3 2ebe efaa 58bd 86c4 0abe a680 3bbc
000001a0: 74d2 c4bd b2b8 3abe 9646 e73d 62d0 b2be
000001b0: 61fe c83e d358 c7bc b79b 8ebd 0d77 7cbe
000001c0: 4789 0b3f afa7 2ebe 8b7f 43bd 13ff 043f
000001d0: 684f c7be 094d eebd 51eb e13d ddcf b43e
000001e0: 4bad 993e ed59 aebb 952b b7bb d6b2 fb3e
000001f0: dbae ae3e ad31 f1bc 3727 063f 4434 c83d
00000200: d49b f8be 64f9 283e 4aa7 7f3e 7839 6d3e
00000210: 3d61 ccbb c973 e1be 4144 83be eec3 033f
00000220: f6dc a1be 1213 c6bc 04d1 233c 13f5 013f
00000230: cc3c 86be 212b 8dbd 2f93 9d3e a9bb f9be
00000240: 7960 cdbe 496e c8bd 4913 95be 833b aabc
00000250: 078c 01be 4983 c4bd 7dac 55be 9b12 3cbd
00000260: 7191 ba3e 1e24 6dbe 7423 543c 2084 4ebc
00000270: 2eeb ce3e b94a 6f3e f2e9 003f 9460 933e
00000280: 2a6c 0d3f f553 da3e b305 893e b0ef 0a3f
00000290: c4cb 07bf 1ed0 d9bd 6596 e6be ac94 a73d
000002a0: d032 f7be ba2e 0dbe b835 803e eb35 11be
000002b0: 71de 8a3e 52e1 de3e 33e5 cd3e 1344 0a3f
000002c0: 3d09 943e 837c 3b3e 595a ea3c 9d77 b5be
000002d0: 9668 133f baa8 03bf c5a9 18be 8608 16be
000002e0: 02ce 06bf 18cc aabc c27c 97bc 08c1 fb3e
000002f0: 2fa5 c23e 6aa3 b0bd 8c75 96be dfbe 88bc
00000300: 7920 a0be 34c7 0bbe 7ecd 89be 62b4 85be
00000310: 34f5 bebe 6196 f1bd bcb5 eb3d baff 0fbc
00000320: 2df9 3ebe 2eb6 ca3e c638 02be d7f5 073f
00000330: d9c5 79be dc6b d73e 01b6 c0be 2a8a 053f
00000340: fd83 523e 87ab b83e 3e95 e4be 30d0 ddbe
00000350: 9efb 033f 54c3 683e 1b70 afbe 80f0 c63e
00000360: a50a dd3e 37ac 713e d9db 95bc 6ee3 56bc
00000370: 8ffd e73e 6272 d3be 9870 973e 375b aa3d
00000380: 4bd8 32be c7d2 3c3c 2245 173e 4d5d b3be
00000390: 44c9 9d3a 1e07 ddbe 3837 80be 14f3 30bd
000003a0: 02c8 e63e 4824 9a3e 3c52 2f3e bbf5 863d
000003b0: d478 b7be 3d50 083f 14b0 b23e 7f09 80bd
000003c0: 8fb6 d6bd 8550 c03e 4891 94bd 4aa1 83bd
000003d0: 44f7 e6be 30cf 563e 95ad 01be ea1f 0d3f
000003e0: 99e2 c33e 0893 13be 0296 1bbd 1a63 083d
000003f0: 3292 a33e 1ea9 1dbe 2dfc 88be 912b 0e3f
0.3657226 0.19427423 -0.14802222 -0.37517828 0.49910873 -0.12087173 0.31205025 -0.27728692
-0.37150362 -0.022453366 0.42019564 0.54962486 0.49455068 0.5081186 -0.35388836 0.2857676
0.47741395 -0.23880206 -0.094662584 0.14319678 -0.054019403 -0.056518488 0.27036464 0.47860727
-0.4194875 -0.04968467 0.44280759 0.3164067 0.32861888 0.33459076 0.52278006 -0.2974057
0.13008869 0.5276644 -0.5023703 0.28695598 -0.012007291 0.50128067 0.1389635 -0.027794022
-0.0222061 -0.17795815 -0.3486112 -0.2988585 -0.04593516 -0.09443241 -0.09465679 -0.06192829
0.27219874 0.42123497 -0.3562283 0.3908431 0.5171134 0.1908793 -0.10534512 -0.085614406
-0.45295703 0.24783996 0.42514244 0.23677115 0.035530467 0.5361387 -0.14168341 0.120283
0.32839045 0.24154486 0.33924842 0.47096893 0.19753584 -0.46093208 0.24991117 0.25363487
0.37649208 0.43820158 0.38827017 0.5248063 -0.35389966 -0.39573362 -0.044006173 0.036551245
0.12928656 -0.07319042 -0.09980597 -0.06330438 0.40001556 0.2894019 -0.10666636 0.09350981
-0.5029555 -0.36779785 -0.17769818 -0.45359814 -0.14980978 0.24739456 -0.34782475 0.42755497
-0.39089626 -0.021391591 0.19921352 -0.02072788 -0.17085229 -0.05289739 -0.1355153 -0.011444246
-0.09610453 -0.18234518 0.1129276 -0.34924608 0.39256576 -0.024334347 -0.06963294 -0.2465479
0.54506344 -0.17056154 -0.047729056 0.5195171 -0.3892777 -0.11635787 0.11031211 0.35314837
0.30015025 -0.0053207786 -0.005589912 0.49159878 0.3411778 -0.029442633 0.5240359 0.09775594
-0.48556387 0.16501385 0.2496616 0.23166454 -0.0062371776 -0.4403365 -0.2563801 0.5147084
-0.31613892 -0.024179015 0.009998564 0.5076458 -0.2621826 -0.06892992 0.30776355 -0.48775986
-0.40112665 -0.0978666 -0.29116276 -0.02078033 -0.12651072 -0.09595353 -0.2086658 -0.04591618
0.36439088 -0.23158309 0.012947906 -0.012604743 0.40413803 0.23368348 0.5035697 0.2878462
0.5524317 0.4264218 0.2676216 0.54271984 -0.53045297 -0.10635398 -0.45036617 0.08182654
-0.48280954 -0.13787356 0.25040984 -0.14180724 0.27122834 0.4353128 0.40213928 0.54010123
0.28913298 0.18309216 0.028607534 -0.3544282 0.5758146 -0.5142933 -0.14908512 -0.14651689
-0.5265809 -0.020849273 -0.018492106 0.4917071 0.3801665 -0.08624919 -0.29386556 -0.016692577
-0.31274775 -0.13650209 -0.2691459 -0.26114184 -0.3729645 -0.117962606 0.115092725 -0.008788997
-0.1864974 0.39592117 -0.1271697 0.53109497 -0.24391879 0.42074478 -0.37638858 0.52163947
0.20558162 0.36068365 -0.44645113 -0.43322897 0.5155581 0.22730762 -0.34265217 0.38855362
0.43172184 0.23600851 -0.018293308 -0.013115747 0.45310637 -0.41298205 0.2957809 0.08318179
-0.17465322 0.011524863 0.14772466 -0.3503212 0.0012038131 -0.43169492 -0.2504213 -0.043200567
0.4507447 0.30105805 0.17121214 0.06589838 -0.35834372 0.53247434 0.34899962 -0.06251811
-0.10484039 0.37561432 -0.07254273 -0.06427248 -0.45110524 0.20977473 -0.12663873 0.5512682
0.38258818 -0.14411557 -0.037984855 0.033297636 0.31947476 -0.15396544 -0.26754895 0.5553523

critic.2.weight f4 [256, 256]
00000000: a01e 64bd 1ed5 34bd 8ce1 0dbd f4a1 613d
00000010: f407 943c 4246 033d b8e3 683c 820b 19bd
00000020: 4c83 29bd b8fa 92bc 6268 1a3d f4eb da3c
00000030: 70a0 49bc 2e1e 713d 6406 943c 3ec6 4f3d
00000040: c8b9 173c b807 0a3d 749e 69bd c840 593d
00000050: 148c 70bd 904b 3abc b6e8 1cbd c418 84bc
00000060: 40ce f2ba 001d 12bd 50ba fabc 202a cebc
00000070: 9611 7e3d c262 32bd baf3 033d f01d 29bc
00000080: 507a 133c 6027 29bb 18a3 a63c ce53 28bd
00000090: 10d9 7f3c 60bf c0bb 981a 363c 0eb0 473d
000000a0: f47b 0f3d 5c46 bb3c a420 8f3c 7075 e03c
000000b0: 0099 de39 4eb9 23bd ec69 81bc a812 5d3c
000000c0: 6868 3ebd 5c47 52bd 6ad0 5bbd 0000 2a37
000000d0: 4243 7bbd 94c8 133d 76e7 47bd 903f 37bc
000000e0: 6252 6b3d 68b5 34bc 4a47 1e3d c8a7 54bc
000000f0: 3cc9 01bd ace0 fbbc 2022 3bbc 42bc 3fbd
00000100: c62c 5dbd 3454 c23c 8025 55bc e4e7 8bbc
00000110: 5c6c f03c acf9 63bd 5850 1c3d 104a c73b
00000120: 362e 57bd 66bc 303d c4c9 46bd 8c49 a73c
00000130: 846f 933c a407 5bbd 6ebf 57bd 7418 553d
00000140: d621 1f3d ec70 f53c c037 993c 9074 8c3c
00000150: 287f c9bc 38f6 7bbc 70d9 7c3c a081 293d
00000160: 4c5a f83c 48d3 ca3c ac16 e9bc 14c6 95bc
00000170: d207 3e3d c05c 6a3d c0eb 163c a0f9 66bc
00000180: 4091 d53c d090 f73c 80ba 633a 4274 0cbd
00000190: f46e 0c3d bebc 29bd e47d 84bc e4c8 66bd
000001a0: e03a 60bc 444c 0f3d a647 2dbd c0c2 44bb
000001b0: f058 1c3c 9469 65bd 9e48 033d 6c66 383d
000001c0: 5011 833b 28b4 c9bc 8880 f8bc fe56 343d
000001d0: 8056 443c 2436 c9bc 78f4 8c3c 9caa 45bd
000001e0: 0424 efbc c08b 71bb d02a 7dbd e0f4 bcbc
000001f0: c8f6 e8bc 40ea efba 4425 00bd 3037 dfbb
00000200: 6405 1c3d 9833 30bd 8ed2 2bbd 00bb 76bc
00000210: fe9f 16bd 5a4c 4ebd e020 fa3c de2f 6cbd
00000220: e25e 4fbd 0003 d33a 4841 31bc 1880 c53c
00000230: e6d0 633d 7872 1a3c 3826 56bc b67e 1ebd
00000240: 9c73 2f3d d004 71bc e0be 73bc 88f9 e1bc
00000250: 14e5 eebc 1011 b03b e851 04bc b68b 57bd
00000260: 5c27 b93c d45e 0e3d 804d cc3b 5ec2 543d
00000270: 587a 3b3d 1040 8b3b 1ca3 10bd c0f7 613b
00000280: e814 07bc ee2c 053d 5c09 84bc 7487 31bd
00000290: 9207 3abd 2058 753c 9255 11bd 7cf6 bebc
000002a0: 98ae 4bbd b446 1d3d 7872 443d cc2d b23c
000002b0: 2446 bf3c 521f 05bd 289f 39bc c24d 753d
000002c0: 9039 123c c0ce be3a 0050 87b8 b287 0bbd
000002d0: 4877 fcbc b0f7 49bc a484 fd3c e401 6c3d
000002e0: a677 6abd b0dd d6bb 805b 09ba b03c 6fbc
000002f0: 3cc1 12bd 9085 efbc 809b 35bc 4873 0e3c
00000300: 7e34 6c3d 94ce 163d 8252 283d 2876 043c
00000310: 00d3 86bb 0c10 8bbc 2eb8 743d 8615 673d
00000320: f8c7 383d 4cf8 933c 18da 60bd 5c7c 87bc
00000330: 2049 f53c 3804 c2bc 80f7 a33c 6c74 e93c
00000340: 60f7 12bb 9ecc 56bd 8e75 01bd 4840 72bd
00000350: face 62bd 38a0 513d 5023 ca3c b637 51bd
00000360: dae2 72bd e646 4d3d 1a72 2dbd 087d 1e3c
00000370: 388b 433c 545b 7f3d f089 dfbb 48fb 313c
00000380: 00c0 753b 3485 d9bc 007f 113b 188f 65bd
00000390: 2c90 e1bc eaab 3d3d 30fd b5bb 20ac 5bbb
000003a0: 70a2 dcbb 0a1f 34bd 6c4f bfbc c816 7fbc
000003b0: e8ed 5ebd 681c 4a3d a8bd 7b3c c81b 36bd
000003c0: 345c 063d 98e1 f9bc 84ff 3abd f4eb c3bc
000003d0: 60b4 2ebd 5ec3 0c3d e0eb dfbb 70b7 a93b
000003e0: 44e8 d2bc 5e4b 643d c834 24bd c820 253c
000003f0: 007a 90ba 10b1 e73c f033 05bc 0809 4bbc
-0.05569327 -0.044148557 -0.034638926 0.05508609 0.018070199 0.032049425 0.014214449 -0.03736449
-0.04138498 -0.017941818 0.037697203 0.02672384 -0.012306318 0.058866672 0.018069454 0.050726168
0.009260602 0.033698767 -0.05703588 0.053040296 -0.05872734 -0.011370555 -0.038307868 -0.01612509
-0.0018524602 -0.035672188 -0.030606419 -0.025166571 0.06202849 -0.043551214 0.032214858 -0.010322079
0.00900133 -0.0025810823 0.020341441 -0.041095547 0.015615717 -0.0058821887 0.011114739 0.048751883
0.03503032 0.022860698 0.017471619 0.027399749 0.00042457134 -0.039971642 -0.015797578 0.0134932175
-0.04648629 -0.051337585 -0.053665556 1.013279e-05 -0.06134344 0.036079958 -0.048804723 -0.011184588
0.057451613 -0.011029579 0.038642205 -0.012979455 -0.031686053 -0.03074678 -0.01142171 -0.046810396
-0.053997777 0.023721792 -0.013009429 -0.017078348 0.029348545 -0.055658028 0.03816256 0.006081827
-0.052534305 0.04314842 -0.048532262 0.020420812 0.01799751 -0.053474084 -0.052672796 0.052025273
0.038850628 0.029961072 0.018703341 0.017145425 -0.024596766 -0.015378527 0.0154327005 0.041383386
0.030316494 0.02475895 -0.028453194 -0.018282928 0.046394177 0.05721736 0.009211481 -0.014097601
0.026070237 0.03022042 0.00086871535 -0.03429056 0.0342855 -0.041439764 -0.01617331 -0.056343928
-0.013685912 0.034984842 -0.042304657 -0.0030023307 0.009542689 -0.05600889 0.032051675 0.045019552
0.0039998665 -0.024622038 -0.030334726 0.044028275 0.011983514 -0.02456195 0.017206416 -0.04825841
-0.029191978 -0.003685698 -0.061808407 -0.023065984 -0.028437987 -0.0018304065 -0.03128554 -0.006811999
0.03809108 -0.043017954 -0.041948847 -0.015059233 -0.036773674 -0.050365783 0.030533254 -0.057662837
-0.050627597 0.0016098917 -0.010818787 0.024108931 0.055619143 0.009426706 -0.0130706355 -0.03869506
0.042834863 -0.01471062 -0.014877051 -0.027584806 -0.029161967 0.0053731278 -0.008076169 -0.052623473
0.022601776 0.034758404 0.0062348247 0.051943175 0.045770973 0.00424958 -0.035311803 0.0034479946
-0.0082447305 0.03251355 -0.016117744 -0.04334207 -0.045417376 0.014974624 -0.035481997 -0.023310892
-0.049727052 0.038397506 0.04796073 0.021750353 0.023348875 -0.032500573 -0.01132945 0.05988861
0.008924857 0.0014557466 -6.452203e-05 -0.034064956 -0.030818596 -0.01232712 0.030947037 0.05761899
-0.057243012 -0.006557189 -0.000523977 -0.014601871 -0.035828814 -0.029238492 -0.011084437 0.008694477
0.057667248 0.036818102 0.04109431 0.008084811 -0.0041145086 -0.016975425 0.05974596 0.05641701
0.04511258 0.018062733 -0.05489549 -0.016538791 0.029942095 -0.023683652 0.020015478 0.028497897
-0.002242528 -0.052441232 -0.03160625 -0.059143335 -0.05537317 0.051178187 0.024675041 -0.05107852
-0.059298374 0.050116442 -0.042345144 0.009673364 0.011935048 0.062342957 -0.0068218634 0.010863133
0.0037498474 -0.026552774 0.0022200942 -0.056044668 -0.027534567 0.04630653 -0.005553864 -0.0033519343
-0.0067332312 -0.043974914 -0.023353301 -0.015569396 -0.054426104 0.049343497 0.015365042 -0.044460088
0.032802776 -0.03050308 -0.045653835 -0.023916222 -0.042652488 0.034366004 -0.0068335384 0.005179338
-0.025745519 0.05573594 -0.0400894 0.010078616 -0.0011022687 0.028282672 -0.008130059 -0.01239229

critic.2.bias f4 [256]
00000000: 0a26 11bd b388 a43d 7b55 743d f951 643d
00000010: 03d4 abbd be57 a0bd 5efa cd3d 5c77 683d
00000020: b0b3 f33d 840e e13d 8588 3fbc a246 613d
00000030: baf8 66bd d601 66bd e380 93bd 5afa 14bd
00000040: f447 c6bc d1ef 193e 61bc 603d c004 87bc
00000050: 7d73 983d 71ba b23d 21f1 363d e40a 293d
00000060: a190 d03d 6758 3d3d e912 423d e73e fb3d
00000070: 9837 d53d 256b bb3b a91b 92bc 38d5 613d
00000080: d590 c7bd 29d4 c83c 5828 7a3d 5d76 07bc
00000090: 57e7 ec3d 3658 5a3d 20e3 ec3c 7eae 8fbc
000000a0: 4a5c c93c 5cfb 0ebc c3fd 063e 9e9f aabd
000000b0: 0e5b 3b3c 6b21 7fbb 2aa6 ac3d 03cf 7bbd
000000c0: af22 353c 99d5 8d3d 36e6 ed3d 632f ce3d
000000d0: 12be a9bd ba3a e8bd 0def 02bd 85b1 31bd
000000e0: 3344 87bd bf09 0a3e e4e8 be3c d05a 2bbd
000000f0: 8c46 2c3d 7dc4 8b3d 52ad cf3d 3467 e93c
00000100: 1610 63bd 0e93 00bd 7fc7 253d b29b 2dbd
00000110: 1cae 89bd a619 313c 41d0 87bc 3ad3 6a3d
00000120: d12a 0abd 1c54 c53c b200 6dbc 26fb 66bd
00000130: beab 323c 451f 0ebd 6a15 d73d 01be dabd
00000140: 0a7d 2439 6e5b 89bd 7d89 d5bd b85d 5d3d
00000150: c4f3 e7bd b3eb 243d 4164 4b3d e952 44bc
00000160: d376 fb3d 779c 933d fca9 40bd e9e6 5ebd
00000170: 3a86 adbd df3e 263d 7a8b 10bd db2b f03c
00000180: bb39 4a3d df14 b83d 1c15 87bd 9f4b 72bd
00000190: 04e7 083e b63a 01bd 43fb f73d e09a 0bbd
000001a0: 363d 3b3c 886c aebd 81b1 3e3d 5d64 0ebd
000001b0: 1534 c53d 80b4 203d c197 42bc e3e8 033e
000001c0: 4503 1bbd b3d2 0fbd 8f48 7b3c fce4 4bbd
000001d0: 6141 1f3d 370f df3d af57 e43d f0ce 2ebc
000001e0: ed4e 133b d97e eb3d c78a 76bd ed8d 8e3d
000001f0: 5fa6 60bd a961 c33d c54a 21bd b760 fc3c
00000200: 3175 6dbc 0d1b 533d ab17 8d3d ed8e d63d
00000210: 081f bd3d dca6 fd3b 4bc9 603d ee42 d83d
00000220: d94d 293d 456b a83d a5d0 a43c 6bab 083d
00000230: 2b55 e2bc 17aa 073e d926 053e 5854 04bd
00000240: 3300 aa3d bae1 9fbc e416 6c3d 2406 323d
00000250: 826c d1bd 6c21 ff3d bd85 df3d b3de 4dbd
00000260: 89e7 9f3d d05c 563c b10b 60bd 2004 52bd
00000270: 82c0 82bd 47ec 0d3d c56a 21bd 3edc f33d
00000280: 2154 7a3d d15f f43d a9b8 dc3c 2fda 3a3d
00000290: d662 403d 8978 103d 352d f93d 914c 4d3c
000002a0: 6ca1 a3bb 8b9a c7bc 8363 edbd 908e e8bc
000002b0: b69e 9c3d c0e4 e5bc aa32 f63c e8b6 56bd
000002c0: cd20 84bd 70af a33b 262b bcbd f889 173e
000002d0: fb73 503d fa49 09bc fba3 2c3d 0549 8cbd
000002e0: 857b d5bd a36d ac3d 3407 ce3d 501c f93c
000002f0: a237 96bd 2d6f cc3d a3a7 493d 36eb 333d
00000300: 3b6c bf3c 5127 67bd 1dcd 87bd 0092 74bb
00000310: aa4b a43c 6a4e fe3d ccf5 dcbc b332 b2bd
00000320: 209a c4bd 60d0 6c3c 903a 5ebc 8367 8c3c
00000330: 80c0 74ba c2b4 32bd 5436 61bc 1479 153d
00000340: f49c 0dbc f756 463d 73a7 cebd f681 ffbc
00000350: de21 ca3b 293b 7d3d 7029 023e ad79 04bc
00000360: 4276 c43c 4806 cf3d cd34 e83d 5a88 5dbd
00000370: ceea 5a3d 2e3f 053e 48a0 7bbd 4073 aabd
00000380: b35f 87bd 1c84 cdbd d6a1 223d b7be 5b3d
00000390: fa21 02be 0f80 2d3d b0c2 0b3e 88a6 cb3d
000003a0: e08e b23c cb05 233d 01dd 663c 0b7c 94bd
000003b0: e393 b0bd f0ee 663d 1b89 f0bc 0fd7 563d
000003c0: bbba 3abd 8ce1 0e3e 5e9d 643d 0968 6b3c
000003d0: 874a 963d 1177 cd3d 4214 e13d ee63 60bd
000003e0: 1f94 ccbc e0d3 153d 419e e4bb d892 db3d
000003f0: 2215 833d 6c8b 6f3a 7ba5 81bd afef 903d
-0.035436668 0.08033886 0.059651833 0.055742238 -0.083900474 -0.078292355 0.100575194 0.056754455
0.11899507 0.10989097 -0.011690264 0.054999 -0.056389548 -0.056154095 -0.072023176 -0.036371566
-0.024204232 0.15032889 0.054867152 -0.016481757 0.07443903 0.08726967 0.044663552 0.04127015
0.10183836 0.046226885 0.047381315 0.12267857 0.10410994 0.0057195597 -0.017835455 0.055134982
-0.097444214 0.024515228 0.06107363 -0.008267966 0.11567562 0.05330678 0.028916895 -0.017539259
0.02458014 -0.008726921 0.1318274 -0.08331226 0.011435283 -0.003892983 0.08430131 -0.06147672
0.0110556325 0.06925506 0.11616175 0.10067632 -0.08288206 -0.11339326 -0.031966258 -0.043382186
-0.06604805 0.1348028 0.02330441 -0.041834652 0.042059466 0.068245865 0.1014048 0.028491594
-0.055435263 -0.031390242 0.040473457 -0.04238481 -0.06722662 0.010809338 -0.016578795 0.057330348
-0.03373224 0.024087958 -0.014465498 -0.056391858 0.010905204 -0.03469779 0.10502131 -0.106807716
0.0001568684 -0.06706892 -0.104266144 0.054044455 -0.113257915 0.040263843 0.049656156 -0.011982658
0.12278523 0.07207578 -0.04703711 -0.05441943 -0.08472867 0.040587302 -0.035289265 0.029317787
0.049371462 0.08988356 -0.06595823 -0.05915415 0.13369375 -0.03155013 0.12108471 -0.034083247
0.011428168 -0.085167944 0.046556 -0.034763683 0.096290745 0.03923464 -0.011877001 0.12881808
-0.037844915 -0.035113048 0.015337124 -0.049778923 0.03888071 0.10891574 0.11149537 -0.010669455
0.0022477463 0.11498804 -0.060190942 0.06960664 -0.054846164 0.095401116 -0.039377946 0.030807836
-0.014493273 0.05153947 0.0688928 0.1047648 0.09234434 0.0077408385 0.054879468 0.10559641
0.041334007 0.08223585 0.02011902 0.033366602 -0.027628502 0.13248478 0.130031 -0.032307
0.08300819 -0.019516815 0.057639018 0.043462887 -0.10225774 0.124575466 0.109141804 -0.05026121
0.07807834 0.013083652 -0.05469865 -0.051273465 -0.06384374 0.03464916 -0.039408464 0.11907242
0.061115388 0.11932338 0.026943522 0.045618232 0.046969257 0.0352712 0.12166826 0.012530462
-0.004993608 -0.024365684 -0.11591246 -0.028388292 0.07647459 -0.028063178 0.030053455 -0.052420527
-0.06451569 0.004995279 -0.091879174 0.14798725 0.050891858 -0.008379454 0.04214857 -0.06849865
-0.1042395 0.08419349 0.10059968 0.030409008 -0.0733483 0.099821426 0.049232136 0.043925487
0.023367038 -0.05643398 -0.06630919 -0.0037318468 0.02005561 0.124173 -0.026972674 -0.08701076
-0.095997095 0.014453977 -0.013563767 0.017139202 -0.0009336546 -0.043629415 -0.013745863 0.036492422
-0.008643378 0.04842278 -0.10090532 -0.0311899 0.006168588 0.061823998 0.1271112 -0.00808565
0.023982171 0.1010862 0.11338196 -0.054085113 0.053446583 0.13012382 -0.061432153 -0.083227634
-0.0661005 -0.100349635 0.03970512 0.053648677 -0.12708274 0.042358454 0.13648486 0.09943873
0.021796644 0.039800446 0.014090777 -0.07250222 -0.08621957 0.056380212 -0.029362252 0.05245119
-0.045588236 0.13953227 0.05581414 0.014368066 0.07338434 0.10032476 0.10990192 -0.0547828
-0.024972973 0.036579013 -0.006976873 0.107213676 0.06400515 0.0009137902 -0.06330391 0.07076966

critic.4.weight f4 [1, 256]
00000000: 144c aabc 3457 b03d a4ee c83d bb5f bb3d
00000010: 4300 8ebd 7ff7 07bd d311 923d 86b3 fabc
00000020: de50 f73d aa61 c23d 1117 94bd 01c9 ee3c
00000030: 5250 603d 4c5f a23c e96b 97bd 882c 65bc
00000040: 987e 4bbd ca81 e43d c284 c63d b7f8 adbc
00000050: c51a 783d 8364 ce3d f05a 763d c74b e4bc
00000060: 47f4 d13d e3dd 683d 8b57 6cbc 5414 a63d
00000070: f3a7 b43d 9128 2bbb c8a6 e2bc 1ab8 933d
00000080: 7014 9cbd 6330 983d 1174 b83d a36d 6bbd
00000090: 0671 cc3d 0671 ca3d 30b2 4fbd 8753 2d3d
000000a0: c7f9 dfbc ca3e f4bd 69a2 ac3d 0633 21be
000000b0: c287 6ebd cc0d 673b 78d1 a53d 2958 09bd
000000c0: 8d42 9bbc 9928 b13d 9ae1 da3d c772 8a3d
000000d0: 7e54 bbbd 06dc 34bd 5c81 cfbd e188 11bb
000000e0: 18f0 ccbc 8ad3 7d3d a244 56bd 0ce6 89bd
000000f0: 21c5 d8bc 8654 453d 88b5 e23d 80d0 6f3a
00000100: c7a4 81bd 5437 5a3d 1643 d23d 5849 4b3d
00000110: c53e 49bd 8bc7 573d e7c3 fab9 8460 f53d
00000120: 95f5 0abd 8a1a 5ebc 748c 1fbd 88de e3bc
00000130: 17a1 99bd 39a2 993c ff99 483d 7fa9 8dbd
00000140: b600 00bd 3013 2ebd d14c bbbd 88d1 8e3d
00000150: 3813 8dbd ad46 bf3d 701f a63d 9056 61bd
00000160: 3261 813d bb87 4b3d 389b 4bbd bd8a ccbd
00000170: e490 9abd c3c0 71bc e477 c2bc ec29 4dbd
00000180: cd1f cd3d 4e19 713d c7ac 96bc 884a 4fbd
00000190: f7e8 c53d 1444 20be e7be 833d 9e46 1cbc
000001a0: c472 1db9 0c78 13bc b859 c3bc c017 3b3d
000001b0: 9505 9f3d d537 7d3d 16e5 24bd 3739 d73d
000001c0: 2395 f4bc 84af 18bd 952c c83d da5c a3bd
000001d0: 034a a03d e7e9 de3d 1925 c13d 8de4 bdba
000001e0: 42af e0bb d88e ea3d 11b0 17bd a64e d03d
000001f0: 0efe ebb9 9f68 d53d 3b8c 27bd 7295 fbbb
00000200: dff7 59bc d212 513d dfb9 073d 7f90 b93d
00000210: 71a8 b73d 5689 943d a558 603d 0df6 ef3d
00000220: 5a72 b33d 3f81 6f3d 08d1 46bd 71a9 d43d
00000230: 3804 85bd 1426 de3d 6779 a93d 78fd bb3c
00000240: 6081 be3d f833 8e3b 8813 7e3d 3d11 adbc
00000250: 3e74 24bc 0fd2 aa3d b091 d13d 6739 82bc
00000260: 738c 3e3d f9b2 ad3d 3ae4 61bd 0069 d73b
00000270: d60e 13bd 18ab 21bd 7df7 6a3a 4f65 a43d
00000280: 8b93 ea3d 156c cc3d db95 f2bc 7177 323d
00000290: 7207 bc3d 7250 1fbd e119 af3d ecd7 0ebd
000002a0: 82b2 54bd 7e84 0bbd 388c b9bd fbe4 1cbe
000002b0: 49e3 b63d f6c2 c5bd cc1e 593d ceb2 33bd
000002c0: 594c c7bc 3011 b03b 1357 a1bd 756a d33d
000002d0: 529c 933d d400 b5bc e8b4 dd3d a2df 0fbc
000002e0: 50a7 11be 3b22 f03d 99a3 ce3d 96c4 dc3d
000002f0: 032b d3bd 65e7 f93d 44e5 933d 08d0 a03c
00000300: 795a c2bc 1ec9 503c 3242 c8bd dbc3 a639
00000310: b545 91bb 3ab8 973d 0a32 42bd 92aa 5dbd
00000320: 6c1e 81bd 5828 eb3c d84e 43bc 6ec7 5fbd
00000330: 7c98 0bbd 46d1 a9bd bb8f 25bd f8e9 c33d
00000340: dc10 a1bd c0cd b13d f255 8dbd 4df3 80bd
00000350: e7fa bfbc 25a5 9c3d 124a f53d 511d 0a3d
00000360: ffc6 8e3a 5ab3 9e3d ccbc 8a3d cd4c 4abd
00000370: 676f b03d c00a d43d f601 9ebd 8278 90bd
00000380: c4cf c8bd 8c3a 64bd 7245 0abd f4de eebc
00000390: bb00 c1bd f552 4f3d 512d a93d 1cc4 8f3d
000003a0: 3f70 073c 5fe6 e1bb 4617 ae3d 281f 52bd
000003b0: 3401 dabd 7f39 23bd 5355 433d 3999 6d3d
000003c0: 1c5e 1cbc ec6e a03d 5234 33bd e725 c4bc
000003d0: bfc1 b63d 8846 c93d 3e73 ae3d 8818 9fbc
000003e0: cd82 55bd 2cb9 a63d 5d12 4dbd e5b5 cb3d
000003f0: dcbf ca3d 0032 cf3c b7ef 9abd 4966 27be
-0.02078823 0.08610383 0.09811142 0.091491185 -0.06933644 -0.033195015 0.07132306 -0.030603182
0.12075971 0.09491284 -0.07230962 0.02914858 0.0547641 0.019820832 -0.07393629 -0.013987668
-0.049681276 0.11157568 0.0969329 -0.02123676 0.060572404 0.10077765 0.06014532 -0.027868165
0.1025167 0.056852233 -0.014425169 0.08109346 0.08821096 -0.0026116709 -0.027667418 0.07212849
-0.07621086 0.07431104 0.09006513 -0.057477605 0.09982495 0.09884839 -0.050707042 0.042315986
-0.027340783 -0.119260386 0.08429415 -0.1574212 -0.058234937 0.0035256026 0.080965936 -0.03353134
-0.018952632 0.086503215 0.10687561 0.06760173 -0.09146975 -0.044155143 -0.10132095 -0.002220683
-0.02501683 0.061969317 -0.052311547 -0.06733331 -0.026461186 0.04817631 0.110697806 0.00091481954
-0.06330257 0.05327542 0.10266702 0.049630493 -0.049132127 0.052680533 -0.00047829674 0.119812995
-0.03392561 -0.013556132 -0.038952306 -0.027816072 -0.075014286 0.018754112 0.048974987 -0.069170944
-0.031250678 -0.042498767 -0.09145511 0.06973559 -0.06888431 0.09339652 0.08111465 -0.055014193
0.06317367 0.04968999 -0.049708575 -0.099874 -0.07547167 -0.014755431 -0.023738809 -0.050088808
0.10015831 0.058862023 -0.018392934 -0.050608188 0.09663575 -0.1565097 0.06432896 -0.009538321
-0.0001501544 -0.009000789 -0.023846492 0.045676947 0.077647366 0.061820824 -0.040257536 0.1050896
-0.02985627 -0.03727676 0.09774128 -0.079766944 0.078266166 0.10884457 0.09430904 -0.0014487669
-0.00685683 0.114530265 -0.037033144 0.10171251 -0.00045011978 0.104203455 -0.04090522 -0.0076777274
-0.013303726 0.05104334 0.033136245 0.090607636 0.089676745 0.07252757 0.054772038 0.11716852
0.08762045 0.058472868 -0.04853919 0.10383881 -0.06494945 0.108471066 0.08275109 0.022948012
0.0930202 0.0043396913 0.062030345 -0.021126384 -0.01003748 0.08340847 0.10232866 -0.015896512
0.04652066 0.08481402 -0.055149294 0.0065737963 -0.03590282 -0.03946981 0.000896327 0.080271356
0.11453923 0.099815525 -0.029612472 0.04357094 0.091811076 -0.038895078 0.08549858 -0.034873888
-0.05192805 -0.0340619 -0.09059948 -0.15321724 0.0893007 -0.096563265 0.053007886 -0.043871693
-0.024328398 0.0053731427 -0.07877936 0.103230394 0.0720755 -0.022095121 0.10825521 -0.008781346
-0.14223981 0.11725279 0.100897975 0.10779683 -0.10310938 0.12202338 0.07221463 0.019630447
-0.023724781 0.012743263 -0.09778251 0.0003180791 -0.0044333586 0.07408185 -0.047411002 -0.054117747
-0.06304631 0.02870576 -0.011920653 -0.05463355 -0.034080967 -0.08291869 -0.040420275 0.095661104
-0.07864544 0.08681822 -0.069011584 -0.06296406 -0.02343507 0.07648686 0.119770184 0.033719365
0.0010893046 0.07749052 0.067742914 -0.04938965 0.08614998 0.10353613 -0.07715218 -0.07054235
-0.09805253 -0.055719897 -0.033757634 -0.029159047 -0.094239675 0.050616223 0.082605965 0.07019827
0.008266508 -0.0068939175 0.08500533 -0.051299244 -0.10644761 -0.039849754 0.047688793 0.058007453
-0.009543922 0.07833657 -0.04375107 -0.023943854 0.08923673 0.09827906 0.085180745 -0.019420877
-0.052126694 0.081407875 -0.05006634 0.09946803 0.098998755 0.025292397 -0.07565253 -0.16347612
