algs/outputs/CartPole-v0/20230330-172459/models/ppo_actor.pt (torch, 272863 bytes, 6 tensors)

actor.0.weight f4 [256, 4]
00000000: 116f c03e 5e28 fdbd 4ba0 d73e b489 df3e
00000010: c338 b1be 6478 ed3e fc4d 0abe ae69 ba3e
00000020: 5d02 a6bb 4b72 e03c 7671 15be b4b6 2f3e
00000030: 7592 da3e c804 b2be 0ee7 c93e 5192 e53d
00000040: 152c 99be 6c9c 8cbd ed82 28bf 0d3e b8be
00000050: 9925 363e fecf b5be 0693 253e 8c6a a5bd
00000060: 26bf 43be 6986 c63e 2b50 80bd f50a 0d3e
00000070: 036b edbd 85df b03e 3b4b 693e 2df0 053f
00000080: 4580 6bbe 93d4 edbd 5368 40be ef67 a33e
00000090: fcb9 dbbd ce82 f33e bc61 b4be c10e d63e
000000a0: cf58 c33c 89df 33be 8d90 fa3e fe49 613e
000000b0: 1261 8d3e 9598 813e 5fc4 193f 918c 013f
000000c0: 09b7 0e3d 10fa 34be 03ca e43e 6fa1 743e
000000d0: 2238 bb3e 181a a03e ae0f 6cbe 1623 80bd
000000e0: e297 a33e f517 98bd 5e80 8a3e 7143 be3e
000000f0: 3fc5 b0be 7c58 72bd 4b77 183e 6d5c 633e
00000100: 959e db3e fdb7 f4bd 6b9b 1c3e 8e04 cc3e
00000110: f1d9 55bd 0eea fd3d e6df f53e a3bb 633e
00000120: 6ac7 ca3e 2901 5bbd 988c 073d efc6 50bd
00000130: 1494 09bf f380 16be 7eec 7c3e 80ee 87be
00000140: 4ddf b43e 778d b13e fe84 acbe bf76 943e
00000150: 5c83 e8bd 019b e2be d3c5 973e 497d 7d3e
00000160: 40a8 06bf ed3c ae3b 5f92 c23e ce2a 02bf
00000170: 673e d93e 1cc5 2d3c 93de fbbe 5aa4 dfbe
00000180: c6cf 4c3e 246a fb3e bee2 4ebd a8a8 c93e
00000190: f060 a53e 7758 38bd 851e b4be fc12 25bf
000001a0: 3d7d d5be b468 eb3e c03c 0b3f ca2e 173e
000001b0: c208 0abc 30bc d0be 1948 84be 8ecd 273e
000001c0: a621 e6bd 90eb 083e ed81 39be 0c53 27bf
000001d0: 7c36 0ebe 105e c13d 76fb e53e ad78 8f3e
000001e0: cd0d cc3d 9f0b d63d cdd0 283e b8e4 87bd
000001f0: f296 cd3c 1f14 893c e516 713e 5560 de3c
00000200: 02a3 a03e 07b4 983e 356f 923e f7ba 8abe
00000210: 0604 a83e 4385 41be b9f5 4b3e 3e3b 913e
00000220: 846e cfbe 266c 40be 0f65 013f ebf5 01be
00000230: 480d d93e fe2c b73c 997b a1be c78c b33d
00000240: aea9 0e3c d438 80be b11d e9be 76e5 8fbe
00000250: 43a5 183c b8a2 bfbd 5e2a 1a3f 7f5f 323f
00000260: 5113 67bc 1e10 fd3e 9d92 61bb 11a5 0b3f
00000270: 6478 08bf a22f 13bf 4407 893e 5b37 02bf
00000280: 7ce4 82be a54e bdbe 6540 d33e bbec 393e
00000290: 4e8f 86be 46dc f5bc fa0f 58be cafa b83e
000002a0: 0422 86be 2105 c2bd 6eb0 15be dfe7 73be
000002b0: 0244 c5be 7efa dd3e ca2c 10be 2cba 113f
000002c0: bed5 c7be 81d6 92be db12 fdbd 4663 d53e
000002d0: 0ade b73e 2ab4 1fbe fa01 183f a0a8 1c3f
000002e0: 0a03 183e 7f3f 983e b73f fabc 9b32 00bf
000002f0: 1f31 b3bd ec6c 6cbe ed13 093f 8807 a1bd
00000300: d5c8 f1be 4df5 e2be 25a2 9bbe 51ca 24be
00000310: 4194 52bd ca07 b3be bcf2 3c3d 43bb 6e3e
00000320: c0ae d0be 366f b13e 2a44 fc3e ad97 a73e
00000330: 750c 273e 913e a73e 1752 99be dd5a 20bf
00000340: 3334 a03e 2de6 49be 033f a2be 8b91 973d
00000350: ccae ad3d 6590 823d 9256 5abe 992f e7bc
00000360: a080 af3d 5001 8a3e 1054 023e 806a ba3e
00000370: 7121 9e3e b819 763e bc59 08bd 6f49 2abd
00000380: 7105 a43e 80b7 3e3e b8d9 a33d 181e 53be
00000390: 1d57 bcbc b1ef e1be d85b a6be e1ba af3e
000003a0: 4871 5e3e 9aa9 ac3e 6ac2 36be 2b74 c73e
000003b0: 221a e8be 9fa3 03bf 77d2 b53d 7da5 d33c
000003c0: 6310 9a3e 0f90 41be beea a33c b6b0 d43d
000003d0: 4b1b 54be 86af 0c3d 1d62 a5be ef8a 073e
000003e0: 91c1 f3be 1032 4dbe bc45 523e ed56 c2be
000003f0: 4a85 fcbc 8f68 9c3e e0b8 d03e 510e 593e
0.37584737 -0.12361215 0.4211448 0.43659747 -0.34613618 0.46380913 -0.13506311 0.36408752
-0.0050661997 0.02739825 -0.14594063 0.1715954 0.42689863 -0.34769273 0.39434093 0.11209548
-0.29916444 -0.068657726 -0.65824777 -0.3598484 0.1778778 -0.35510248 0.16169366 -0.08076963
-0.19115886 0.38774422 -0.06265291 0.13773711 -0.115926765 0.34545532 0.22782604 0.52319604
-0.2299815 -0.11612811 -0.18789797 0.31915233 -0.10728833 0.47560734 -0.35230815 0.4180813
0.023846058 -0.1756574 0.48938408 0.22000882 0.2761312 0.25311723 0.60065264 0.5060511
0.034842525 -0.17673516 0.44685373 0.23889707 0.36566263 0.31269908 -0.23052856 -0.06256692
0.31951815 -0.074264444 0.2705106 0.3716083 -0.34525487 -0.059166417 0.14889257 0.22203226
0.42894426 -0.119491555 0.15293662 0.39847225 -0.0522098 0.12398158 0.48022383 0.22239546
0.39605266 -0.053467903 0.033093065 -0.050970968 -0.53741574 -0.14697628 0.2469959 -0.2654915
0.35326615 0.34678242 -0.33695215 0.28996846 -0.1135318 -0.44258884 0.29643115 0.24754824
-0.5260048 0.0053173215 0.38002297 -0.50846565 0.42430422 0.010606077 -0.49193248 -0.43680078
0.20001134 0.49104416 -0.050509207 0.39386487 0.3230052 -0.04500624 -0.35179535 -0.6448209
-0.41697112 0.4597832 0.5438957 0.14763942 -0.00842494 -0.40768576 -0.25836256 0.16387007
-0.11236887 0.1337111 -0.18115969 -0.65361094 -0.13887972 0.09441769 0.44918412 0.28021756
0.0996357 0.10451435 0.16485901 -0.066354215 0.02509639 0.016733227 0.2354389 0.027145544
0.31374365 0.2982485 0.2860047 -0.27095768 0.3281557 -0.18898492 0.19917955 0.2836551
-0.40514004 -0.18791255 0.5054483 -0.12691467 0.42392945 0.022360321 -0.3153961 0.087670855
0.008707447 -0.25043356 -0.45530465 -0.28104752 0.009316745 -0.09357208 0.602209 0.69676965
-0.0141037265 0.4942636 -0.0034419664 0.54548746 -0.533087 -0.57494557 0.26763356 -0.50865716
-0.25564945 -0.36974064 0.41260067 0.18156712 -0.26281208 -0.030012261 -0.21099845 0.36128837
-0.26197827 -0.094736345 -0.14618084 -0.2381892 -0.38528448 0.43355173 -0.14079586 0.569247
-0.3903026 -0.28679278 -0.12357112 0.41677302 0.3591159 -0.15596071 0.59378016 0.611948
0.1484491 0.29735944 -0.03054796 -0.5007722 -0.087496035 -0.23088425 0.5354603 -0.078627646
-0.47223535 -0.44327775 -0.30397144 -0.16092803 -0.051410917 -0.3496688 0.046129927 0.23313622
-0.40758324 0.3465516 0.49270755 0.32732907 0.16313346 0.32664922 -0.29945442 -0.62638646
0.31289825 -0.19716711 -0.316887 0.07400807 0.084806055 0.06375197 -0.21322086 -0.028220939
0.08569455 0.26954126 0.1272738 0.36409378 0.3088489 0.24033248 -0.033288702 -0.041573938
0.320354 0.18624687 0.08000511 -0.20616949 -0.022990758 -0.44128183 -0.32491946 0.34322265
0.21722901 0.33723146 -0.178476 0.38955817 -0.45332438 -0.5142154 0.088780336 0.025835747
0.30090627 -0.1890261 0.020009395 0.103852674 -0.20713536 0.03434708 -0.32301417 0.13236593
-0.47608617 -0.20038629 0.20534414 -0.37956944 -0.030825276 0.30548522 0.40766048 0.21196868

actor.0.bias f4 [256]
00000000: 83d6 323e 32ab 243e 353e fbbd 9a48 09be
00000010: 29ce 053e 571d 96be 3d58 493e bf9e c5be
00000020: 7ab0 b73d 3d2a f93e 178a 6cbe 0eaa ee3d
00000030: b209 72be d79a 5e3e ae84 e7be e3ae c93e
00000040: 2456 883e 13e2 0b3e 64b0 0b3e 5496 7a3d
00000050: 6eae dd3e e16b 82be cbb5 8dbe dac8 e03e
00000060: 4846 abbe 9741 963e f909 df3d dc3a adbe
00000070: 0da1 293e 28a4 c53e ea2f 6cbe 2428 4abe
00000080: 05d2 1abe 7345 f3be ee15 d4bc a019 94be
00000090: 5db9 98be 992e df3d c602 643e df22 f63e
000000a0: b37c eebd 3024 cabe d26c 67be 9a85 023e
000000b0: a56f 963e c9ae f43e b7ff 82be da26 f1be
000000c0: e575 153e 2085 07bf f1cb bbbd 5e7c 253e
000000d0: 8b31 59be d497 a3bd 4239 bd3e 1614 293e
000000e0: 3bfc 513e 4b51 8a3e 10d0 1d3e d5f0 b33e
000000f0: 55d9 9abe 666c 983e 5a8d 9abe 6374 f4bd
00000100: 725d ddbd 75ff 903e 7ee5 5cbc 2f42 193e
00000110: 8839 a3be c644 8f3e 0a62 3c3d 362d e1be
00000120: 4284 17bd 5e4e 1cbe 5b66 4abe eeaf e4be
00000130: 765a 30be b2ab 3a3e 2c46 643e 7ad2 2ebc
00000140: dfec b63e b89e 50be 0238 94be d929 f13e
00000150: 18ca a5be 7b1f 76be 3476 46be 066a b5be
00000160: c440 9f3e 2655 6f3e 95f1 a8be 86dd 933e
00000170: de14 8ebe 5f5a 6c3e 848d 003c 558d 12be
00000180: 959b 3cbe fdb6 02be 11eb 6bbe 0ad3 653e
00000190: e217 903e 63bc 58be fc25 6b3d 7658 f33e
000001a0: 576f a6be 947a c6be ded7 7c3e 63af e7bd
000001b0: 0a9c 5bbd c6af f5be c132 1a3d a1f7 debc
000001c0: 62d4 3dbe 092d ecbe 4ce8 a9bd 0571 91be
000001d0: 301a 9fbd fab9 2f3e f084 b6bd 9397 d5be
000001e0: 8007 2bbe 7b84 523e 9736 a2be 0db4 41be
000001f0: bbbb 1f3d 7020 093e bad8 d9be 937c 8f3d
00000200: 19fc 7ebe 4820 1abe 6bc2 003c 4dd7 113e
00000210: a14b 313d 548b ef3d 642c 00be 8231 9ebe
00000220: 53f0 a2be fe53 9d3e 3782 5f3e 5b41 53be
00000230: ad72 713e c9cc b6bd a599 9c3d 5981 c5be
00000240: 6678 883e 8f56 6f3e fde9 863e 0683 76be
00000250: 4612 e6be 4dfb 8cbe 27cd d6be 6020 113e
00000260: ab8b 933c b3d2 253e 747f e63d 81b3 353e
00000270: c060 5e3e 2d15 8b3e 2be3 a1be d967 8dbe
00000280: 982f c23d a1c4 9a3e e69e d93e 1265 c8be
00000290: 7d0c 8ebe 984d 5dbe a431 08be d36e f9be
000002a0: 8cc2 c9be 409f 2bbd efd0 de3e 9192 8dbe
000002b0: aead cabe b880 603e 4f38 45be 4bac cdbd
000002c0: 6993 8c3d 9faf c6be 000a d93e 5429 ad3e
000002d0: cb55 e0be a537 c0be f6d2 f2be 2eb1 5ebe
000002e0: 46d8 59be d425 adbd 300b ffbd 6b07 4b3e
000002f0: 76ba 8ebe 8c58 dfbe 7ee9 823e b7e6 aabe
00000300: fb07 c7be 8d22 0a3e 8481 b0bd 6a51 ddbe
00000310: 075b c33e 3eda 4fbe d130 533e d7bf aebe
00000320: c7eb 38be fe12 71be 21e6 c53e cd3e b53d
00000330: 08af c03e 4129 1a3d aa15 8abe 911f d73c
00000340: 5b61 cbbc 2e63 bf3e 7521 cb3d ec86 4ebe
00000350: 0d80 a4be 2358 db3e 6d0e e23e e7df a93d
00000360: 0442 de3e 330a 6cbe 1d63 98be 7629 cd3d
00000370: d2bd eb3e f80c 803e 11b0 1c3d fcec a3be
00000380: 822e b4be 786c 8cbe 66b8 c5be c03d 7a3e
00000390: 1bfb c63e 5730 e8be 76ae 2b3e 282a 443d
000003a0: f638 693e a375 613e 7ecb a4bd 3eac c23e
000003b0: 7f3b 8fbe 9166 373e 4f79 d7bd bd9b 3d3e
000003c0: c6f9 123e 1f3f bd3e 0f10 03bc 84e1 0e3d
000003d0: ce15 b9be 0330 293e 765f b7be cd51 c13e
000003e0: ec2e 7bbd 85e8 783e aa63 a43e 2d84 5e3e
000003f0: 6bfd 9b3e 2482 083e 4592 c2be b7b9 c43e
0.17464642 0.16080931 -0.122677244 -0.13406602 0.13066925 -0.2931926 0.19662566 -0.38597676
0.08969207 0.48665038 -0.23099552 0.11653529 -0.23636511 0.21738754 -0.45218414 0.3939124
0.2662822 0.13660459 0.13641506 0.06117852 0.43297142 -0.2547293 -0.2767776 0.43903238
-0.33452058 0.29346916 0.10890574 -0.3383397 0.16565342 0.38601804 -0.23065153 -0.19741875
-0.15119179 -0.47513923 -0.025889363 -0.289258 -0.2982892 0.1089756 0.22266683 0.4807348
-0.11644878 -0.39480734 -0.22600105 0.12746277 0.29382053 0.477896 -0.2558572 -0.47099954
0.14595754 -0.5293751 -0.09169758 0.16160724 -0.21210305 -0.07987943 0.36957747 0.16511568
0.20506375 0.27015147 0.15411401 0.35144678 -0.30243936 0.297702 -0.30185968 -0.119362615
-0.10808839 0.28319898 -0.01348245 0.14966653 -0.3187983 0.27982157 0.045991935 -0.43979806
-0.036991365 -0.1526427 -0.19765608 -0.44665474 -0.17222008 0.18229559 0.22292393 -0.010670299
0.35727593 -0.20373046 -0.2894898 0.4710224 -0.32380748 -0.24035446 -0.19381028 -0.35432452
0.311041 0.23372325 -0.32996812 0.28879946 -0.27750295 0.23081349 0.00784624 -0.14311726
-0.18418725 -0.12765117 -0.2303889 0.22443786 0.2814322 -0.21165614 0.05740927 0.47528428
-0.3250682 -0.38765395 0.24691722 -0.11312749 -0.053615607 -0.47985667 0.03764606 -0.027217688
-0.18538049 -0.4612811 -0.0829626 -0.2840654 -0.07768667 0.17160788 -0.089120746 -0.41717204
-0.1670208 0.2055835 -0.31682274 -0.1891634 0.038997393 0.1339128 -0.42548162 0.070061825
-0.24900855 -0.15051377 0.007858853 0.14242287 0.043285016 0.116964966 -0.12516934 -0.30897146
-0.31823978 0.30728143 0.21827017 -0.206304 0.23578902 -0.089257784 0.07646493 -0.38575247
0.26654357 0.23372863 0.26350394 -0.24073419 -0.44935817 -0.27535477 -0.41953394 0.14172506
0.018010935 0.16193657 0.112547785 0.17744257 0.21716595 0.27164593 -0.31618628 -0.27618292
0.09481734 0.3022814 0.42504042 -0.3913961 -0.27743903 -0.21611631 -0.13300186 -0.48717365
-0.3940624 -0.04189992 0.4351878 -0.27650884 -0.39585632 0.21924102 -0.19259761 -0.10042628
0.06864054 -0.38805863 0.42390442 0.33820593 -0.43815455 -0.37542453 -0.47426575 -0.21747276
-0.21273908 -0.08454481 -0.12453306 0.19827048 -0.27876633 -0.43622243 0.25568765 -0.33379146
-0.38873276 0.13489743 -0.08618453 -0.43226177 0.38155386 -0.20298097 0.2062409 -0.34130737
-0.18058692 -0.23542401 0.38652137 0.08849869 0.37633538 0.037637 -0.26969653 0.02626017
-0.024826696 0.37380356 0.09918491 -0.20168656 -0.32128945 0.4284068 0.4415163 0.08294659
0.4340974 -0.23050766 -0.29763117 0.10017674 0.4604326 0.25009894 0.038253848 -0.32016742
-0.35191733 -0.27426505 -0.38617247 0.24437618 0.38863453 -0.4534938 0.1676577 0.047891766
0.22775635 0.22017531 -0.080466256 0.38022035 -0.2797508 0.1791022 -0.10521185 0.1851644
0.14353094 0.3696222 -0.007999434 0.034883037 -0.36149448 0.16522221 -0.35815018 0.37757722
-0.061324045 0.24307449 0.32107288 0.21730109 0.3046678 0.13330895 -0.3800222 0.3842294

actor.2.weight f4 [256, 256]
00000000: e1f2 a33b d7f2 25bd 4100 20bd 0396 0fbd
00000010: d3c8 e0bc f447 4b3d 144b f53b 2da5 183c
00000020: 4bd3 29bd 1686 133d 5dbb 74bd f56d 863c
00000030: ea01 373d 3460 c3bc a556 3bbd e736 3e3c
00000040: ae61 003d eb5d 8ebc b4f6 213d f336 143d
00000050: 84aa 213d 61ba 82bd d67b 4c3d 35ac 49bc
00000060: 5f3d b0bd 43d8 1fbd 3637 a5bb f8b0 41bd
00000070: 2269 e33b c6aa 123d 5963 12bb 7d4c 6b3d
00000080: a1ff 023d df33 f4bc 4ad7 34bd fb0f 043d
00000090: a2db 24bd 09ef 80bc edd0 713c 2cac 7fbd
000000a0: fef2 2f3c f970 65bd 3e2a 2b3d a57b 36bd
000000b0: 0302 53bc 01b2 3e3c cb18 4a3c 0007 393d
000000c0: 6087 7fbd de60 8b3b 27f8 9abd 4ede 6e3d
000000d0: 4c8c 2bbd fba5 833c dec3 29bd 0324 ebba
000000e0: 5d0f d93c 3130 ae3c d69c bc3c aea9 cd3b
000000f0: 8975 d73c 6b88 3d3d 9a26 86bd 4374 2cbd
00000100: b606 63bd 12d8 043d 63e3 4c3d a5bf babc
00000110: a0cc 683d f586 60bd 6969 5d3c c011 be3a
00000120: 080e 74bd 411d 00bd c4e6 8c3c 279b e63c
00000130: 76e0 6fbd df0c 2e3d f302 9f3c 59ee 56bd
00000140: e558 cbbc 406d 89bd fb5e c73b 13a4 d63c
00000150: 6d8a 96bd e06b 41bd 2ff3 e5bb 9e98 093d
00000160: 487f d3bc a942 82bc f3b1 5e3d d049 82bc
00000170: 1e55 843b 3a71 abbd 20c2 1b3c 6c3d f03c
00000180: 2b6d b6bc 50bf d53c c544 2c3c 48cc 5b3b
00000190: 87e2 773c 4c8a 5f3c f7a4 383c 3166 f53c
000001a0: cacb 5c3d 13c6 87bd 5e67 763c 4018 21bd
000001b0: 0ab9 223d 38a2 5d3c bdc3 db3b d0ab acbb
000001c0: 6c0c b3bc 87e9 a63c 8263 56bd ff3e 363d
000001d0: 5472 ef3c d8e5 833c d795 4bbd 2cf8 2e3d
000001e0: 73a9 e0bc 2f6b 6a3c dcb3 3e3d fafe 403d
000001f0: 016d 16bd 6ef0 aebb 3293 963d 241f d9bc
00000200: 9723 f2bc f686 77bd 04c1 943d aa0c 993c
00000210: 16e8 66bd 8e70 54bd 0d12 263a 51dd 853d
00000220: 4602 3ebd d27a afbc 21ec f6bc 1ca4 c5bc
00000230: 61cc 3f3c 7b22 143d a52f fb3c 03f4 81bd
00000240: 1d32 80bd a9d4 0ebd 9b18 d43c 9668 f13c
00000250: 220f 10bd e0fa b53b bb49 373c 93cb ae3d
00000260: 162c a13c a043 2bbd 84a0 27bd 3b31 80bc
00000270: c9db 873c b320 34bd 8c56 9bbc a424 edbc
00000280: b327 7a3d 4daa 01bd 872e 503d 7da8 e8bc
00000290: 788c 32bd 77a9 38ba c91c 5f3a d7a8 1fbd
000002a0: 9b25 c7bc a88b dc3b 63cc 82bd 9f2d 3bbd
000002b0: 85fe 5abd a2df 783d 5cfc 843a d586 82bc
000002c0: ccb5 20bd cc82 41bd faf3 febc 0d42 b43c
000002d0: 0db1 19bd 94a2 293d 0cb9 9b3c f648 0e3d
000002e0: df5c 0c3d 8c1d ea3c 3078 823a e1d6 5bbd
000002f0: f11f 553d 713c 293c 5a41 8fbc ab24 3bbd
00000300: c43d bdbb ede3 803d f95c e63c 309d 053d
00000310: 926e f2bc 4dee 8cbc a6c0 8ebd e4c7 543d
00000320: 6fa0 063d 7cdb c8bc b395 26b9 1fcb ed3c
00000330: fcc8 093d fb86 61bd 91a4 663b fd22 31bd
00000340: 7e0b 5e3c 0fed 86bc b080 42bc 02eb 17bd
00000350: c6fa eb3b 8a30 7c3c cdeb 193d 37db e3bc
00000360: 29bb 66bb 0df7 82bb 30bb 15bd 9a74 2d3d
00000370: 5c30 84bd 2a7b 89bd 43e7 37bd 36bd 1cbd
00000380: 54ff e83b d133 da3c 9aac b2bb 2a42 5bbd
00000390: 53ce 26bd 3f26 ccbc 7ad7 50bb 67af 5abc
000003a0: d80a 5cbd eced 8aba cf43 8bbd b55f 023d
000003b0: 3855 603b fe47 783d 50ae 8f3c 8b89 a83a
000003c0: c4dc d9bc 841d f4bc 4f84 62bd 84f5 77bd
000003d0: 64f8 ffbc 7ace 0ebd 48cb 1ebc 2d39 fdbc
000003e0: c077 70bd 4546 48bd 7474 373d 76fd c93c
000003f0: 43aa 39bd 0804 323d a020 7f3c af1e 403d
0.0050033187 -0.040514793 -0.039062742 -0.03505517 -0.02743951 0.049629167 0.0074857567 0.009316725
-0.04146127 0.036016546 -0.059748996 0.016409853 0.04467956 -0.023849584 -0.045736928 0.011609769
0.031343155 -0.017378768 0.039541915 0.036185216 0.039469257 -0.06383205 0.049922787 -0.012309124
-0.086054556 -0.039024603 -0.005041982 -0.04728791 0.006940023 0.035807393 -0.0022337048 0.05744599
0.031982068 -0.02980989 -0.04415063 0.032241803 -0.04024852 -0.01573898 0.014759284 -0.062420055
0.010739086 -0.056015942 0.041788332 -0.04455151 -0.012878898 0.011639119 0.012335013 0.04517269
-0.062384963 0.004253491 -0.075668626 0.058317475 -0.041881844 0.016070357 -0.04144656 -0.001793981
0.026496584 0.021263214 0.023024004 0.006276331 0.026301162 0.046272676 -0.065503314 -0.042103063
-0.055426322 0.032432623 0.05002154 -0.022796461 0.05683577 -0.054816205 0.013513901 0.001450114
-0.059583694 -0.0312779 0.017199881 0.028150154 -0.058563672 0.042492744 0.019410586 -0.0524734
-0.024822662 -0.06710291 0.0060843206 0.026201284 -0.07350621 -0.04722202 -0.007017515 0.033592813
-0.025817528 -0.015900927 0.054368924 -0.015904337 0.004038467 -0.08371206 0.009506732 0.029326163
-0.022268852 0.026092201 0.010514443 0.003353851 0.015129692 0.013643812 0.011269799 0.029955955
0.053905286 -0.066295765 0.015039293 -0.039329767 0.03972725 0.0135274455 0.0067066834 -0.005269505
-0.02185651 0.020375026 -0.05234099 0.04449367 0.02922932 0.016100809 -0.049703445 0.042717144
-0.02742455 0.014307781 0.046558246 0.047118165 -0.036725048 -0.00533872 0.07352294 -0.026504107
-0.029557986 -0.060431443 0.07263377 0.018682797 -0.05637368 -0.051865153 0.0006335087 0.065363534
-0.046388887 -0.02142087 -0.030141892 -0.024126105 0.011706443 0.036165696 0.030662367 -0.0634537
-0.06259558 -0.034870777 0.025890639 0.029468816 -0.03517068 0.0055535883 0.011187012 0.085349225
0.019674342 -0.04181254 -0.040924564 -0.015648475 0.016584294 -0.043976497 -0.018962167 -0.028948136
0.061073016 -0.031656552 0.050825622 -0.028400654 -0.043590993 -0.0007044295 0.0008511064 -0.038979378
-0.024309924 0.0067305155 -0.0638664 -0.045697805 -0.053465385 0.060760148 0.001014601 -0.015933434
-0.039235875 -0.04724388 -0.031122196 0.022004152 -0.037522364 0.041414812 0.019009136 0.03473755
0.034268256 0.028578542 0.0009954032 -0.05367172 0.052032415 0.010329352 -0.017487217 -0.045689266
-0.0057751853 0.062934734 0.028120505 0.03262061 -0.02959374 -0.017203474 -0.069703385 0.051948443
0.032867845 -0.02451872 -0.00015886761 0.02902752 0.03363894 -0.055060368 0.0035193304 -0.043246258
0.013552545 -0.01647046 -0.011871502 -0.037089355 0.0072015254 0.015392432 0.037578393 -0.02781449
-0.003520677 -0.003996736 -0.03655547 0.042347528 -0.06454536 -0.06712945 -0.044898283 -0.038266383
0.0071105156 0.026636036 -0.0054527046 -0.053529896 -0.04072411 -0.02492058 -0.0031866715 -0.013347483
-0.05372128 -0.0010599471 -0.06800043 0.031829555 0.0034230482 0.060615532 0.017539173 0.0012858374
-0.026594527 -0.02979923 -0.05530196 -0.060536876 -0.031246372 -0.03486488 -0.009692021 -0.030911053
-0.058707952 -0.04889514 0.044788793 0.024656992 -0.04532839 0.043460876 0.015571743 0.046904262

actor.2.bias f4 [256]
00000000: 945e bf3b 5a18 093d 5c04 733d 4329 d53b
00000010: 1dc4 2bbd ea1c 073d fa36 10bd 6775 e13c
00000020: 6a72 05bd 582c 743d af4c 19bd 33d4 70bb
00000030: 83ae a0bc f051 e73b fde5 193c bc97 093d
00000040: 4be5 673b a1c7 7ebd f700 8dbd c512 85bd
00000050: e521 16bd a739 7d3d 221d 843c 97d1 b3bc
00000060: 48b1 7a3c 1e74 2f3d 6aae 5dbd b8e5 5bbc
00000070: e978 333d 175d 823c 1058 e93b f0cd 3f3d
00000080: 7848 333d d172 d8bc 72ab 5b3d 9e5c 4fbd
00000090: 45bb ab3c 4c2a c5bc b2dc 96bd dc16 4e3d
000000a0: 4df5 1fbd 8fad 8dbb 5c14 e63b 0340 423d
000000b0: 811d 05bd 3f8f 1c3d 663b 513d e2bf b4bc
000000c0: 979a 08ba bcdc 723c ca5b 27bc 0f10 b4bc
000000d0: f743 53bc 4fff 3cbd 34bc 6dbd 9622 65bc
000000e0: 7b20 90bd d48c 3d3d a154 35bd 2a49 22bd
000000f0: bca3 473d b2a7 d0bc c6be 47bb 5764 21bd
00000100: a2e9 643d 985f 07bc 4056 4cbc 44f1 12bc
00000110: 20b8 3c3d a43f 4c3d d0e4 98bb 8f01 4cbd
00000120: db9e 853c 21d0 57bb 9361 6c3d 939e 663d
00000130: ae12 0fbd fa17 013b 55b2 f53c afc8 4dbd
00000140: 85ae 05bb 48ab 2a3c bf1a 683d 4a01 4cbd
00000150: 3dbc 903d a0cb 363d ba5e 95bc a40a b0bc
00000160: b696 0a3b ad2e 97bb f8f7 ee3c 369c d03a
00000170: 5d52 4d3d c1ec 60bd e53c 45bc 8fde 0dbd
00000180: 34e2 fcbc b3a6 2cbd 042c 613b 26e8 903d
00000190: 083e e8bc f4aa 6abd 0b21 863d da53 1a3d
000001a0: d54b 25bd 4b01 13bb 749d 5f3d 506e 7cbc
000001b0: 730e 653d e872 91bb 5e9d 973c 699e 023d
000001c0: 268f 75bd 5070 893d f272 423d d796 0dbd
000001d0: b019 7a3d 1a43 11bd bce2 afbc 7541 293d
000001e0: befe e8bc a494 ccbc da7b b93c 7081 41bd
000001f0: 4edd 34bc c7cd 65bd 01b6 47bc 3255 59bd
00000200: 7b21 0e3c 04cb 8d3c 256c 87bd ded4 0cbd
00000210: c38e 7bbc 564c 26bd cd68 d43b b38f 193c
00000220: 03f8 16bd 0399 d8bc ca31 a43c dc58 97bc
00000230: 24de 253d 5f2c 343d 3a54 09bd b0e4 893b
00000240: daa5 e53b 5751 77bd fab3 1fbd b59a 7bbd
00000250: f891 59bc 6838 c7bc ee10 80bc a82c bbbc
00000260: 9a7f f1bc d8ae d7bc 7640 203d bbf3 bebc
00000270: ef97 05bd f8bc 683d ef33 e7bc 4d35 38bd
00000280: ae19 853c 4bd9 14bd 7ab4 473d fa2a ee3b
00000290: 6c09 bbbc bcb5 1ebc 3400 433d d350 91bd
000002a0: 9443 88bc 86c7 1e3b 96ce f83b 20b1 8e3c
000002b0: dda5 50bd 7f4d 2fbd c86a 143c 272d 133d
000002c0: 5bfc 823c 4176 f6b9 bb95 6c3c 2a30 593d
000002d0: 8949 de3c 97c0 8cbc 4b4b aabc 8376 ca3c
000002e0: a43f 1d3d 1242 2c3b 9189 2b3d 76de 613d
000002f0: d517 08bd 0c29 0c3d faab 7d3c 85c4 27bb
00000300: 1ca6 333d 8be5 bdbc b8ae 1d3d 3147 64bc
00000310: c284 4cbd bc81 bfbc c4e8 94bc 0800 c13c
00000320: c0ff 473d 0988 30bd 2671 7b3d e87f 36bc
00000330: 6d86 723c 81eb 7cb9 1680 c7bb 1282 89bc
00000340: 1e05 3abc 98f8 eb3c 601f 90bd eed8 9a3d
00000350: 30d4 c1bc c794 573c 7e33 27bd 6a9f 65bd
00000360: 9336 69bd d18e 983c 8f41 533d 23ff 93b9
00000370: d063 843d 3d6a 283c 93e1 2bbb 4fbd f2bc
00000380: d0b2 7cbc afd7 5e3d 595e 763c eefb 65bd
00000390: e31d ac3c 2a95 e43c 7428 e63c ae50 363d
000003a0: 9840 713b c584 28bc a376 40bd d294 26bd
000003b0: d4e5 e43c 62c8 1e3d 7e7e 3ebd 9fb3 63bd
000003c0: 01ac a03b 7048 363d cf4f 803c 7af8 1e3d
000003d0: aa83 0abc d11f 65bb 5f27 e13b 48e4 93bd
000003e0: 18bd 6d3c 5753 ea3b 6ae9 993c 3c0c 803b
000003f0: 2454 2bbd 7dc0 703b 8e8c 553d 9ae8 0fbd
0.005840132 0.03347049 0.05933033 0.006505163 -0.041935075 0.03298656 -0.03520868 0.027521802
-0.032579817 0.059612602 -0.037426647 -0.0036747574 -0.019614464 0.0070593283 0.009393212 0.03359197
0.0035384472 -0.0622021 -0.0688495 -0.06497721 -0.036653418 0.06182256 0.016127173 -0.021950526
0.015301056 0.042835347 -0.054121412 -0.013421468 0.04381648 0.01591353 0.0071210936 0.046827257
0.043770283 -0.026421936 0.0536303 -0.050625436 0.02096332 -0.02406802 -0.07366313 0.05031477
-0.039052296 -0.0043236683 0.00702147 0.047424328 -0.03249884 0.038222548 0.051082037 -0.022064153
-0.0005211024 0.014823135 -0.010214755 -0.021980314 -0.012894622 -0.04614192 -0.058040813 -0.013985297
-0.07037445 0.046276882 -0.04427016 -0.039620556 0.048740134 -0.025470588 -0.00304787 -0.039402332
0.055886872 -0.008262537 -0.0124717355 -0.008968655 0.046074033 0.04986538 -0.0046659485 -0.049806174
0.0163111 -0.003293045 0.05771024 0.056303572 -0.034929924 0.001969813 0.029992262 -0.050240215
-0.0020398211 0.010416813 0.056666132 -0.049805917 0.070671536 0.044627786 -0.018233646 -0.021489449
0.002114696 -0.0046137185 0.029170975 0.0015915695 0.050127376 -0.054913286 -0.012038444 -0.034636077
-0.03086958 -0.042151164 0.003435851 0.07075529 -0.028349891 -0.05729194 0.06549271 0.037677623
-0.040355522 -0.002243119 0.05459352 -0.01540716 0.055921983 -0.0044387467 0.018507656 0.031889353
-0.05995097 0.06710875 0.0474729 -0.03456768 0.061059654 -0.035464384 -0.02147042 0.04132219
-0.028441783 -0.024973221 0.022642065 -0.04724258 -0.011039091 -0.056104448 -0.012189389 -0.053059764
0.008674975 0.01730872 -0.06612424 -0.034382693 -0.015353861 -0.040600143 0.00648222 0.0093726395
-0.036857616 -0.02644015 0.020043273 -0.018474989 0.040495053 0.043987628 -0.03352759 0.00420817
0.0070082964 -0.060380306 -0.03899 -0.061426837 -0.013279431 -0.024318889 -0.015633073 -0.022848442
-0.02947979 -0.02632849 0.039123975 -0.02330958 -0.0326156 0.05682084 -0.028223006 -0.044972707
0.016247597 -0.03634004 0.0487561 0.007268307 -0.022831641 -0.009686884 0.047607616 -0.07095494
-0.016633786 0.0024227812 0.0075929863 0.017418444 -0.05093943 -0.042798515 0.009058662 0.035931733
0.015989473 -0.00047008882 0.014439995 0.05302445 0.027134674 -0.017181678 -0.020787856 0.024714714
0.03839077 0.0026284498 0.04187924 0.055143796 -0.033225853 0.034218833 0.015482897 -0.0025599313
0.043859586 -0.023180744 0.038496703 -0.013932989 -0.049931295 -0.023377292 -0.018177398 0.023559585
0.048827887 -0.043098483 0.061387204 -0.011138894 0.014802557 -0.00024120325 -0.006088267 -0.016785655
-0.011353759 0.028805062 -0.07037234 0.07560907 -0.02366075 0.01315803 -0.04082059 -0.056060232
-0.05693681 0.018622788 0.051576193 -0.00028228117 0.0646435 0.010279235 -0.0026226982 -0.029631285
-0.015423492 0.05440491 0.015037143 -0.056148462 0.021010345 0.027903158 0.028095461 0.044510536
0.0036812183 -0.010285561 -0.04698814 -0.04066927 0.027941622 0.03876532 -0.04650735 -0.055591222
0.004903317 0.044502676 0.015663056 0.038811184 -0.008454243 -0.003496159 0.0068711485 -0.072212756
0.0145104155 0.007151048 0.018788058 0.0039077085 -0.04182829 0.0036735826 0.052135997 -0.035133936

actor.4.weight f4 [2, 256]
00000000: bfe5 30bd 1bb8 1e3d 2bad bfbd fcf9 fe3d
00000010: aef6 a8bc 1652 f7bd 6843 39bd 7391 c1ba
00000020: 4b59 87bd c1d4 013e eb0b 843c 3a09 8a3d
00000030: f1b4 42bd 87d6 293e d404 7ebb cb1e cc3d
00000040: 9952 043d 9e16 ad3b 6e6f 5fbd 4110 fbbc
00000050: 4fcd 0f3c 8d3c 91bd 4ebc e0bc 8c29 483d
00000060: 3b2e 543d 481d 793d da09 7b3d 0b52 7ebd
00000070: cdd6 1fbd 5276 ccbd c21f 83bd 4c09 633c
00000080: 36cf 033c 61c5 33bd bb13 aabc 8e53 473d
00000090: b816 97bd b776 cc3d a69a b8bc f192 a43d
000000a0: 875a 643d 0a19 ce3d 9cc3 3abd 6503 dfbd
000000b0: 175b 90bd c66e 0cbd c457 203d 74b2 043e
000000c0: 4768 b43d 90f4 65bd 583f 343d d910 ab3c
000000d0: da2a 3e3d 72b4 3dbd 1c00 493b ea7e b33d
000000e0: 0b5c d0bc 6dcc 1d3e e83d 81bd 78c7 513d
000000f0: 5ae0 873d 48f6 2e3b 9a19 3c3d 1cbc a4bc
00000100: 546c 8bbc 061f e0bd 1a25 60bc faf8 ddbd
00000110: 5cfe 373d 5b6a 07be b737 fe3d 67a1 5e3c
00000120: 77eb dabc c7c1 96bd 60d8 303e 3ceb 3cbd
00000130: bf73 80ba c540 e3bc c9db 4b3d e54b dfbc
00000140: ff10 28bd ee3a 063e b8f7 78bd 2529 2bbd
00000150: 47a4 8cbd e409 d6bc 05da cc3b 2352 d33d
00000160: bfe8 e33c 3de9 563c 1bbd 9b3d 104e c8bd
00000170: f2a4 66bd d68f 30bd c718 1f3c 8232 a63d
00000180: f450 7b3d c03c a8bc 15c0 913d ce32 ddbd
00000190: b383 843d 1b41 c339 873f e63d af56 54bd
000001a0: 20db 123e e7d8 f93d 34c6 9b3d 80bb 593c
000001b0: 0414 4bbd e780 073d b4fc 12bd e756 01be
000001c0: 529c 4ebb 04ad ccbd 8cf6 fabc f988 ea3d
000001d0: a7f0 b3bd 6657 91bc 68a0 87bc 89fd af3d
000001e0: 2b7d 8fbb 7a8b abbb f039 9dbc e033 df3d
000001f0: f223 0cbd 7620 2c3c d151 243e 3068 c0bb
00000200: 4c6a 013e 06b8 0bbd e452 adbc e155 14ba
00000210: 29fd 923d 2bd1 0dbd 4a28 b4bd 19c6 623d
00000220: 289f 50bc c318 46bd 9a99 f9bc 273a d8bd
00000230: 18ed 6cbb 2e9e 423d 9098 923b b6ef ac3c
00000240: 95ca cdbd e712 50bc e608 19bd 5796 61bc
00000250: d02a 153b 71fd c2bd d0e7 b73d 7a15 46bd
00000260: 8900 38bd 2b28 563a 9bf0 fa3c 08d1 b3bc
00000270: aa35 333e 3d0a f1bb f17f 983d 0d9a 003d
00000280: bdb3 6abd 4c52 213e f490 163e 23a3 acbd
00000290: 0e90 54bd aad1 42bc 7a30 b53d 12b4 63bc
000002a0: 17e5 c83d 1a55 c93d c271 a43b 1b46 eebd
000002b0: 35d4 4c3d 5f26 ddbd e467 cb3c efaf 5cbd
000002c0: bd8d 0f3d a4ac 623d 7cc7 cdbd fca8 05bd
000002d0: ca49 9bbc e033 58bd e517 34bd ba68 c9bd
000002e0: 4825 063e 29b8 86bd a134 a83c 2535 ee3d
000002f0: f793 d4bd 9b68 8cbd b6f1 d7bc 2b9e 5fbd
00000300: 1eb1 f5bd 2242 d2bd 989e afbc 400c 53bd
00000310: 6df5 5b3c f02b 3b3d 756b 4e3d 6ebf a9bd
00000320: c86d e43d 8c65 2d3d be2f 7c3d d20b 113c
00000330: 4de4 e3bb d228 04be 1811 f53c 2490 9d3c
00000340: 6366 a3bd 1093 c4bd 3c44 70bc 1fcf d2bd
00000350: a459 c0bc 3ec8 b5bd 72a2 243d 29cd e73d
00000360: 4175 9139 4216 473c 1432 543d 4477 47bd
00000370: b080 113e 6d85 003e 0efc 0abd b6a0 69bd
00000380: 5888 39bc 6db8 f2bd 82e3 073a 9098 adbb
00000390: b75f c8bd 8315 f9bd 69bf 743d 54aa cb3d
000003a0: 68ba 193d 1007 b43d 5012 0c3e 8ec5 c43d
000003b0: c209 b4bc 037a e83d aad2 6c3d 3465 1d3d
000003c0: a5c2 113d 0863 623d cc0d a73c 4b63 17bd
000003d0: 7db4 d1bd 08c3 993d 5828 713c 7567 5ebd
000003e0: 27a2 5a3d b109 c03d a0a6 3ebd 59b5 193d
000003f0: 16bb 083d fd97 c7bc 6ff9 e6bd a288 023e
-0.043187853 0.038749795 -0.09359201 0.124500245 -0.020625439 -0.120762035 -0.0452303 -0.0014768079
-0.06608828 0.12678815 0.016118964 0.06740041 -0.04753584 0.16585742 -0.0038760202 0.09966811
0.032305334 0.005282237 -0.054549627 -0.030647399 0.008776977 -0.07091627 -0.02743354 0.048867747
0.0518019 0.06081894 0.061288692 -0.06208996 -0.03902321 -0.09983505 -0.06402542 0.013857197
0.008045008 -0.043889407 -0.020761361 0.04866367 -0.0737738 0.099835806 -0.02253468 0.08035839
0.055750396 0.100633696 -0.045596704 -0.10889319 -0.07048624 -0.03428533 0.0391462 0.129587
0.08808952 -0.056141436 0.04400572 0.020882057 0.046427585 -0.046314664 0.0030670231 0.08764441
-0.025434515 0.15410013 -0.06310636 0.05121562 0.066345885 0.0026697088 0.045922853 -0.020109229
-0.017019428 -0.10943417 -0.013680721 -0.10838504 0.04492031 -0.13224165 0.124129705 0.013588286
-0.026723607 -0.07361179 0.1727004 -0.046122774 -0.000980012 -0.027740845 0.04977015 -0.027257869
-0.041031834 0.13108417 -0.060783118 -0.041787285 -0.06867271 -0.026127763 0.006251576 0.10318401
0.027820943 0.013117132 0.076044284 -0.09780514 -0.056309648 -0.043105923 0.009710497 0.08115102
0.0613565 -0.02053678 0.07116715 -0.10800706 0.06470432 0.00037241806 0.11242586 -0.05184048
0.14341402 0.12199574 0.076061636 0.013289332 -0.049579635 0.033081915 -0.035885528 -0.12630807
-0.003152628 -0.099939376 -0.03063514 0.11451907 -0.08786135 -0.01774187 -0.01655598 0.0859328
-0.004378935 -0.0052351328 -0.019192666 0.10898566 -0.034213968 0.010505786 0.16046835 -0.005871795
0.12638205 -0.034111045 -0.02115769 -0.0005658549 0.07177193 -0.034623306 -0.08796747 0.055364702
-0.012733258 -0.04836346 -0.03046875 -0.10557967 -0.003615206 0.047514133 0.0044737533 0.021110397
-0.10048405 -0.012699819 -0.037362 -0.013768754 0.0022761114 -0.09520996 0.089797616 -0.048360325
-0.044922385 0.00081694376 0.030632308 -0.02195026 0.1750094 -0.007355957 0.07446278 0.031396914
-0.057300318 0.1575405 0.14703733 -0.08429553 -0.051895194 -0.011890808 0.08847137 -0.013897913
0.098093204 0.09830685 0.005018444 -0.11634465 0.050007064 -0.10798334 0.024829812 -0.05387872
0.03504728 0.055340424 -0.10047814 -0.03263186 -0.018956084 -0.052783847 -0.0439681 -0.09834428
0.13100159 -0.065780945 0.020532908 0.1163123 -0.103797846 -0.068558894 -0.026360374 -0.0545942
-0.11996673 -0.1026652 -0.021437928 -0.051525354 0.013425213 0.0456962 0.050395448 -0.082884654
0.111537516 0.04233317 0.061568968 0.008852916 -0.006954706 -0.12906197 0.029915377 0.01923377
-0.07978513 -0.095983624 -0.014664706 -0.102934115 -0.023480244 -0.08876084 0.040193982 0.11318428
0.00027743916 0.012151303 0.05180557 -0.048697725 0.14209247 0.12550898 -0.033931784 -0.05703803
-0.011324011 -0.11851583 0.00051837426 -0.005297728 -0.09783881 -0.12162306 0.059752855 0.09944597
0.037531286 0.087904096 0.1367886 0.09607993 -0.02197731 0.11351397 0.057818092 0.038426593
0.035586018 0.055270225 0.020392321 -0.036959928 -0.102395035 0.075079024 0.014719091 -0.054297883
0.053377297 0.093768485 -0.046545625 0.037526462 0.033381544 -0.024364466 -0.112780444 0.12747434

actor.4.bias f4 [2]
00000000: ba4f 59bd c6cd abbc
-0.05305455 -0.020972144
